results/ZBHCC/ZBHCC-1499688.onnx (onnx, 553552 bytes, 7 tensors)

network_body.linear_encoder.seq_layers.0.weight f4 [256, 22]
0.54419035 -0.15276298 -0.105186604 0.02701478 0.021609293 -0.086033426 0.18435077 0.17287046
-0.15224075 0.028974708 0.2202892 0.019776493 -0.076092444 -0.019211223 0.4458696 -0.3702194
-0.055180658 0.0665627 -0.21960378 0.16339822 0.18703718 0.019920895 -0.31840026 0.2415152
0.28288177 -0.26896843 0.20256047 -0.13981077 0.20161583 -0.13437037 -0.13541694 0.44390225
0.30457708 -0.06634779 -0.049322724 0.438188 -0.016460061 -0.15215458 -0.11684469 -0.03485746
-0.06776113 0.264493 0.22399744 0.06385313 0.34670427 -0.05035515 0.16806345 -0.01720351
-0.08366273 0.2701997 0.22723591 -0.10695848 -0.24389644 0.33442703 0.15077327 0.12886399
0.27002648 -0.14065926 0.23466776 -0.22772413 0.2708911 0.33411273 0.026497895 0.22650044
-0.23865214 -0.18733029 -0.7805701 0.17529353 0.026758872 -0.16397947 0.033080358 -0.18723382
-0.10548345 0.20706609 -0.42961472 0.021814913 0.18408245 0.16287875 -0.26436612 -0.17429255
0.38793838 -0.15874422 0.04623192 0.36588597 -0.24954109 0.14422423 0.18174195 -0.2647429
0.24337909 -0.42345795 0.44149575 -0.23933274 -0.022290288 -0.21773311 -0.068973154 -0.18821283
0.047407746 0.364929 -0.36884788 -0.38893622 0.13561417 0.14750543 0.15688005 0.06961853
0.19048154 -0.33204398 -0.007231611 -0.3901716 0.10556996 -0.03094796 0.066034414 0.042782225
-0.081714295 0.18985996 -0.029642206 0.37839523 0.14978363 -0.043887526 -0.074588835 -0.17855369
-0.073585905 -0.1395045 0.3599613 0.33066675 0.40077683 -0.016018054 0.29999006 -0.052956346
0.17164364 0.12737118 0.09187472 0.30183226 0.38690016 -0.096117236 0.14625455 -0.4721394
-0.26270583 0.32357407 0.20419581 -0.17517713 -0.28557685 0.0896726 0.24510425 0.20012572
0.02264641 0.2257526 -0.5377278 -0.0729502 0.3014616 0.12995814 0.023918265 0.37201765
-0.11490827 -0.0879232 0.049067594 -0.13151953 0.4087801 -0.05096857 0.42722598 -0.26141298
-0.06966896 -0.091712505 -0.14114843 0.25278616 -0.07162061 0.549903 0.08644232 0.27523452
-0.02320711 0.28150797 0.2659101 0.38387734 0.07069123 -0.118301466 -0.16890727 -0.19368735
-0.12504132 0.41071066 -0.25112265 -0.25722232 0.073972516 -0.08450011 -0.36762828 0.20131072
-0.21688132 -0.28282452 -0.10932523 -0.038707487 -0.13827246 0.03384815 -0.14941445 -0.033811975
-0.5423347 0.15407644 0.11261544 -0.1284337 0.09443862 0.4709419 0.096892595 -0.04001472
-0.049478255 0.37633166 -0.089527585 -0.2574278 0.20394856 -0.080209225 0.07056209 0.146974
-0.0073825265 0.08927407 -0.18076126 0.10070611 -0.056946933 -0.14979452 -0.16544731 0.1745968
0.036274258 -0.23103489 0.20535935 0.04298455 -0.2473902 0.14358702 0.040631764 -0.053117316
0.17275676 -0.22820202 -0.056093037 -0.03473117 0.640797 0.12251304 0.13061802 0.12488374
0.16192056 -0.25030595 0.08433947 -0.01581926 0.06470496 -0.10453618 -0.09558537 0.27867854
0.20989028 0.4069373 -0.14937241 -0.005380192 -0.08244622 -0.1176048 0.050596472 0.17680345
0.1217727 -0.08566325 -0.049294412 -0.22792943 -0.022598863 0.071496986 0.04148716 0.21709844
00000000: 0f50 0b3f e66d 1cbe 136c d7bd 1a4e dd3c
00000010: f905 b13c 4b32 b0bd 73c6 3c3e f404 313e
00000020: 00e5 1bbe 5e5c ed3c 7e93 613e 5002 a23c
00000030: 5bd6 9bbd db60 9dbc 0549 e43e 668d bdbe
00000040: 1d05 62bd 0652 883d d0df 60be dd51 273e
00000050: ad86 3f3e 2531 a33c 5c05 a3be c34f 773e
00000060: e1d5 903e 3bb6 89be 036c 4f3e 8e2a 0fbe
00000070: 6174 4e3e 6398 09be bdaa 0abe 2847 e33e
00000080: 87f1 9b3e 5ae1 87bd a006 4abd 2d5a e03e
00000090: 40d7 86bc 69ce 1bbe 454c efbd b2c6 0ebd
000000a0: 59c6 8abd a06b 873e 965f 653e 6ec5 823d
000000b0: 3983 b13e 3441 4ebd d318 2c3e 60ee 8cbc
000000c0: 5e57 abbd 9d57 8a3e 88b0 683e 0c0d dbbd
000000d0: fdbf 79be 053a ab3e 4f64 1a3e ecf4 033e
000000e0: e940 8a3e fb08 10be bf4c 703e 8430 69be
000000f0: 3db2 8a3e d310 ab3e 1d12 d93c bbef 673e
00000100: 3a61 74be 83d3 3fbe 71d3 47bf 2680 333e
00000110: 6c35 db3c 3cea 27be 457f 073d 39ba 3fbe
00000120: b507 d8bd 2209 543e 76f6 dbbe 30b5 b23c
00000130: 1c80 3c3e b0c9 263e ff5a 87be bf79 32be
00000140: dc9f c63e d88d 22be af5d 3d3d 6855 bb3e
00000150: b387 7fbe 84af 133e 901a 3a3e 628c 87be
00000160: 5e38 793e 7bcf d8be bb0b e23e a413 75be
00000170: 1f9a b6bc 6ef5 5ebe cc41 8dbd ddba 40be
00000180: a02e 423d f9d7 ba3e a1d9 bcbe a622 c7be
00000190: 71de 0a3e aa0b 173e 2aa5 203e 2994 8e3d
000001a0: 980d 433e ab01 aabe 26f7 ecbb 92c4 c7be
000001b0: 1035 d83d 9486 fdbc 0d3d 873d 6a3c 2f3d
000001c0: d359 a7bd a66a 423e 36d4 f2bc 05bd c13e
000001d0: e160 193e 68c3 33bd 08c2 98bd c7d6 36be
000001e0: 35b4 96bd 45da 0ebe d94c b83e 274d a93e
000001f0: 9f32 cd3e 4b38 83bc 4c98 993e c1e8 58bd
00000200: 5ac3 2f3e 976d 023e d028 bc3d c289 9a3e
00000210: c717 c63e 1dd9 c4bd c1c3 153e 41bc f1be
00000220: 6181 86be 80ab a53e b518 513e a261 33be
00000230: 2137 92be 45a6 b73d 9cfc 7a3e c2ed 4c3e
00000240: f784 b93c b12b 673e 87a8 09bf ea66 95bd
00000250: 2d59 9a3e bf13 053e 3df0 c33c 1979 be3e
00000260: 0755 ebbd 1411 b4bd 1afb 483d 0ead 06be
00000270: a04b d13e 6bc4 50bd 5dbd da3e ecd7 85be
00000280: 9aae 8ebd c4d3 bbbd 3789 10be 306d 813e
00000290: d4ad 92bd 71c6 0c3f ac08 b13d 8aeb 8c3e
000002a0: d61c bebc d021 903e 5e25 883e 928b c43e
000002b0: 90c6 903d 0a48 f2bd 07f6 2cbe fa55 46be
000002c0: d50a 00be ab48 d23e 2693 80be a5b2 83be
000002d0: e77e 973d 650e adbd c639 bcbe 6624 4e3e
000002e0: 2316 5ebe 60ce 90be e8e5 dfbd be8b 1ebd
000002f0: 4c97 0dbe 5ca4 0a3d 1a00 19be 6d7e 0abd
00000300: 72d6 0abf 37c6 1d3e eca2 e63d 2084 03be
00000310: 0969 c13d 4c1f f13e a06f c63d 7ae6 23bd
00000320: b6a9 4abd 8bae c03e 3d5a b7bd 94cd 83be
00000330: e4d7 503e bc44 a4bd db82 903d 5a80 163e
00000340: 1fe9 f1bb 53d5 b63d 7b19 39be 013f ce3d
00000350: 3041 69bd bc63 19be 056b 29be 81c9 323e
00000360: 5194 143d 6994 6cbe b949 523e 9110 303d
00000370: db53 7dbe 7a08 133e 7e6d 263d 8b91 59bd
00000380: 26e7 303e caad 69be d0c1 65bd 4542 0ebd
00000390: 460b 243f 1ee8 fa3d bbc0 053e 0cc3 ff3d
000003a0: 81ce 253e 1a28 80be 2cba ac3d 6597 81bc
000003b0: 0984 843d 1117 d6bd 43c2 c3bd f4ae 8e3e
000003c0: 7aed 563e 165a d03e 15f5 18be 524c b0bb
000003d0: 90d9 a8bd c9da f0bd 3f3e 4f3d f70b 353e
000003e0: f763 f93d 3770 afbd f0e8 49bd 5566 69be
000003f0: 4021 b9bc 036d 923d 71ee 293d 0e4f 5e3e

network_body.linear_encoder.seq_layers.0.bias f4 [256]
-3.695965e-05 -0.00013257765 -0.0010996575 0.00071321614 -0.003488178 0.0037801673 0.0018536288 -0.0017729882
-0.00128907 -0.0025972142 -0.005594463 0.00020231672 -0.0017751461 -1.3964185e-05 -0.0027217679 -0.001124533
0.00044395827 7.7535056e-05 0.0003725264 0.0001569675 9.277603e-06 0.0011257943 0.00048123318 -0.00052498444
0.0035053594 0.002072765 -8.0147365e-05 -0.0003809505 0.0019213915 0.0014690501 0.0008138197 -0.00045475617
-0.0027691422 -0.0026943928 -0.0048539587 0.0066103623 -0.0015574802 -0.005758007 -0.0024854045 -0.0006360651
-0.0017080341 7.3570816e-05 5.9302052e-05 -0.00011239332 0.0023714232 -0.00042508586 0.001317827 0.000564425
-0.00041535214 -0.0035469104 -0.0012990112 -0.00057152763 -0.0011528429 0.0017614017 -0.0010106472 -0.0030467587
-0.00054187194 0.001593004 -0.000859488 -0.001203199 -0.0032017033 0.0022988203 0.007541777 -0.00023063313
0.00546046 -0.00047376237 -0.001992792 -0.0007336731 0.0013661394 9.082133e-05 -0.004254211 -0.0006216408
-0.0004388002 0.002223667 -6.894461e-05 -0.0057471674 0.002909267 -0.0034936143 6.399878e-05 -0.0029364035
0.0011586664 0.00070423074 0.0004034625 -0.0032189777 2.7357966e-05 -0.0008492094 -0.000421479 -0.0019709219
-0.0003146665 0.001085531 0.0026118904 0.0030759342 -0.0013248943 -0.0001377289 0.0037608512 -0.0016252584
-0.0035405227 0.0038086516 9.362068e-05 -0.0009178259 -0.0014603324 -0.0008412947 -0.00036542778 -0.00044606742
-0.0009989245 -0.00084316963 -3.0219842e-05 -0.0027053826 0.0007433914 -0.0011504043 -0.0014613727 -0.0027646543
-0.00061494997 -0.0011604876 -0.005383912 0.002883386 -0.0021881517 0.0005359155 -0.0029241715 -0.0024263877
-0.0025383912 -0.0022722047 -0.0033245704 -0.00025786555 0.0018658851 -0.0032696982 3.904557e-05 -0.0021304102
-0.0067233653 0.0010466864 -0.0026686478 -0.002386754 0.00094973674 0.0025527205 -0.0043498566 0.00030344052
0.004458545 0.0007309081 0.00080910255 -0.0007053433 0.00016331662 -0.00032112448 -0.00070606737 0.0008897157
-0.0020898797 0.0015737579 0.00057147717 -0.0023877232 -0.002929386 -0.0027884434 0.0018241901 -0.00067586306
-0.0026561038 -0.0008820191 0.0015056595 -0.005380296 -0.005505539 -0.0011321263 -0.006919946 -0.003748337
-0.0009695135 0.0013013904 -0.00046095785 -0.0041526724 -0.00093729026 -0.0010550362 -0.0038156898 -0.0020353948
-0.0027744868 -0.0018498055 0.0015498874 -0.0005893798 0.0015719325 -0.0022149847 -0.0002912892 -0.0015542456
-0.0016681565 0.0023056269 -0.00020996701 -0.00097426766 -0.0017008625 -0.00089434645 0.0012254143 -0.006702363
-0.0005412327 -0.0012402444 -0.007041466 0.0008782429 -6.2272243e-06 -0.00038715886 -0.003853594 -0.00507555
0.0006203772 -0.0011755895 -0.003467641 -0.0015083107 -7.5872276e-06 0.005838625 0.0024247118 -0.00017897067
-0.003047308 -0.0017371776 -0.00243984 0.0008341301 -0.004014389 0.0048722457 -0.0044472436 -0.0005421788
-0.0022229303 -0.0026718876 0.0031152738 -0.0026340268 0.0035619063 0.0003943176 0.0013185473 0.0013499697
-0.0025295138 -0.0046477835 -0.0010131006 -4.456926e-05 -0.0029224239 0.0009386377 0.00035396815 -0.006631314
-0.0024862618 -0.0007212407 -0.0037585432 -5.5728335e-05 0.00034974597 0.0012118934 -5.42273e-05 -0.0019319119
-0.0012063002 -0.00093603664 -0.00018002372 -0.00012678193 0.0009813539 -0.0025469188 -0.002692948 -0.0019991507
-0.001251829 0.00020355544 -0.0006600726 0.0004478763 -0.0015697211 0.0004889331 0.0022205377 -0.00054209476
-0.0060889707 -0.0009332125 0.0013318728 -0.0019046975 0.003934524 -0.0012387128 -0.006938046 -0.00017654989
00000000: 1f05 1bb8 8b04 0bb9 6222 90ba 20f7 3a3a
00000010: ea99 64bb afbc 773b 76f5 f23a 9d63 e8ba
00000020: 03f6 a8ba 0636 2abb c251 b7bb fb24 5439
00000030: 05ac e8ba b847 6ab7 b05f 32bb 1165 93ba
00000040: 12c3 e839 519a a238 a64f c339 a497 2439
00000050: 00a7 1b37 638f 933a 064e fc39 1c9f 09ba
00000060: 2cba 653b 3ad7 073b ca14 a8b8 50ba c7b9
00000070: 33d7 fb3a 248d c03a 8456 553a 576c eeb9
00000080: 7f7a 35bb 6994 30bb f50d 9fbb bd9b d83b
00000090: 5d24 ccba aaad bcbb 2be2 22bb 9bbd 26ba
000000a0: 1de0 dfba 084a 9a38 18bb 7838 b4b4 ebb8
000000b0: e169 1b3b 0fde deb9 f0ba ac3a ecf5 133a
000000c0: 9fc3 d9b9 4873 68bb 9543 aaba 92d2 15ba
000000d0: fd1a 97ba d5de e63a b177 84ba 21ac 47bb
000000e0: 690c 0eba 58cc d03a 434f 61ba a9b4 9dba
000000f0: abd3 51bb cea7 163b 0321 f73b 1cd6 71b9
00000100: a9ed b23b 4f63 f8b9 8099 02bb f853 40ba
00000110: 0810 b33a 5577 be38 e966 8bbb 9cf5 22ba
00000120: c40e e6b9 f1ba 113b 5b96 90b8 bc52 bcbb
00000130: 67a9 3e3b 1ff5 64bb 1537 8638 ad70 40bb
00000140: 65de 973a 209c 383a d287 d339 7cf5 52bb
00000150: c97e e537 7a9d 5eba f4f9 dcb9 952a 01bb
00000160: d3f9 a4b9 6048 8e3a 402c 2b3b 9d95 493b
00000170: 13a8 adba 526b 10b9 9d78 763b 9f06 d5ba
00000180: 1d08 68bb 929a 793b 3856 c438 419a 70ba
00000190: a068 bfba 558a 5cba e396 bfb9 28de e9b9
000001a0: 58ee 82ba 2808 5dba 9e80 fdb7 ca4c 31bb
000001b0: 27e0 423a 2ac9 96ba 888b bfba 342f 35bb
000001c0: 9834 21ba 811b 98ba 876b b0bb 31f7 3c3b
000001d0: 1867 0fbb ae7c 0c3a 75a3 3fbb 0804 1fbb
000001e0: 235b 26bb 45e9 14bb 09e1 59bb 2132 87b9
000001f0: b790 f43a 6f48 56bb ddc4 2338 5a9e 0bbb
00000200: ad4f dcbb f830 893a 7be4 2ebb 166b 1cbb
00000210: c1f7 783a 8b4b 273b 3e89 8ebb 1917 9f39
00000220: fc18 923b 6a9a 3f3a f419 543a cae6 38ba
00000230: f93f 2b39 995c a8b9 6117 39ba cf3b 693a
00000240: 5df6 08bb 8d46 ce3a 2fcf 153a 597b 1cbb
00000250: f1fa 3fbb 51be 36bb aa19 ef3a 672c 31ba
00000260: 0712 2ebb 4d37 67ba 8d59 c53a 324d b0bb
00000270: cf67 b4bb db63 94ba b7c0 e2bb a9a6 75bb
00000280: f326 7eba 6a93 aa3a b7ac f1b9 2413 88bb
00000290: 7cb4 75ba 2449 8aba a710 7abb 4264 05bb
000002a0: 2ad4 35bb 2c75 f2ba 9725 cb3a 9c80 1aba
000002b0: 4d09 ce3a 4729 11bb 2db8 98b9 d4b7 cbba
000002c0: 0ba6 daba 001a 173b 972a 5cb9 ff65 7fba
000002d0: 7aef deba 9372 6aba 159e a03a 7f9f dbbb
000002e0: 83e1 0dba b28f a2ba 19bc e6bb e239 663a
000002f0: 73f3 d0b6 95fb cab9 948c 7cbb cd50 a6bb
00000300: cfa0 223a 3d16 9aba 5d41 63bb 82b2 c5ba
00000310: ca95 feb6 f051 bf3b eae7 1e3b 13aa 3bb9
00000320: 58b5 47bb 02b2 e3ba b9e5 1fbb 86a9 5a3a
00000330: 238b 83bb 5ca7 9f3b 2fba 91bb 0121 0eba
00000340: 95ae 11bb d61a 2fbb 9f29 4c3b a39f 2cbb
00000350: df6e 693b 6abc ce39 1bd3 ac3a 77f1 b03a
00000360: 33c6 25bb 6f4c 98bb 04ca 84ba e1ef 3ab8
00000370: 2386 3fbb e90e 763a cd94 b939 7e4b d9bb
00000380: 8df0 22bb a511 3dba e451 76bb d8bd 69b8
00000390: 1c5e b739 65d8 9e3a 1f72 63b8 3538 fdba
000003a0: b81c 9eba 5b60 75ba c0c4 3cb9 c4f0 04b9
000003b0: c6a0 803a 35ea 26bb 2c7c 30bb 2f04 03bb
000003c0: 6914 a4ba 7f71 5539 b908 2dba f0d0 ea39
000003d0: 1abf cdba bf2b 003a 7186 113b 5d1b 0eba
000003e0: fd85 c7bb d5a2 74ba 3c92 ae3a 0ba7 f9ba
000003f0: 2eed 803b 4e5c a2ba 8c58 e3bb 4020 39b9

network_body.linear_encoder.seq_layers.2.weight f4 [256, 256]
0.0133097805 0.032973953 0.025067566 0.088434055 -0.052211434 0.051874936 -0.018348053 -0.07118485
-0.101751916 0.017104847 -0.0891531 -0.056540526 0.028636828 0.082160495 0.010683323 0.041362375
0.04100415 -0.1281274 0.031171096 -0.15280512 0.013047879 -0.03295253 0.022606878 0.0696441
0.16293086 -0.080647245 0.008600898 -0.12139614 0.033868242 0.042178586 0.019816691 -0.1062355
0.08041627 -0.008587997 0.1604007 0.038561586 -0.019389682 -0.056082647 0.045527596 0.08312535
-0.0087662665 -0.04740869 -0.08266877 -0.11953748 -0.07470207 0.01570996 0.023971671 0.07291386
0.0006238984 0.06608347 0.056355476 -0.015755858 0.05779156 0.08916338 -0.013520328 0.011823166
0.082904965 0.009596825 0.025005218 0.083533764 -0.008598958 -0.03751845 0.09168026 -0.12879281
0.035576683 0.038706012 0.08457273 0.15062529 0.09201429 0.01445883 -0.002926248 -0.04690672
-0.028170235 0.04716764 -0.08766378 0.14356443 0.049458217 -0.09391421 0.03343436 0.016143963
0.010052206 0.060394138 -0.05224113 -0.017303206 -0.050765816 -0.031718206 0.017846104 -0.031173809
-0.047408644 -0.02096222 -0.06531084 -0.028930014 0.07093407 0.058841165 -0.016640611 -0.050515294
-0.14509685 0.10813425 -0.025843417 -0.066496156 -0.06014722 0.03712682 -0.03423783 -0.011765625
0.018326523 -0.033741247 -0.05545183 -0.004804786 0.023842894 -0.03778667 0.089952126 0.07416341
-0.0639579 0.0044199377 0.022170449 0.0125845345 0.043913685 -0.009552971 0.05435099 0.03544513
0.015516543 0.15576461 -0.015760075 -0.03097545 -0.09521106 -0.0043757586 -0.079856195 -0.0061237095
-0.0890954 -0.009095793 0.032644108 -0.1500149 -0.036236264 0.027379295 -0.058963925 -0.008852436
0.08104289 -0.0262859 0.009139874 -0.02424546 -0.08656576 -0.03337345 -0.0053196666 0.077381216
-0.007993482 -0.016712088 0.09687397 -0.014466906 0.055917073 -0.01198617 -0.015980598 0.004612891
0.108563446 -0.052884687 -0.08381816 -0.02021168 -0.006145459 0.03717986 0.060183033 -0.11098077
0.01675021 0.039939962 0.13600585 -0.0068943887 0.0017461142 -0.015101401 0.010299857 -0.028967716
-0.022413878 -0.035062477 -0.040563926 -0.12701532 0.06312504 -0.004562768 0.04587926 0.12488929
0.03989282 0.012845329 0.08389366 0.05612298 -0.03162871 -0.0019871148 0.09825924 0.037628256
-0.0072072004 -0.02983704 -0.03020524 -0.1298053 0.0012913166 0.028242512 -0.014835275 -0.0190541
-0.00613978 -0.071633205 -0.11998477 -0.0534854 0.004008668 -0.047278643 -0.093917325 0.04915653
-0.098966435 0.094617285 -0.05026926 0.009747531 -0.02998998 0.014632483 0.030766131 -0.03302014
-0.045605503 -0.010186205 -0.051074483 0.023050804 0.0150498785 -0.003983008 0.03691878 0.0021994836
-0.02541099 0.06725746 0.05650006 -0.09675667 0.033117298 -0.054443385 0.015571306 0.101121046
0.009164393 -0.108044535 0.05236 0.043795627 -0.0037777168 -0.033729885 -0.12676615 -0.021883633
0.16867407 0.020059375 -0.07510895 0.025190068 -0.047122914 -0.102882564 -0.016584238 0.06764044
0.0946079 -0.11765258 0.024910165 -0.04124472 -0.035703737 -0.107355505 0.0043546553 -0.020942913
0.01797356 0.019976094 0.06785839 0.004771402 -0.028188698 0.006340063 0.046049748 0.022113552
00000000: 4411 5a3c b20f 073d 7f5a cd3c ea1c b53d
00000010: a8db 55bd d07a 543d a84e 96bc 5dc9 91bd
00000020: 4f63 d0bd 771f 8c3c e795 b6bd 0a97 67bd
00000030: c897 ea3c c343 a83d 1b09 2f3c 986b 293d
00000040: f8f3 273d d433 03be 875a ff3c f278 1cbe
00000050: c5c6 553c 3bf9 06bd 0f32 b93c 91a1 8e3d
00000060: 59d7 263e 622a a5bd c8ea 0c3c 8a9e f8bd
00000070: 6db9 0a3d 74c3 2c3d 9d56 a23c ff91 d9bd
00000080: 49b1 a43d acb4 0cbc 1540 243e c1f2 1d3d
00000090: 1cd7 9ebc ebb6 65bd 257b 3a3d a03d aa3d
000000a0: 63a0 0fbc 9d2f 42bd 3e4e a9bd 11d0 f4bd
000000b0: 66fd 98bd 2db2 803c 3d60 c43c dd53 953d
000000c0: 1d8d 233a c556 873d 00d5 663d 6e12 81bc
000000d0: d8b6 6c3d 4a9b b63d 5e84 5dbc f4b5 413c
000000e0: 14ca a93d 003c 1d3c bed7 cc3c c013 ab3d
000000f0: a5e2 0cbc f2ac 19bd dcc2 bb3d 43e2 03be
00000100: dbb8 113d 328a 1e3d 7834 ad3d 843d 1a3e
00000110: fd71 bc3d bae4 6c3c 4bc6 3fbb 4321 40bd
00000120: 44c5 e6bc db32 413d 1189 b3bd 8e02 133e
00000130: b394 4a3d 1856 c0bd 78f2 083d 5840 843c
00000140: 02b2 243c d85f 773d ccfa 55bd 74bf 8dbc
00000150: d1ef 4fbd f3ea 01bd fe31 923c 3760 ffbc
00000160: 912f 42bd f6b8 abbc b1c1 85bd a3fe ecbc
00000170: e245 913d 6f03 713d e451 88bc 20e9 4ebd
00000180: 4594 14be 7d75 dd3d 93b5 d3bc 232f 88bd
00000190: ee5c 76bd 4b12 183d f83c 0cbd 9cc4 40bc
000001a0: 8121 963c 4334 0abd 7521 63bd 7771 9dbb
000001b0: 2c52 c33c 32c6 1abd d238 b83d fce2 973d
000001c0: 5cfc 82bd 20d5 903b cd9e b53c 5d2f 4e3c
000001d0: d6de 333d 1184 1cbc 259f 5e3d ea2e 113d
000001e0: 1939 7e3c c280 1f3e 461b 81bc 3ac0 fdbc
000001f0: 04fe c2bd 8662 8fbb a58b a3bd 66a9 c8bb
00000200: a677 b6bd 8506 15bc d4b5 053d 829d 19be
00000210: 7a6c 14bd 8b4a e03c 2884 71bd cf09 11bc
00000220: d1f9 a53d 8755 d7bc 69bf 153c 6a9e c6bc
00000230: 6449 b1bd 99b2 08bd 9950 aebb 0b7a 9e3d
00000240: 18f7 02bc cae7 88bc dc65 c63d 9a06 6dbc
00000250: 4d09 653d a461 44bc bee9 82bc bc27 973b
00000260: 8356 de3d 9d9d 58bd dba8 abbd f792 a5bc
00000270: d95f c9bb e949 183d 7c82 763d e349 e3bd
00000280: bd37 893c 1698 233d 1e45 0b3e 53ea e1bb
00000290: dfdd e43a de6b 77bc bbc0 283c b44d edbc
000002a0: 4f9d b7bc ac9d 0fbd 5c26 26bd 4e10 02be
000002b0: b347 813d 4683 95bb e4eb 3b3d f5c5 ff3d
000002c0: a766 233d 3775 523c 70d0 ab3d 36e1 653d
000002d0: 1b8d 01bd 413a 02bb 243c c93d 1620 1a3d
000002e0: 612a ecbb cf6c f4bc fb70 f7bc aeeb 04be
000002f0: 6541 a93a d75c e73c a70f 73bc 5817 9cbc
00000300: 3530 c9bb 6eb4 92bd 93ba f5bd 8213 5bbd
00000310: 255b 833b 40a7 41bd ba57 c0bd 5c58 493d
00000320: eaae cabd b5c6 c13d 24e7 4dbd 1cb4 1f3c
00000330: 8cad f5bc 15bd 6f3c 4109 fc3c 2040 07bd
00000340: d6cc 3abd 0ae4 26bc 7a33 51bd 0ad5 bc3c
00000350: c493 763c e583 82bb 2638 173d 3625 103b
00000360: b52a d0bc 47be 893d 9b6c 673d 5c28 c6bd
00000370: 01a6 073d 0700 5fbd cb1e 7f3c 8d18 cf3d
00000380: 4026 163c 7446 ddbd 7077 563d 0b63 333d
00000390: 9293 77bb 5928 0abd fcce 01be 4e45 b3bc
000003a0: e5b8 2c3e 8f53 a43c b9d2 99bd 675b ce3c
000003b0: f503 41bd 18b4 d2bd abdb 87bc 1287 8a3d
000003c0: c9c1 c13d d6f3 f0bd 6710 cc3c 39f0 28bd
000003d0: 153e 12bd 34dd dbbd 7fb1 8e3b 7990 abbc
000003e0: 4a3d 933c e8a4 a33c 57f9 8a3d 6c59 9c3b
000003f0: fceb e6bc 4ec0 cf3b a99e 3c3d 7b27 b53c

network_body.linear_encoder.seq_layers.2.bias f4 [256]
-0.00065947045 -0.0015777342 -0.002542102 -0.001461289 -9.942287e-05 -0.00091519515 -0.0020282469 -0.0003539929
0.0024696046 -0.0023825082 -0.0021704407 -0.0032429881 -0.0004474698 -0.0029278183 -0.003118684 -0.001810491
-0.0015929012 -0.00014525806 -0.0020535425 0.00027885905 -0.0048478544 -0.0011525484 -0.0013460603 0.0070677972
0.0011316574 -0.0040451763 -0.00041928107 -0.0007263831 0.0018657647 0.00028931844 -0.0032212154 0.00041185168
0.0033518993 -0.0006945798 -0.00465279 -0.0014634975 -0.0014332815 -0.0010009669 0.0024895773 -0.0032890767
-0.0015170627 -0.0006443331 -0.0001805284 -0.0040582437 -0.0009440035 0.00044603366 -0.0025000533 0.0033776055
-0.0013489323 0.0004941395 -0.0006186801 -0.0022597108 -0.00037090626 -0.0004925515 0.0008744235 -0.0028929529
0.0010505542 0.0007592824 0.00400958 0.00042635878 -0.00071333814 -0.0008109982 0.0006747934 0.0005493032
-0.0011578513 -0.0010793478 -0.0020344267 -0.00083921774 0.00043580297 -0.002480185 -0.00042346047 -0.0012883455
7.9951315e-05 -0.00010000646 0.00014307693 -0.00039013044 -0.0001326199 0.0009935979 0.00104709 -0.00096377125
-0.0010146406 -0.0004969684 -0.0002301297 -0.0025506404 -0.0009522984 0.00036137673 -7.34518e-05 -0.00018113523
-0.002405295 0.00046214787 -0.0007068264 -0.003133369 -0.0006227948 -0.00022450312 -0.0023203888 -0.0009712143
-0.002662605 -0.00075896195 -0.0017607949 -0.004435648 0.0008584042 -0.0009837992 0.0010681812 0.0005722939
0.00012372156 -0.0014455697 0.00058547745 0.00025088593 0.00072191365 -0.004474286 0.0022903774 -0.000556093
-0.0010561226 -0.0001935355 0.0005370728 -4.545486e-05 -0.0029714366 -0.0017240987 -0.00030456294 0.0005083835
-0.0005534486 -0.00078806875 -0.0018303724 -0.0030063046 -0.0005095389 -0.006372242 -0.002384959 0.001937412
-0.0027668336 -0.0024348795 0.00030936403 -0.0036161174 -0.0006203984 -0.00027953167 0.0007915438 0.0027905267
0.00015078788 -0.0010148615 -0.0050045913 -0.00087352796 -0.0014580402 -0.0015224287 -3.2520572e-06 0.0014219186
-0.00082825776 0.0038129233 0.0023515385 -0.0010194924 -0.00036874868 -0.0013031769 -0.0030256482 0.0011136957
-1.8916587e-06 -5.996532e-05 -0.00012509001 -0.0008244489 -0.0036441144 -0.0004002785 0.0018267016 -0.0039749513
-0.00024031119 -0.0022721414 0.00062275183 -0.00090895256 0.00011919743 -0.002517255 -0.0013770463 -0.00044869547
-4.0881412e-05 -0.0051247794 -0.001517544 -0.0032450731 0.001630324 -0.0012248593 0.00033286648 -0.0014612799
-0.0012718282 -0.00020970464 -0.0011327809 0.0029461987 -0.0013385508 -0.0036269648 -0.0033293786 0.0004479659
9.135454e-05 -0.0007772468 -0.00051510107 -0.0007550823 -0.0024790799 0.000729145 -0.0025731327 -0.00051262556
-0.0056463154 -2.261002e-05 -0.00055406 -0.0011006874 -0.0008233191 -0.0007634988 -0.0033498986 -0.00015438603
-0.00033788852 -0.003912937 -0.00054242346 0.0016733105 -0.0011355446 -0.003917776 -0.0014923865 -0.0029945292
0.0027147112 -0.0027255453 -0.00088456564 -0.0061227772 9.4393385e-05 -0.0030339174 -0.00073838275 0.00022629905
0.0007622867 -0.0040261797 -0.0009884994 -0.0015591987 -0.0011872598 0.00050993083 0.0015009819 -0.0032476275
-0.0029775999 -0.0012267279 -0.0057881624 -0.0005438435 -0.002293628 2.6037067e-06 -0.002079351 -0.0031183816
-0.0033418366 -0.0012375336 -0.00086250884 -0.00019922876 -0.0012981578 0.0010394568 -0.0002752599 -0.0042272713
0.0013449513 0.00078221946 0.004516795 1.2212721e-05 -0.0009707357 -0.0037057272 0.0016141777 -0.00017841827
-0.0015991878 -0.0023154293 -0.002174139 -2.2161164e-05 0.0014993581 0.00042571372 -0.0008585002 -0.00032474054
00000000: 50e0 2cba facb ceba 6599 26bb b988 bfba
00000010: 3f81 d0b8 b5e9 6fba 56ec 04bb 1f98 b9b9
00000020: 17d9 213b db23 1cbb f43d 0ebb 5088 54bb
00000030: 619a eab9 a4e0 3fbb d662 4cbb ff4d edba
00000040: e5c8 d0ba 6a50 18b9 ba94 06bb d433 9239
00000050: c0da 9ebb 1b11 97ba 4a6e b0ba fb98 e73b
00000060: 1f54 943a 668d 84bb f4d2 dbb9 bf6a 3eba
00000070: ad8c f43a aaaf 9739 071b 53bb cced d739
00000080: 8aab 5b3b 7614 36ba 6e76 98bb d4d2 bfba
00000090: f2dc bbba e032 83ba 2d28 233b 8d8d 57bb
000000a0: 2dd8 c6ba 76e8 28ba 394c 3db9 04fb 84bb
000000b0: 0177 77ba a0d9 e939 efd7 23bb d15a 5d3b
000000c0: a8ce b0ba 2489 013a eb2e 22ba a817 14bb
000000d0: 3276 c2b9 921e 01ba 9139 653a b297 3dbb
000000e0: c0b2 893a 940a 473a cb62 833b e888 df39
000000f0: 50ff 3aba 2b99 54ba 9ee4 303a 1dff 0f3a
00000100: 0bc3 97ba e778 8dba 0454 05bb f3fe 5bba
00000110: 7c7c e439 998a 22bb e703 deb9 b4dd a8ba
00000120: 89ab a738 8fba d1b8 ec06 1639 6c8a ccb9
00000130: e20f 0bb9 9d3b 823a 833e 893a 98a5 7cba
00000140: b0fd 84ba fc46 02ba f94e 71b9 a528 27bb
00000150: aaa3 79ba 2a77 bd39 230a 9ab8 1eef 3db9
00000160: 27a2 1dbb 704c f239 514a 39ba 3559 4dbb
00000170: 0d43 23ba 9968 6bb9 aa11 18bb 1799 7eba
00000180: 197f 2ebb 13f5 46ba 79ca e6ba ea58 91bb
00000190: 8806 613a d3f2 80ba 3702 8c3a fe05 163a
000001a0: 41bb 0139 4579 bdba ba7a 193a 5789 8339
000001b0: ce3e 3d3a 089d 92bb 281a 163b c5c6 11ba
000001c0: 986d 8aba caef 4ab9 58ca 0c3a c9a6 3eb8
000001d0: 6fbc 42bb 27fb e1ba bfad 9fb9 0a45 053a
000001e0: 4f15 11ba 6696 4eba 1be9 efba 6c05 45bb
000001f0: 9492 05ba 3dce d0bb f94c 1cbb c2f0 fd3a
00000200: c453 35bb 8092 1fbb 2332 a239 62fc 6cbb
00000210: 3ba2 22ba 1b8e 92b9 9b7f 4f3a 45e1 363b
00000220: d01c 1e39 1a05 85ba 8efd a3bb 78fd 64ba
00000230: b61b bfba 3b8c c7ba eb3d 5ab6 ac5f ba3a
00000240: 701f 59ba 3de2 793b 451c 1a3b 7da0 85ba
00000250: 9c54 c1b9 5ccf aaba f449 46bb 6df9 913a
00000260: e6e4 fdb5 4683 7bb8 982a 03b9 d41f 58ba
00000270: 18d2 6ebb 79dc d1b9 ef6d ef3a 4f40 82bb
00000280: 0bfc 7bb9 35e8 14bb 2b40 233a c646 6eba
00000290: a2f9 f938 88f8 24bb 027e b4ba e33e ebb9
000002a0: 1578 2bb8 c4ed a7bb 54e8 c6ba 4bab 54bb
000002b0: 99b0 d53a 758b a0ba 9584 ae39 6b88 bfba
000002c0: 79b3 a6ba 29e4 5bb9 d279 94ba 0315 413b
000002d0: 5072 afba 5fb2 6dbb b431 5abb f7dc ea39
000002e0: 9895 bf38 26c0 4bba d907 07ba b7f0 45ba
000002f0: 0f78 22bb 1824 3f3a 01a2 28bb b861 06ba
00000300: ba04 b9bb a6aa bdb7 563e 11ba f144 90ba
00000310: 02d4 57ba 8a25 48ba f989 5bbb afe2 21b9
00000320: a126 b1b9 1838 80bb 6c31 0eba fc52 db3a
00000330: 8ed6 94ba b060 80bb 2e9c c3ba dd3f 44bb
00000340: 4ce9 313b 109f 32bb 32e2 67ba 94a1 c8bb
00000350: 10f5 c538 b0d4 46bb 0790 41ba b04a 6d39
00000360: 32d4 473a 0bee 83bb 8990 81ba 075e ccba
00000370: d49d 9bba e1ac 053a 98bc c43a 26d6 54bb
00000380: d623 43bb 28ca a0ba a0aa bdbb b890 0eba
00000390: b150 16bb 57bb 2e36 b945 08bb c35d 4cbb
000003a0: b702 5bbb bd34 a2ba fd19 62ba 10e8 50b9
000003b0: f326 aaba 623e 883a c250 90b9 ec84 8abb
000003c0: 1449 b03a dc0d 4d3a 9f01 943b 3de5 4c37
000003d0: f878 7eba c9db 72bb d192 d33a ca15 3bb9
000003e0: d79b d1ba 75be 17bb 007c 0ebb bde6 b9b7
000003f0: 1c86 c43a 5432 df39 f90c 61ba f041 aab9

network_body.linear_encoder.seq_layers.4.weight f4 [256, 256]
-0.07478497 0.01340938 -0.045613024 -0.036542296 0.07921422 -0.069167346 0.029008774 0.018082688
-0.06863184 0.14654098 -0.10467898 0.015039511 -0.011831865 0.021956453 -0.03529737 0.11610518
-0.057298403 0.046576627 -0.013123244 -0.014806466 -0.11675828 -0.06945585 -0.020416522 0.035822157
0.011181897 -0.10468009 -0.074858636 -0.04573674 0.07046731 -0.064046 0.00039006985 0.09265458
0.1026704 0.17087895 -0.022967257 -0.0022439999 -0.16204183 0.010581781 0.019126853 -0.03389571
0.11973233 0.07211187 0.039522562 0.042307585 -0.11058899 0.036215067 0.011276703 0.059061576
0.026349282 0.018422395 0.14651671 0.015141561 0.008586048 0.02713492 -0.0073082717 -0.019325936
-0.0132952295 0.02368011 -0.026497614 0.009064043 0.046949606 0.017078277 -0.0067256275 0.14039075
0.053740084 -0.066143036 0.04750877 0.11143406 -0.010604751 -0.07101893 0.015488779 0.110793255
0.03808202 -0.054016773 -0.047132876 -0.0860663 0.054620165 0.052585185 0.034654003 -0.09619348
-0.039648145 0.027261587 -0.0758176 0.05902975 -0.172984 0.03291428 0.014867294 -0.040140938
0.0010057655 -0.021886049 -0.031192847 -0.07583091 -0.13427006 -0.07064501 -0.026897578 -0.033531036
0.072934054 -0.0134085985 0.10820003 -0.2066871 0.10477909 -0.048057646 -0.04247558 -0.0054258504
0.0349523 -0.07833724 0.068165265 0.07688795 -0.03289381 -0.10443032 -0.12727691 -0.022692153
-0.016049538 0.05381181 0.056722566 0.04704768 0.011582687 -0.04946828 -0.053722836 0.08323172
0.08450665 0.03651823 -0.024197942 -0.07987168 0.023334783 0.07447211 -0.00929779 -0.04544446
0.11045213 -0.049238563 -0.048189454 0.08548785 0.024845747 0.0715415 -0.01242728 0.103393175
0.056041628 0.03798419 -0.0072535975 0.017896833 0.023898052 0.030376066 -0.19287622 -0.037647318
0.06801355 0.091303654 0.05186458 0.15155412 0.057569005 0.07215822 0.011366587 0.005217074
0.06935918 -0.07189108 -0.0440705 -0.008325852 0.09508265 0.04731455 0.04015542 0.015770352
0.018768411 -0.023928612 -0.020454725 -0.015360342 -0.04563808 -0.07881726 -0.071547166 0.028947588
-0.03279108 0.035005223 -0.0032552744 0.0032739467 0.07243576 -0.086820945 0.12716898 0.07987784
0.017175125 -0.01086602 0.026732584 -0.046777036 0.038837597 0.002209537 -0.085201904 0.056155864
-0.04981065 0.005389801 -0.10705243 0.06438805 0.10109549 0.09033826 0.07190725 -0.06752258
0.0338345 0.050538786 0.076041356 -0.0153767895 -0.064002335 0.1380546 0.15207261 -0.068623915
0.06188223 0.07850209 0.07860742 0.0042411964 0.074108295 -0.093716525 0.01420802 -0.056688596
0.058422927 -0.050355416 -0.04410914 0.051488973 0.0056796228 0.15927935 -0.018023388 -0.10312463
-0.0018460897 0.097549655 -0.0982143 0.026414724 0.029480979 -0.14775896 -0.09606257 -0.061029635
0.026835462 0.023671288 0.033338957 0.04082439 0.06943349 -0.0075128335 0.0068850694 0.042336505
0.05641924 -0.04567716 0.043760546 0.0066097695 0.050448604 0.012118766 0.06440126 0.039719574
0.008655839 0.08212931 0.0051493095 -0.06780822 0.040029753 -0.08846016 0.025151799 0.048956234
-0.06729515 -0.033861905 -0.011496663 0.035504263 0.01696242 0.02184112 -0.13975404 0.010371883
00000000: dd28 99bd 04b3 5b3c b9d4 3abd 60ad 15bd
00000010: 113b a23d 9ca7 8dbd cfa3 ed3c 2522 943c
00000020: da8e 8cbd d70e 163e ef61 d6bd 4868 763c
00000030: 70da 41bc 05de b33c fa93 10bd 8dc8 ed3d
00000040: bbb1 6abd 22c7 3e3d e002 57bc d296 72bc
00000050: f71e efbd de3e 8ebd 8d40 a7bc 41ba 123d
00000060: 4634 373c 8462 d6bd 7c4f 99bd 7356 3bbd
00000070: 2a51 903d 8d2a 83bd 4a82 cc39 afc1 bd3d
00000080: dc44 d23d e4fa 2e3e d425 bcbc 1210 13bb
00000090: 4bee 25be 355f 2d3c ebaf 9c3c 3ad6 0abd
000000a0: 3936 f53d 63af 933d 69e2 213d b84a 2d3d
000000b0: 7b7c e2bd 4056 143d ecc1 383c 8dea 713d
000000c0: 73da d73c 90ea 963c 7a08 163e 4f14 783c
000000d0: 7fac 0c3c 0d4a de3c 3a7a efbb 6d51 9ebc
000000e0: 3cd4 59bc cafc c13c 8611 d9bc 5a81 143c
000000f0: 3b4e 403d bee7 8b3c a762 dcbb 98c2 0f3e
00000100: 901e 5c3d 0076 87bd 8e98 423d 8a37 e43d
00000110: 8dbf 2dbc 5f72 91bd a6c4 7d3c 93e7 e23d
00000120: e4fb 1b3d b140 5dbd 670e 41bd 8743 b0bd
00000130: 65b9 5f3d 9063 573d 5bf1 0d3d 1601 c5bd
00000140: 1866 22bd b153 df3c 4246 9bbd 2ec9 713d
00000150: b822 31be 20d1 063d f395 733c d36a 24bd
00000160: e4d3 833a 5f4a b3bc 2488 ffbc 3c4d 9bbd
00000170: 177e 09be 55ae 90bd 4f58 dcbc d757 09bd
00000180: 735e 953d bdaf 5bbc fa97 dd3d c8a5 53be
00000190: 6b96 d63d 18d8 44bd e0fa 2dbd 55cb b1bb
000001a0: 252a 0f3d 466f a0bd 3b9a 8b3d 6e77 9d3d
000001b0: a9bb 06bd 90df d5bd e154 02be e5e4 b9bc
000001c0: 527a 83bc c669 5c3d ec55 683d 11b5 403d
000001d0: 4fc5 3d3c 409f 4abd 7a0c 5cbd 6475 aa3d
000001e0: d311 ad3d 2494 153d c33a c6bc c393 a3bd
000001f0: 9628 bf3c d584 983d c255 18bc f823 3abd
00000200: ba34 e23d 60ae 49bd 4e62 45bd 4114 af3d
00000210: 4f89 cb3c 5a84 923d ca9b 4bbc cdbf d33d
00000220: e88b 653d 4f95 1b3d 96af edbb 619c 923c
00000230: d9c5 c33c 3ad7 f83c 5881 45be 1334 1abd
00000240: b04a 8b3d 69fd ba3d f46f 543d 0131 1b3e
00000250: 7acd 6b3d b0c7 933d ec3a 3a3c fdf3 aa3b
00000260: 300c 8e3d a13b 93bd 4583 34bd 2869 08bc
00000270: b1ba c23d e7cc 413d 027a 243d d330 813c
00000280: 36c0 993c f005 c4bc ab90 a7bc f2a9 7bbc
00000290: ffee 3abd f26a a1bd 5287 92bd 7e23 ed3c
000002a0: f14f 06bd a361 0f3d 7156 55bb b68f 563b
000002b0: 3359 943d 2ecf b1bd 9638 023e fe96 a33d
000002c0: d9b2 8c3c 6407 32bc 4bfe da3c 4799 3fbd
000002d0: 2c14 1f3d e1cd 103b 567e aebd b103 663d
000002e0: 4106 4cbd ee9c b03b 4e3e dbbd e2dd 833d
000002f0: 270b cf3d 4403 b93d 1c44 933d 4749 8abd
00000300: 0b96 0a3d c201 4f3d 92bb 9b3d eeee 7bbc
00000310: a813 83bd 2f5e 0d3e ecb8 1b3e b28a 8cbd
00000320: 3978 7d3d b4c5 a03d edfc a03d bcf9 8a3b
00000330: 17c6 973d 73ee bfbd c1c8 683c 4d32 68bd
00000340: e14c 6f3d 7b41 4ebd c9ab 34bd 1ae6 523d
00000350: 211c ba3b 201a 233e c9a5 93bc 0233 d3bd
00000360: 7ef8 f1ba 1dc8 c73d 9424 c9bd b163 d83c
00000370: 1882 f13c 204e 17be 74bc c4bd 36fa 79bd
00000380: 0bd6 db3c 4aea c13c 6e8e 083d 7a37 273d
00000390: 2533 8e3d 372e f6bb 269c e13b 0b69 2d3d
000003a0: dc17 673d f917 3bbd 423e 333d c496 d83b
000003b0: 32a3 4e3d ca8d 463c cfe4 833d feb0 223d
000003c0: 38d1 0d3c 6933 a83d 8abb a83b 09df 8abd
000003d0: 3df6 233d 9a2a b5bd 250b ce3c 5586 483d
000003e0: 0ad2 89bd c8b2 0abd 805c 3cbc eb6c 113d
000003f0: c6f4 8a3c 26ec b23c af1b 0fbe d5ee 293c

network_body.linear_encoder.seq_layers.4.bias f4 [256]
-0.00015344108 -0.0017215366 6.2387764e-05 -0.00046526588 0.00011070929 -0.00094264705 -0.0022627867 -0.001363685
-0.0021208609 0.0027099256 0.0007109523 0.0005826459 -0.0009417767 -0.004414553 -0.001288096 -0.00042201445
-0.0002952772 1.7771543e-05 -0.0010134501 -0.0070716552 0.0043660807 -0.0011107003 -9.848281e-06 -0.0016549644
-0.0011110079 -9.564116e-05 -2.6810252e-05 4.924526e-05 -0.00038175302 -0.0008760738 -0.0015584312 0.0002876558
-0.0010677953 -0.0009434592 -0.002144948 -1.508415e-05 -0.0002607981 0.0016715844 -0.0002416923 -0.0009939158
-0.0005118313 6.197067e-05 -0.0017731213 -0.0049697654 -2.3079254e-05 0.00089551066 -0.00063545106 -0.0004484666
0.00016077542 0.0007800715 0.00018161316 -0.001261436 0.0016666007 0.0016138776 -0.0019819192 0.00019933733
-0.0010951059 -0.0036166103 -0.0003692907 -0.0034577781 -0.0010155424 -0.0012608295 -0.001532596 -0.0006678619
-0.0022846197 -0.004118023 -0.0004083626 -0.004429527 -0.00036699517 -0.00014364105 -0.0010194229 -0.00056990207
4.966779e-05 -0.0010899153 -0.0029760182 0.0018117743 0.00032316393 0.0016284946 0.0006506494 -0.0004944534
-0.000594566 0.0039430717 -0.0014401262 -0.0005391379 0.00050459796 -0.0033106585 0.0001433813 0.00030226272
0.00016587433 -0.0011632993 -0.00084525446 -0.0009486132 0.0028784187 -0.00048445383 -0.00014824406 -0.00058398274
0.0020138295 0.0011040044 0.00031597484 -0.0005387029 -0.00096481794 -0.00018862603 0.00018213318 0.00022517714
-0.00075070275 -0.00032316847 -0.001065739 5.4233762e-05 -0.0011548997 -0.0003874943 -0.00042355485 -0.00094377896
-9.019712e-05 -0.002827521 -0.00025185937 -0.0008755453 -0.0007521332 -0.000446048 -0.002728598 -0.0019516852
-0.0013488559 -0.000335812 0.00062356674 -0.0014087307 -0.007461581 -0.004819352 0.00084795005 -0.00042129552
-0.0014161383 -0.003217733 -0.00045345328 -9.375212e-05 0.0060329917 -0.003949848 -0.00042372677 -0.0013409235
-0.00044357093 -0.00085443043 -0.0011900647 -0.0012304375 -0.001193988 -0.0006817918 -0.0002897258 -0.00037123254
-0.0007442646 2.0267078e-05 -0.005045828 -0.00027924133 -0.0009831842 -0.002240329 -0.0010881042 -0.0029359316
-0.0013197928 -0.0018360381 -0.00074155745 -0.0033761947 -0.0023510442 -0.0049777366 -0.00042971814 0.00022239285
-0.0004648785 -0.00029323317 0.00023717812 -0.0004537723 -0.0009762439 5.6430385e-05 -0.004356625 -0.0031096966
0.00014911909 -0.003277336 -0.00045804342 -0.002032652 0.002150537 0.0006446608 -0.00072019006 -0.0052268934
-0.00044614376 -0.004680828 0.00017201513 -0.0013821267 0.00035293284 -0.0024302334 0.0062086643 -0.000788806
-0.005292942 -0.00066474284 -0.0012415799 -0.0045776917 -0.0003529235 0.0022943506 5.370099e-05 0.00020383466
0.00033246254 -0.0023473685 -0.0010774012 0.00035344716 -0.0004292963 -0.00064844836 0.0018757668 0.0023083363
0.004144868 -0.00019651835 -0.0021942367 -0.0004752218 0.000723084 -0.00012422433 -0.002478934 -0.007667323
-0.0005416403 -0.004060782 -0.00010759143 0.0058632437 0.0007417588 -0.0039481116 0.0032534555 -0.0001506091
-0.00039913552 -2.6137783e-05 -0.0021175032 0.0001287464 -0.0004850102 -0.0008419815 -0.0018939571 0.00047117355
-8.819443e-05 0.0017053118 -0.00043558778 -0.00082805566 0.002173052 -0.00025449472 0.0003154158 -4.4586497e-05
-0.0011451042 -0.0015918168 -0.00040138172 -0.0021978652 -0.00059513544 0.00083985465 -0.00081006764 -0.0010591225
-0.0024117965 0.0011980137 0.0014891172 7.3386924e-05 -0.00076483964 -0.0011591692 0.0031173364 -0.0004510009
0.0004429484 -0.0016443022 -0.00040929974 -7.298385e-05 -0.0013471212 -0.0010397311 2.4511495e-05 -7.8396144e-05
00000000: 07e5 20b9 2fa5 e1ba 2dd6 8238 eeee f3b9
00000010: 992c e838 f91b 77ba 434b 14bb adbd b2ba
00000020: 24fe 0abb 0299 313b 345f 3a3a b4bc 183a
00000030: 91e1 76ba f4a7 90bb 54d5 a8ba d241 ddb9
00000040: 6fcf 9ab9 1914 9537 bed5 84ba 58b9 e7bb
00000050: 5711 8f3b eb94 91ba 0b3a 25b7 64eb d8ba
00000060: 3d9f 91ba f592 c8b8 94e6 e0b7 b28c 4e38
00000070: 0626 c8b9 51a8 65ba 4644 ccba 82d0 9639
00000080: 44f5 8bba 7a52 77ba 4292 0cbb ee11 7db7
00000090: babb 88b9 1119 db3a c86e 7db9 4846 82ba
000000a0: 6b2c 06ba 40f6 8138 1468 e8ba 6ad9 a2bb
000000b0: 529a c1b7 b4c0 6a3a 6694 26ba 2b20 ebb9
000000c0: d395 2839 b67d 4c3a 696f 3e39 c556 a5ba
000000d0: d771 da3a bf88 d33a 16e3 01bb 3505 5139
000000e0: a889 8fba a704 6dbb 5c9d c1b9 e49b 62bb
000000f0: f31b 85ba 6b42 a5ba 63e1 c8ba 7413 2fba
00000100: 8fb9 15bb 7bf0 86bb 8019 d6b9 9125 91bb
00000110: 4269 c0b9 5a9e 16b9 289e 85ba 7b65 15ba
00000120: 6252 5038 7ddb 8eba 4d09 43bb 0f79 ed3a
00000130: 546e a939 3673 d53a 5890 2a3a 359e 01ba
00000140: a6dc 1bba e234 813b 9ec2 bcba ef54 0dba
00000150: ff46 043a a2f7 58bb a058 1639 0479 9e39
00000160: 8dee 2d39 d979 98ba 1194 5dba 5bac 78ba
00000170: daa3 3c3b 4bfe fdb9 f671 1bb9 6b16 19ba
00000180: 74fa 033b 3eb4 903a 6da9 a539 bd37 0dba
00000190: d6eb 7cba eac9 45b9 01fb 3e39 871d 6c39
000001a0: cfca 44ba f06e a9b9 44b0 8bba 0f79 6338
000001b0: 0160 97ba 9b28 cbb9 9210 deb9 ef67 77ba
000001c0: 3628 bdb8 ee4d 39bb fe0b 84b9 da84 65ba
000001d0: ce2a 45ba 8ddb e9b9 47d2 32bb b0cf ffba
000001e0: 18cc b0ba ec0f b0b9 db76 233a 29a5 b8ba
000001f0: 4780 f4bb a8eb 9dbb f748 5e3a 54e1 dcb9
00000200: b79d b9ba 9ae0 52bb 78bd edb9 c99c c4b8
00000210: 67b0 c53b ba6d 81bb a527 deb9 edc1 afba
00000220: 158f e8b9 dbfb 5fba f2fb 9bba a246 a1ba
00000230: 977f 9cba 46ba 32ba 57e6 97b9 fda1 c2b9
00000240: c01a 43ba 3803 aa37 7957 a5bb 2367 92b9
00000250: 30de 80ba 7cd2 12bb b89e 8eba c268 40bb
00000260: e6fc acba 37a7 f0ba 1465 42ba 2643 5dbb
00000270: fa13 1abb 481c a3bb cb4b e1b9 2032 6939
00000280: f0ba f3b9 17bd 99b9 04b3 7839 4ae8 edb9
00000290: 9eea 7fba aaaf 6c38 05c2 8ebb 0dcc 4bbb
000002a0: da5c 1c39 93c8 56bb 8c25 f0b9 3e36 05bb
000002b0: 06f0 0c3b 74fe 283a 23cb 3cba 5c46 abbb
000002c0: 67e8 e9b9 a261 99bb f65e 3439 7a28 b5ba
000002d0: d809 b939 8d44 1fbb 0d72 cb3b e0c7 4eba
000002e0: 6a70 adbb 2342 2eba 82bc a2ba 7600 96bb
000002f0: 9708 b9b9 d15c 163b 003d 6138 73bc 5539
00000300: 5e4e ae39 4fd6 19bb 9637 8dba e04e b939
00000310: 2d13 e1b9 a2fc 29ba 4adc f53a 7547 173b
00000320: acd1 873b 7e10 4eb9 2fcd 0fbb 3127 f9b9
00000330: 598d 3d3a 3742 02b9 9c75 22bb 2b3e fbbb
00000340: ddfc 0dba 4f10 85bb b6a2 e1b8 7420 c03b
00000350: 9772 423a 295f 81bb ed37 553b d3ec 1db9
00000360: 1043 d1b9 7642 dbb7 cfc5 0abb 1900 0739
00000370: f848 feb9 6cb8 5cba a83e f8ba d807 f739
00000380: 06f5 b8b8 c584 df3a 9a5f e4b9 e011 59ba
00000390: c369 0e3b b46d 85b9 645e a539 6302 3bb8
000003a0: 5217 96ba 82a4 d0ba 8b70 d2b9 0f0a 10bb
000003b0: dd02 1cba b129 5c3a b85a 54ba 41d2 8aba
000003c0: 3b0f 1ebb ab06 9d3a 7b2e c33a 4ee7 9938
000003d0: 857f 48ba 44ef 97ba 3a4c 4c3b 5174 ecb9
000003e0: 873b e839 a085 d7ba 4897 d6b9 e80e 99b8
000003f0: e391 b0ba 9647 88ba 099e cd37 9c68 a4b8

action_model._continuous_distribution.mu.weight f4 [1, 256]
0.0026682895 -0.019540474 0.011108967 -0.0100505855 0.011439617 0.0051272316 9.142032e-05 0.023929387
0.0007480839 -0.00018768945 0.003767929 0.013329519 -0.0002684002 -0.011887619 -0.0059226793 -0.01261223
-0.004396203 0.0069034602 0.00085466675 -4.86135e-05 0.002466358 -0.02392387 0.00559945 -0.014936146
-0.006014346 0.024991745 0.0044641076 0.011465517 -0.010921991 -0.017999746 0.00014302637 0.009653361
0.005966895 -0.015788075 -0.00022421787 0.0050053573 -0.0101630315 0.009847584 0.008594627 -0.00048633025
-0.0088749835 0.021537699 -0.00422599 -0.002347452 0.013965684 0.0026077603 -0.008691061 0.0020296008
-0.010906873 0.021748442 0.010892137 -0.0028903482 0.02609922 0.009250936 -0.014348541 0.0021021417
-0.023202628 -0.01236948 0.0080864495 -0.020905375 0.003632015 -0.0027594946 -0.011111608 0.002252164
-0.00011817906 -0.005303245 0.0027566205 -0.013043382 -0.0070474176 0.015432152 0.009606246 -0.013645005
0.012622036 0.0014726506 -0.012854229 0.015492275 0.0064228377 0.0114309285 0.0042522824 -0.023071725
0.0034110106 0.0020672793 -0.004955528 -0.0017869592 0.020652607 -0.006992535 0.002923342 0.003525258
0.011601651 0.0025418503 0.008794541 -0.0061703287 0.026546663 -0.0018765175 0.023445353 0.014088592
0.013517604 -0.007977208 0.009675726 -0.017417938 -0.00015348446 -0.024896562 0.008703888 0.012081508
0.0016419782 0.0131537905 -0.023773452 0.01776819 1.2092025e-05 0.01749446 -0.013763591 -0.0024849388
0.0027959356 -0.007475934 -0.014219759 0.0016024361 -0.017160762 0.006365376 -0.009310911 0.016469466
-0.023684459 0.02250447 0.017154455 -0.009163681 -0.00076234026 -0.02497002 0.0017972066 0.0029301466
-0.0013187549 -0.0041646776 -0.026652915 0.011596163 0.025146976 -0.0046534403 0.011373241 -0.002754587
-0.00490825 -0.0052633863 0.017635887 -0.013774345 -0.000852061 -0.024578232 0.012714558 -0.018218728
-0.007978782 0.018205486 -0.006077809 0.0062609673 0.008790244 -0.024754545 -0.0016181096 -0.025678132
0.0018899792 -0.0054156324 -0.0050542443 -0.012669212 -0.010850074 -0.0115338145 0.011530039 0.006587384
0.009765728 0.005015553 0.014503524 0.019449553 -0.0023570177 0.00353019 -0.012298442 -0.015330513
0.0019211042 -0.0023858882 -0.008829931 -0.0009845365 0.0021111858 0.0013560592 -0.01073685 -0.0054784035
0.0066101514 -0.0002175461 0.011837027 0.010769685 0.014404684 -0.0301527 0.016621398 -0.0033896845
-0.022063436 0.0010607184 -0.009303821 -0.021091802 -0.01061725 0.012696491 0.013585129 0.009891547
0.014377793 -0.0010393537 -0.021179397 0.009963937 0.002341285 -0.0047782455 0.008742901 0.0036979774
0.0029222285 0.013881296 -0.005483463 0.00824916 0.018184796 0.0076324004 6.673244e-05 -0.0003249406
-0.014192256 -0.036614846 0.0031060185 0.013985426 0.0023397077 -0.010186802 0.02596548 0.008642352
0.0048568756 0.018541034 7.0069895e-05 0.008813355 -0.005556371 -0.0033247573 -0.00019214787 -0.018113025
0.01878782 -0.0034845746 0.0027197218 -0.012834563 0.0059495606 0.008644986 0.01174204 0.013567448
-0.007848188 -0.014089562 -0.028929666 0.0006509869 -0.004700381 0.0066017783 -0.0024233852 0.0022900763
-0.012463328 0.0107533615 0.008293052 0.006181582 0.002595018 -0.008798276 0.01780128 0.0034461052
0.007494 -0.013967237 0.0067362664 0.01909745 -0.0015292255 -0.0005857082 0.018904027 0.003758271
00000000: 78de 2e3b 5813 a0bc 6202 363c 36ab 24bc
00000010: 3b6d 3b3c 5602 a83b e9b8 bf38 9007 c43c
00000020: 101b 443a 81ce 44b9 5cef 763b 0e64 5a3c
00000030: 11b8 8cb9 4ac4 42bc 0913 c2bb 87a3 4ebc
00000040: 060e 90bb 6c36 e23b b70b 603a 59e6 4bb8
00000050: 9fa2 213b fefb c3bc 977b b73b bdb6 74bc
00000060: fe13 c5bb 7dbb cc3c a647 923b ddd9 3b3c
00000070: 27f2 32bc 3474 93bc 59f9 1539 2129 1e3c
00000080: f185 c33b fe55 81bc 071c 6bb9 fb03 a43b
00000090: d882 26bc c357 213c 7ad0 0c3c 24fa feb9
000000a0: 6168 11bc d46f b03c 2c7a 8abb b6d7 19bb
000000b0: 53d0 643c f5e6 2a3b f464 0ebc 0d03 053b
000000c0: beb2 32bc ca29 b23c ef74 323c ff6b 3dbb
000000d0: 08ce d53c 3d91 173c 2516 6bbc 16c4 093b
000000e0: 7013 bebc 5ca9 4abc 077d 043c c041 abbc
000000f0: 1a07 6e3b a3d8 34bb 760d 36bc 0b99 133b
00000100: e6d6 f7b8 d8c6 adbb 6ba8 343b e9b3 55bc
00000110: 06ee e6bb 23d7 7c3c 8463 1d3c 4d8f 5fbc
00000120: a8cc 4e3c f405 c13a 8b9a 52bc 50d3 7d3c
00000130: ab76 d23b ca48 3b3c bb56 8b3b ea00 bdbc
00000140: 438b 5f3b 317b 073b fb61 a2bb 6738 eaba
00000150: a82f a93c a321 e5bb 8a95 3f3b 0408 673b
00000160: da14 3e3c 2c95 263b fa16 103c 7830 cabb
00000170: 6378 d93c 7bf5 f5ba 7810 c03c d6d3 663c
00000180: f178 5d3c d6b2 02bc f086 1e3c 10b0 8ebc
00000190: acf0 20b9 e0f3 cbbc c19a 0e3c 84f1 453c
000001a0: a537 d73a ff82 573c 8bc0 c2bc 988e 913c
000001b0: dade 4a37 8b50 8f3c af80 61bc 5bda 22bb
000001c0: 043c 373b aef8 f4bb fef9 68bc d508 d23a
000001d0: ba94 8cbc a594 d03b cb8c 18bc f9ea 863c
000001e0: e905 c2bc 4b5b b83c 8087 8c3c 4423 16bc
000001f0: cad7 47ba ed8d ccbc 3f90 eb3a b407 403b
00000200: 12da acba d977 88bb 3757 dabc d5fd 3d3c
00000210: 0801 ce3c e37b 98bb d556 3a3c 4d86 34bb
00000220: 63d5 a0bb 7c78 acbb 2379 903c caad 61bc
00000230: d95c 5fba 4a58 c9bc b950 503c 713f 95bc
00000240: 70b9 02bc ac23 953c 5b28 c7bb cd28 cd3b
00000250: f504 103c 0bca cabc c016 d4ba f25a d2bc
00000260: 2eb9 f73a 9e75 b1bb 139e a5bb 8792 4fbc
00000270: 82c4 31bc 53f8 3cbc 7de8 3c3c fbda d73b
00000280: 6f00 203c 8259 a43b 30a0 6d3c ab54 9f3c
00000290: 3278 1abb c35a 673b 687f 49bc d52c 7bbc
000002a0: 8fcd fb3a 905c 1cbb 6aab 10bc 900b 81ba
000002b0: d25b 0a3b ccbd b13a 9de9 2fbc 2e84 b3bb
000002c0: f899 d83b 161d 64b9 17f0 413c 5573 303c
000002d0: a001 6c3c cc02 f7bc 9929 883c 7825 5ebb
000002e0: 61be b4bc ce07 8b3a 0e6f 18bc b7c8 acbc
000002f0: f9f3 2dbc f104 503c 2994 5e3c 2810 223c
00000300: d690 6b3c ec3a 88ba 6a80 adbc c83f 233c
00000310: 3f70 193b d492 9cbb 623e 0f3c c459 723b
00000320: dc82 3f3b 606e 633c 9fae b3bb 7c27 073c
00000330: 48f8 943c 3719 fa3b b5f2 8b38 ca5c aab9
00000340: a386 68bc 73f9 15bd 588e 4b3b 2123 653c
00000350: c855 193b 8be6 26bc 8fb5 d43c a798 0d3c
00000360: 6d26 9f3b 5ee3 973c 7df2 9238 e465 103c
00000370: 3812 b6bb 2ce4 59bb 4d7b 49b9 c461 94bc
00000380: eae8 993c 765d 64bb 5c3d 323b 0f48 52bc
00000390: 88f4 c23b b3a3 0d3c af61 403c 004a 5e3c
000003a0: b095 00bc e8d7 66bc e8fd ecbc fea6 2a3a
000003b0: a705 9abb bb53 d83b a8d1 1ebb 1b15 163b
000003c0: fd32 4cbc de2e 303c 95df 073c de8e ca3b
000003d0: 2d11 2a3b a526 10bc fdd3 913c 0dd8 613b
000003e0: 3a90 f53b d7d6 64bc e6bb dc3b 4172 9c3c
000003f0: 4b70 c8ba 368a 19ba 9edc 9a3c 534d 763b
