results/ZBHCC/ZBHCC-2499656.onnx (onnx, 553552 bytes, 7 tensors)

network_body.linear_encoder.seq_layers.0.weight f4 [256, 22]
0	0x3f0b3e4b	0.54391927
1	0xbe1c4a9f	-0.1526284
2	0xbdd76c13	-0.105186604
3	0x3cdd4e1a	0.02701478
4	0x3cb105f9	0.021609293
5	0xbdb0324b	-0.086033426
6	0x3e3c84eb	0.18410079
7	0x3e30f977	0.17282663
8	0xbe1ba204	-0.15198523
9	0x3cef6460	0.029222667
10	0x3e613885	0.21994217
11	0x3ca0b3f5	0.01961706
12	0xbd9d7857	-0.07688969
13	0xbc9d637b	-0.019212475
14	0x3ee568ec	0.44806612
15	0xbebcec0e	-0.36898845
16	0xbd596060	-0.053070426
17	0x3d85bb5a	0.06529875
18	0xbe6153e6	-0.22004661
19	0x3e26b625	0.1628042
20	0x3e4087cf	0.18801807
21	0x3c974816	0.01846699
22	0xbea2b50c	-0.31778753
23	0x3e772ab2	0.2413738
24	0x3e90d5e1	0.28288177
25	0xbe89b63b	-0.26896843
26	0x3e4f6c03	0.20256047
27	0xbe0f2a8e	-0.13981077
28	0x3e4ebd71	0.20189454
29	0xbe09f0df	-0.13470791
30	0xbe0b6acd	-0.1361496
31	0x3ee31f4b	0.44359812
32	0x3e9c1154	0.3048197
33	0xbd87ac3e	-0.066246495
34	0xbd457ed3	-0.048216652
35	0x3ee06714	0.43828642
36	0xbc9b955c	-0.018992119
37	0xbe1e32ee	-0.15449116
38	0xbdf4d24b	-0.11954173
39	0xbd0c6f02	-0.034285553
40	0xbd8ab70f	-0.06773197
41	0x3e8812c0	0.26576805
42	0x3e63765b	0.22213118
43	0x3d86d172	0.06582917
44	0x3eb1caa3	0.34724912
45	0xbd4d9e32	-0.050199695
46	0x3e2c18d3	0.16806345
47	0xbc8cee60	-0.01720351
48	0xbdab575e	-0.08366273
49	0x3e8a579d	0.2701997
50	0x3e69669b	0.22793047
51	0xbdda54f8	-0.10660738
52	0xbe7a0d1a	-0.2441906
53	0x3eab52c1	0.33461574
54	0x3e1ab60a	0.15108505
55	0x3e044849	0.129182
56	0x3e8a7b96	0.27047414
57	0xbe0f8f09	-0.14019407
58	0x3e6e3d3b	0.23265545
59	0xbe6b8cdd	-0.23002954
60	0x3e89f7a7	0.26946756
61	0x3eab3948	0.3344214
62	0x3cde95a1	0.027170958
63	0x3e681b62	0.22666696
64	0xbe759c1d	-0.23985334
65	0xbe3e4b8a	-0.18583503
66	0xbf47a243	-0.77981967
67	0x3e3376a9	0.17525734
68	0x3cdb356c	0.026758872
69	0xbe27ea3c	-0.16397947
70	0x3d077f45	0.033080358
71	0xbe3fba39	-0.18723382
72	0xbdd3ba34	-0.1033825
73	0x3e53a8da	0.2066988
74	0xbedc63ac	-0.43044794
75	0x3cb1f2ec	0.02172228
76	0x3e3e2688	0.18569386
77	0x3e26b4e2	0.16279939
78	0xbe88ae58	-0.26695514
79	0xbe32e877	-0.17471491
80	0x3ec77e97	0.38963768
81	0xbe1fedcd	-0.15618058
82	0x3d46d4dd	0.048542846
83	0x3ebbb8c1	0.36664394
84	0xbe7e8c0e	-0.24858114
85	0x3e1241fe	0.14282987
86	0x3e39877f	0.18118094
87	0xbe88a8c3	-0.26691255
88	0x3e7ae173	0.24500065
89	0xbed805d7	-0.42191955
90	0x3ee20bbb	0.44149575
91	0xbe7513a4	-0.23933274
92	0xbcb69a1f	-0.022290288
93	0xbe5ef56e	-0.21773311
94	0xbd848d8a	-0.06472309
95	0xbe3ea025	-0.18615778
96	0x3d44a9ac	0.048013374
97	0x3ebbcebc	0.36681163
98	0xbebc3d4d	-0.3676552
99	0xbec5d820	-0.38641453
100	0x3e0cd256	0.13752112
101	0x3e189382	0.1490002
102	0x3e2084e7	0.15675698
103	0x3d8ed348	0.069738925
104	0x3e421483	0.18953137
105	0xbea92a10	-0.33039904
106	0xbbd83a19	-0.0065987227
107	0xbec80d2b	-0.39072546
108	0x3dd4d243	0.10391667
109	0xbcedd420	-0.029031813
110	0x3d83432b	0.06409296
111	0x3d2afc55	0.04174455
112	0xbda759d3	-0.081714295
113	0x3e426aa6	0.18985996
114	0xbcf2d436	-0.029642206
115	0x3ec1bd05	0.37839523
116	0x3e16a724	0.14712197
117	0xbd39334c	-0.045214936
118	0xbd998792	-0.07496561
119	0xbe38078d	-0.1797163
120	0xbd9e6dee	-0.07735811
121	0xbe102e36	-0.14080128
122	0x3eb86468	0.36014104
123	0x3ea8cb0b	0.3296741
124	0x3ed1256f	0.40848872
125	0xbc4bacbd	-0.012431321
126	0x3e9a8594	0.30180037
127	0xbd51f5d6	-0.051259838
128	0x3e307561	0.17232276
129	0x3dfc15fb	0.1230888
130	0x3dbd88e2	0.09254624
131	0x3e995af7	0.29952213
132	0x3ec5fc6a	0.3866914
133	0xbdc5860f	-0.0964471
134	0x3e15c3c1	0.14625455
135	0xbef1bc41	-0.4721394
136	0xbe868161	-0.26270583
137	0x3ea5ab80	0.32357407
138	0x3e4ff5de	0.20308635
139	0xbe338632	-0.1753166
140	0xbe9234cf	-0.28555915
141	0x3db6f143	0.08932736
142	0x3e792284	0.24329573
143	0x3e4cd9fe	0.20005032
144	0x3cc9caf7	0.024632914
145	0x3e67486b	0.22586219
146	0xbf093762	-0.5360013
147	0xbd9a78d5	-0.07542578
148	0x3e99c5f2	0.30033833
149	0x3e060896	0.13089213
150	0x3ccaf529	0.024775105
151	0x3ebe0e0e	0.37120098
152	0xbdeabed1	-0.114621766
153	0xbdb20eff	-0.086942665
154	0x3d435f83	0.04769851
155	0xbe073580	-0.13204002
156	0x3ed14ba0	0.4087801
157	0xbd50c46b	-0.05096857
158	0x3edabd5d	0.42722598
159	0xbe85d7ec	-0.26141298
160	0xbd911dda	-0.07085772
161	0xbdbbd3d1	-0.0917126
162	0xbe109a4d	-0.14121361
163	0x3e8136ce	0.25237125
164	0xbd954727	-0.07288962
165	0x3f0cad63	0.5495207
166	0x3dafe370	0.08588302
167	0x3e8cb8f3	0.27484855
168	0xbcba44fa	-0.022737969
169	0x3e904fcd	0.28185883
170	0x3e885b7c	0.26632297
171	0x3ec388b8	0.38190246
172	0x3d9173d6	0.07102172
173	0xbdf31ff5	-0.1187133
174	0xbe2c29c5	-0.16812809
175	0xbe4749d4	-0.19461757
176	0xbe01744f	-0.12642024
177	0x3ed22ea4	0.4105121
178	0xbe809326	-0.25112265
179	0xbe83b2a5	-0.25722232
180	0x3d977ee7	0.073972516
181	0xbdad0e65	-0.08450011
182	0xbebbfd74	-0.36716807
183	0x3e4d3d43	0.200429
184	0xbe5e5317	-0.21711384
185	0xbe912735	-0.28350225
186	0xbdde4ab6	-0.10854094
187	0xbd21375a	-0.039359428
188	0xbe0f74e7	-0.14009438
189	0x3d07d074	0.03315778
190	0xbe144f9b	-0.14483492
191	0xbcef80d7	-0.02923624
192	0xbf0a4c57	-0.54022735
193	0x3e1e2480	0.15443611
194	0x3de935f2	0.113872424
195	0xbe05c0da	-0.13061848
196	0x3dbc00ab	0.09179815
197	0x3ef09bde	0.46993917
198	0x3dc5b78d	0.0965415
199	0xbd2592a9	-0.04042307
200	0xbd4aa9b6	-0.049478255
201	0x3ec0ae8b	0.37633166
202	0xbdb75a3d	-0.089527585
203	0xbe83cd94	-0.2574278
204	0x3e519360	0.20466375
205	0xbda4cde3	-0.08047082
206	0x3d8e7c26	0.06957273
207	0x3e160502	0.14650348
208	0xbbd8eda9	-0.006620128
209	0x3db65a4d	0.08903942
210	0xbe3937d1	-0.18087699
211	0x3dce26c3	0.10065987
212	0xbd76cfbb	-0.0602567
213	0xbe1bfd69	-0.15233387
214	0xbe2c0da0	-0.16802073
215	0x3e32b224	0.17450768
216	0x3d0f0044	0.034912363
217	0xbe6c2e1e	-0.23064467
218	0x3e4fa37d	0.2027721
219	0x3d34f46f	0.044178423
220	0xbe7c891a	-0.24661675
221	0x3e12ab8a	0.1432325
222	0x3d266d7e	0.040631764
223	0xbd59918b	-0.053117316
224	0x3e30e726	0.17275676
225	0xbe69adca	-0.22820202
226	0xbd63c28c	-0.055605456
227	0xbd0e34ad	-0.034718204
228	0x3f2466b9	0.6421924
229	0x3dfa5eef	0.122251384
230	0x3e044fce	0.12921068
231	0x3dfdfc80	0.12401676
232	0x3e258981	0.16165735
233	0xbe8012d3	-0.25014362
234	0x3dab6f30	0.08370817
235	0xbca22578	-0.019793257
236	0x3d868ea1	0.06570173
237	0xbdd4d56d	-0.1039227
238	0xbdba1f11	-0.09087957
239	0x3e8e40aa	0.2778371
240	0x3e51d862	0.204927
241	0x3ed1d4e7	0.40982744
242	0xbe17d208	-0.14826214
243	0xbba6e3fd	-0.0050930963
244	0xbda8d990	-0.08244622
245	0xbdf0dac9	-0.1176048
246	0x3d4f3e3f	0.050596472
247	0x3e350bf7	0.17680345
248	0x3dfc0ca3	0.12307098
249	0xbdae2f3b	-0.08505102
250	0xbd4baa4c	-0.049722955
251	0xbe68eae9	-0.22745861
252	0xbca9e66d	-0.020739758
253	0x3d934851	0.07191528
254	0x3d27b239	0.04094145
255	0x3e5e937a	0.21735945

network_body.linear_encoder.seq_layers.0.bias f4 [256]
0	0x38cca329	9.757869e-05
1	0xb98f9e4d	-0.0002739303
2	0xba7785ed	-0.0009442259
3	0x3a3170a0	0.00067687966
4	0xbb00000f	-0.0019531285
5	0x3b33be55	0.002742668
6	0x3ac7bace	0.0015238167
7	0xbb165115	-0.0022936512
8	0xbac2ffaa	-0.0014877219
9	0xbb44f7e4	-0.003005498
10	0xbbc2ef55	-0.0059489408
11	0x3a004a05	0.0004893842
12	0xbada3975	-0.0016649204
13	0x3aa62d05	0.0012678212
14	0xbb625d5d	-0.0034540512
15	0xba8ecacc	-0.0010894178
16	0x3a2148fd	0.00061525387
17	0xb96914b7	-0.00022228328
18	0x39a39dd1	0.00031207365
19	0xb8784427	-5.919128e-05
20	0x3ace2ac2	0.0015729296
21	0x3b0a31e3	0.0021086864
22	0x3a02cf71	0.00049900176
23	0x39882f50	0.00025975192
24	0x3b4cfc4b	0.0031278308
25	0x3b6b84eb	0.003593738
26	0x37edcbd9	2.8347526e-05
27	0xb962d4c6	-0.00021632304
28	0x3af75f89	0.0018873076
29	0x3b6b4bbe	0.00359033
30	0x3a7ca14f	0.0009637074
31	0xb8ad5b89	-8.2663326e-05
32	0xbb51acc3	-0.0031993843
33	0xbb63d4c8	-0.0034764279
34	0xbbb892a9	-0.0056327176
35	0x3bd55ad2	0.0065110708
36	0xba3ad29e	-0.00071267213
37	0xbc0d64b0	-0.008629963
38	0xbb4d1be6	-0.0031297146
39	0xba1f902b	-0.00060868514
40	0xbafa140e	-0.0019079463
41	0x398874b5	0.00026026895
42	0x36d4d657	6.343045e-06
43	0xba134969	-0.0005618544
44	0x3b4d5dab	0.0031336348
45	0xb96a3ce5	-0.00022338664
46	0x3b08a86a	0.0020852336
47	0x39ec853b	0.00045112692
48	0xb9bfebbf	-0.00036606003
49	0xbb6490f3	-0.0034876436
50	0xbaaa642b	-0.0012999823
51	0xb9b9158f	-0.00035302012
52	0xba68d15d	-0.0008881295
53	0x3b12db85	0.0022408676
54	0xba7c309d	-0.0009620281
55	0xbb5833f1	-0.0032989944
56	0xb9f0510b	-0.0004583675
57	0x3a8b44ac	0.0010625324
58	0xba95cc43	-0.0011428673
59	0xbab2fd35	-0.0013655784
60	0xbb46f695	-0.0030359377
61	0x3b236ac0	0.0024935454
62	0x3c15188f	0.0091000935
63	0x38f9260b	0.00011880331
64	0x3bde3596	0.0067812903
65	0xba95fe36	-0.0011443559
66	0xbaeeb65b	-0.0018212305
67	0xba7403f3	-0.000930845
68	0x3b199c50	0.0023439117
69	0xb9465d48	-0.00018917501
70	0xbbb7a996	-0.005604933
71	0xba29225e	-0.00064519595
72	0xb93467ea	-0.00017204849
73	0x3b29716f	0.0025854965
74	0x389b4c63	7.405204e-05
75	0xbbd2000f	-0.0064086984
76	0x3b2cdaf3	0.002637562
77	0xbb76f26c	-0.0037681116
78	0x39ffd22a	0.00048793975
79	0xbb995167	-0.0046788934
80	0x3aae9d38	0.0013322001
81	0x3abab843	0.0014245588
82	0x3a04ad61	0.0005061236
83	0xbb3d7915	-0.0028911282
84	0xba28e9d6	-0.00064435357
85	0xb93ae704	-0.00017824402
86	0xb891531b	-6.9296184e-05
87	0xbae3db34	-0.0017384053
88	0xba289b9b	-0.00064318784
89	0x3a016702	0.0004936309
90	0x3b2e691c	0.0026612943
91	0x3b99262d	0.0046737404
92	0xbab99faa	-0.0014161963
93	0xbb04b23d	-0.002024784
94	0x3b5d6afc	0.0033785691
95	0xba99f79e	-0.0011746769
96	0xbba25ab4	-0.0049546603
97	0x3b8eea8d	0.0043614567
98	0xb8c8cbed	-9.574727e-05
99	0xb9e150ab	-0.00042975447
100	0xbb0927cd	-0.0020928264
101	0x3806e11f	3.215775e-05
102	0x37b05679	2.1021102e-05
103	0xba186282	-0.00058130187
104	0xbae4b96c	-0.001745028
105	0xbaa96cfb	-0.0012926155
106	0x39323fc4	0.00016999157
107	0xbb56588d	-0.003270659
108	0x3a2b0e14	0.000652523
109	0xbaa09d23	-0.0012253862
110	0xbabb65fc	-0.0014297361
111	0xbb42186c	-0.0029616607
112	0xba2f8a74	-0.00066963513
113	0xba6725c8	-0.00088175805
114	0xbbb6ec28	-0.0055823512
115	0x3b5099bd	0.0031829916
116	0xbaf4b64c	-0.0018670051
117	0x3aa16e6a	0.0012316231
118	0xbb52cbdb	-0.0032164964
119	0xbb211c73	-0.0024583607
120	0xbb22fcc9	-0.002486991
121	0xbafc694f	-0.0019257459
122	0xbb2700dd	-0.0025482692
123	0x3a4817a5	0.0007632918
124	0x3af390d2	0.0018582589
125	0xbb6d7abc	-0.0036236485
126	0xb90c882c	-0.00013402168
127	0xbb277db5	-0.0025557105
128	0xbc02b0f1	-0.007976756
129	0x3b0f155c	0.00218328
130	0xbafe1b16	-0.0019386734
131	0xbb42a392	-0.0029699546
132	0x3aa58a58	0.0012629731
133	0x3a894bbf	0.0010474845
134	0xbb82ec7f	-0.0039954777
135	0x38b8a2ed	8.804151e-05
136	0x3bae06e9	0.0053108823
137	0x39fc2159	0.00048090031
138	0x39b7582b	0.0003497017
139	0xbab4fb10	-0.0013807733
140	0x38dd696e	0.00010557739
141	0xba6e3b52	-0.0009087819
142	0xba83796d	-0.0010030695
143	0x3aec8431	0.0018044767
144	0xbb6ecec2	-0.0036439155
145	0x3a4e2ac2	0.0007864648
146	0x3b1d306a	0.0023985156
147	0xbb856ae2	-0.0040715793
148	0xbb1485f1	-0.0022662843
149	0xbb335b49	-0.0027367643
150	0x3b15c753	0.0022854402
151	0xba46e74d	-0.0007587567
152	0xbb81fadc	-0.0039666723
153	0xba77161e	-0.0009425598
154	0x3ab8c516	0.0014096822
155	0xbbadebd0	-0.005307652
156	0xbb8e95c4	-0.0043513495
157	0xbab0e50e	-0.0013495998
158	0xbbe3d747	-0.0069531533
159	0xbb9084b2	-0.0044103498
160	0xb9a19777	-0.00030821163
161	0x3b043d2a	0.0020178058
162	0xba4468df	-0.00074924337
163	0xbb5ee0dd	-0.003400854
164	0xbb140b20	-0.0022589639
165	0xb9bb91c5	-0.00035776026
166	0xbba08f5b	-0.004899902
167	0xbb4e41e7	-0.0031472386
168	0xbb4a8d45	-0.0030906957
169	0xbae3608c	-0.0017347499
170	0x3aa4791d	0.0012548302
171	0xba90ba34	-0.0011041821
172	0x3b58b883	0.0033068962
173	0xbb3c5f41	-0.00287433
174	0xb92e880f	-0.00016644619
175	0x393f5e9c	0.00018250424
176	0xbac678f2	-0.0015142246
177	0x3b4ccbe8	0.0031249467
178	0xb97ac3e3	-0.00023914831
179	0xba8813b2	-0.0010381846
180	0xbb6f9ef6	-0.0036563254
181	0x39a04d0b	0.0003057498
182	0x3b4cd7c0	0.0031256527
183	0xbbe7750f	-0.007063515
184	0xba600359	-0.0008545421
185	0xbaccdd34	-0.0015629889
186	0xbbe425f1	-0.006962531
187	0x3979bb45	0.00023816254
188	0x3826eddb	3.9799004e-05
189	0x3ad3e7a6	0.0016167059
190	0xbb0514e8	-0.002030665
191	0xbbd8a6d1	-0.006611683
192	0x3a40a819	0.0007349267
193	0xbac1f453	-0.0014797546
194	0xbb8b11ae	-0.004244051
195	0xba29821c	-0.0006466226
196	0xb9bb5f56	-0.0003573845
197	0x3bf64e45	0.0075166547
198	0x3b2b778b	0.0026163782
199	0xbafc2a67	-0.0019238711
200	0xbb94353d	-0.004522948
201	0xb85c7a3b	-5.2565923e-05
202	0xbb1baae5	-0.0023752984
203	0x39d24e2c	0.00040112564
204	0xbb99175d	-0.0046719746
205	0x3bc42a05	0.0059864544
206	0xbb89c0c3	-0.004203887
207	0xba31a1cd	-0.00067761244
208	0xbb3f8f7a	-0.0029229806
209	0xbb482e95	-0.0030545343
210	0x3b174fa7	0.0023088248
211	0xbb2d50bb	-0.0026445824
212	0x3b65d92b	0.003507207
213	0x392e3d36	0.00016616736
214	0x3b3734f8	0.0027955156
215	0xba899988	-0.0010498026
216	0xbb3d8a83	-0.002892167
217	0xbb8e7ddb	-0.0043484992
218	0xba12aaba	-0.0005594898
219	0x3ac29b6b	0.0014847344
220	0xbab8dc07	-0.0014103659
221	0x37e8ea82	2.7765756e-05
222	0x3a3e7a6f	0.0007266169
223	0xbbd210ba	-0.0064106854
224	0xbb14cdb1	-0.002270561
225	0xb98720c3	-0.00025773616
226	0xbbc2ce4c	-0.0059450027
227	0xb91385cc	-0.00014068856
228	0xb993d5a8	-0.0002819721
229	0x3a5438a4	0.00080955983
230	0xb9a31496	-0.0003110512
231	0xbb181eaa	-0.0023211637
232	0xbaacb7f6	-0.0013177383
233	0xba74ed45	-0.0009343217
234	0xba41f185	-0.0007398355
235	0xb9862870	-0.000255886
236	0x3b2a7ce2	0.0026014377
237	0xbafba14c	-0.001919785
238	0xbb198a88	-0.0023428518
239	0xbb1758d5	-0.002309372
240	0xbab77df3	-0.0013999328
241	0x398a3899	0.0002636358
242	0xbb3f64a0	-0.0029204264
243	0x3a19c839	0.00058663223
244	0xbba23e9b	-0.004951311
245	0x392a68a6	0.00016251448
246	0x3ab6c34f	0.0013943705
247	0xb90b2f9a	-0.00013273806
248	0xbc089638	-0.008336596
249	0xbaa124f3	-0.0012294337
250	0x3a60cbd1	0.0008575293
251	0xbb425957	-0.0029655301
252	0x3b785d4a	0.0037897401
253	0xbaa59bf5	-0.001263498
254	0xbbe96daf	-0.007123671
255	0xb9b5a25a	-0.00034643972

network_body.linear_encoder.seq_layers.2.weight f4 [256, 256]
0	0x3c616540	0.01375705
1	0x3d07cff1	0.033157293
2	0x3ccec2f8	0.025239453
3	0x3db4d4cf	0.088296525
4	0xbd5bfd6d	-0.053708483
5	0x3d552aca	0.05204276
6	0xbc92ea45	-0.017933974
7	0xbd9147ff	-0.0709381
8	0xbdd00473	-0.101570986
9	0x3c8e2e10	0.017355949
10	0xbdb7526f	-0.0895127
11	0xbd662beb	-0.056194227
12	0x3ced44f0	0.028963536
13	0x3da88a71	0.082295306
14	0x3c38c1ca	0.011276672
15	0x3d2a703d	0.041610945
16	0x3d286532	0.041112132
17	0xbe02aeef	-0.12762044
18	0x3cff82fd	0.03119039
19	0xbe1cab32	-0.15299681
20	0x3c5e118d	0.013553989
21	0xbd060dd0	-0.032728016
22	0x3cbb34ab	0.022852262
23	0x3d90e81b	0.070755206
24	0x3e25e562	0.16200784
25	0xbda48215	-0.08032624
26	0x3c0d2d10	0.008616701
27	0xbdf899c9	-0.12138707
28	0x3d0ac8d8	0.033882946
29	0x3d2addae	0.041715316
30	0x3c9f2e27	0.019431187
31	0xbdd9bb0f	-0.10631382
32	0x3da66c3e	0.08126114
33	0xbc0cf004	-0.008602146
34	0x3e245df2	0.16051462
35	0x3d1ceb38	0.03831026
36	0xbc9a63d4	-0.01884643
37	0xbd6cb0cc	-0.057785794
38	0x3d3aa04c	0.045563027
39	0x3daaa958	0.08333081
40	0xbc0c28ed	-0.008554679
41	0xbd4141a5	-0.047181744
42	0xbda8d3f4	-0.08243552
43	0xbdf2aa96	-0.11848943
44	0xbd9734d4	-0.07383123
45	0x3c81dfb9	0.01585375
46	0x3cc4fafd	0.024045462
47	0x3d96069e	0.07325481
48	0x3a5f7e93	0.0008525636
49	0x3d87f372	0.066382304
50	0x3d683847	0.056694295
51	0xbc7cfe3e	-0.015441475
52	0x3d6ce644	0.057836786
53	0x3db7677b	0.08955284
54	0xbc59ea4b	-0.013300489
55	0x3c4307a9	0.011903682
56	0x3daa5211	0.08316434
57	0x3c36076e	0.01111017
58	0x3ccda653	0.025103724
59	0x3daba93c	0.08381888
60	0xbc0e9c61	-0.008704276
61	0xbd187fac	-0.037231132
62	0x3dbaf7f2	0.09129323
63	0xbe03aa8a	-0.12858024
64	0x3d14cade	0.03632628
65	0x3d1f036d	0.038821626
66	0x3dada821	0.08479334
67	0x3e1a7178	0.15082347
68	0x3dbd082d	0.09230075
69	0x3c6d9961	0.0145019
70	0xbb7b11f1	-0.0038310254
71	0xbd3f0f14	-0.04664524
72	0xbce43e43	-0.02786172
73	0x3d4439d7	0.047906723
74	0xbdb39a04	-0.087696105
75	0x3e130cdb	0.14360373
76	0x3d534907	0.051583316
77	0xbdbffc68	-0.093743145
78	0x3d081722	0.033225186
79	0x3c8b572b	0.017009338
80	0x3c28005d	0.010253993
81	0x3d776dec	0.060407564
82	0xbd552bc4	-0.05204369
83	0xbc8ff094	-0.017570771
84	0xbd4f5bd7	-0.050624695
85	0xbd012abe	-0.031534903
86	0x3c932db8	0.017966136
87	0xbcf84aae	-0.030309048
88	0xbd4157c9	-0.04720286
89	0xbcaa53d8	-0.020791933
90	0xbd855766	-0.065108106
91	0xbced6062	-0.028976623
92	0x3d90e20c	0.07074365
93	0x3d712751	0.058875386
94	0xbc80e206	-0.015732776
95	0xbd4debd8	-0.050273746
96	0xbe141939	-0.14462747
97	0x3ddd6065	0.108094014
98	0xbcd346fe	-0.025790688
99	0xbd87498a	-0.06605823
100	0xbd70361f	-0.058645364
101	0x3d18dedd	0.037321914
102	0xbd0ba421	-0.034092072
103	0xbc3db475	-0.011578669
104	0x3c8b8cac	0.017034851
105	0xbd093925	-0.033501763
106	0xbd624720	-0.05524361
107	0xbb999f42	-0.0046881745
108	0x3cc57242	0.024102334
109	0xbd18fb5e	-0.037349097
110	0x3db8a1bd	0.09015224
111	0x3d9852e3	0.074376844
112	0xbd825644	-0.0636411
113	0x3b90d42e	0.004419825
114	0x3cb5bfab	0.022186121
115	0x3c4d15e4	0.012517426
116	0x3d352999	0.044229124
117	0xbc1d2b9d	-0.009592918
118	0x3d5f7d08	0.0545626
119	0x3d11b39c	0.03557168
120	0x3c80f135	0.015740016
121	0x3e1f9466	0.15583953
122	0xbc83ae0b	-0.016074201
123	0xbd00595d	-0.031335223
124	0xbdc2b06b	-0.09506305
125	0xbb8d9ebc	-0.004321901
126	0xbda2d543	-0.07950833
127	0xbbc0a08e	-0.0058785146
128	0xbdb6010e	-0.0888692
129	0xbc0d973e	-0.008642016
130	0x3d06be9d	0.032896627
131	0xbe19c0c1	-0.15014936
132	0xbd14faf3	-0.036372136
133	0x3ce462e6	0.02787919
134	0xbd760792	-0.060065813
135	0xbc1122e3	-0.008858415
136	0x3da67bf1	0.08129109
137	0xbcd5a820	-0.026081145
138	0x3c195195	0.00935783
139	0xbcc6f2ca	-0.024285693
140	0xbdb0a375	-0.08624927
141	0xbd0845dd	-0.03326975
142	0xbba7d567	-0.005121875
143	0x3d9efd12	0.07763113
144	0xbbe0895a	-0.006852311
145	0xbc833ce1	-0.01602024
146	0x3dc6b4b8	0.09702438
147	0xbc65e48e	-0.014031542
148	0x3d67c7a0	0.05658686
149	0xbc4057c2	-0.011739673
150	0xbc83a90c	-0.016071819
151	0x3b8c5b45	0.004283341
152	0x3ddf8442	0.10913898
153	0xbd573d00	-0.05254841
154	0xbdab95a5	-0.08378152
155	0xbca6551e	-0.020304259
156	0xbbdc3b17	-0.0067209112
157	0x3d195998	0.03743896
158	0x3d7729e4	0.060342684
159	0xbde2c684	-0.1107302
160	0x3c8777ec	0.016536675
161	0x3d21bd86	0.039487384
162	0x3e0b861d	0.13625379
163	0xbbd9f798	-0.00665183
164	0x39f836fe	0.00047343218
165	0xbc7b90ed	-0.015354377
166	0x3c26348d	0.010144365
167	0xbceb5ee5	-0.028731773
168	0xbcb19913	-0.021679437
169	0xbd0e4c9a	-0.03474102
170	0xbd23e753	-0.04001553
171	0xbe022ecb	-0.12713163
172	0x3d80db0c	0.0629178
173	0xbb55839c	-0.0032579666
174	0x3d3d448c	0.04620795
175	0x3e009280	0.12555885
176	0x3d240eb2	0.040053077
177	0x3c4a552e	0.01234941
178	0x3dac5d44	0.084162265
179	0x3d66ebf0	0.05637735
180	0xbd02a9b3	-0.03190012
181	0xbaeb446d	-0.001794947
182	0x3dc527b0	0.096267104
183	0x3d1abb5a	0.03777633
184	0xbbf7c36d	-0.0075611384
185	0xbcf4651c	-0.029833369
186	0xbcfb6e2d	-0.030692184
187	0xbe04bf3a	-0.12963572
188	0x3acb1641	0.0015494303
189	0x3ce74794	0.028232373
190	0xbc791c9f	-0.015204578
191	0xbc9ca219	-0.019120263
192	0xbbe67406	-0.007032874
193	0xbd91e934	-0.07124558
194	0xbdf54f84	-0.11978057
195	0xbd5c866b	-0.05383913
196	0x3b95bd23	0.004569666
197	0xbd44ba88	-0.048029453
198	0xbdbfcbec	-0.09365067
199	0x3d4906b0	0.049078643
200	0xbdca8484	-0.098885566
201	0x3dc363f1	0.09540547
202	0xbd4d4581	-0.050115112
203	0x3c2e1215	0.010624428
204	0xbcf76428	-0.030199125
205	0x3c6d6582	0.014489533
206	0x3cfe7c3b	0.031065097
207	0xbd07141d	-0.032978166
208	0xbd3a2e1f	-0.04545414
209	0xbc29b4d8	-0.010358058
210	0xbd504338	-0.050845355
211	0x3cba4b31	0.022740932
212	0x3c8162ae	0.015794124
213	0xbb772bb9	-0.003771527
214	0x3d185acd	0.03719597
215	0x3b465f5f	0.0030269248
216	0xbcd2821e	-0.02569681
217	0x3d8a2569	0.06745417
218	0x3d662837	0.056190696
219	0xbdc58864	-0.09645155
220	0x3d03455d	0.03204857
221	0xbd5e14e5	-0.054219145
222	0x3c81586f	0.015789239
223	0x3dcf6c62	0.10128094
224	0x3c188f97	0.009311578
225	0xbddc07f5	-0.10743705
226	0x3d52024c	0.05127172
227	0x3d345717	0.044028368
228	0xbb7aaa1f	-0.0038248373
229	0xbd0951c6	-0.03352525
230	0xbe017f90	-0.12646317
231	0xbcb1dd61	-0.021712007
232	0x3e2d32f7	0.16913973
233	0x3ca651d7	0.020302696
234	0xbd989764	-0.074507505
235	0x3ccfe6f5	0.025378684
236	0xbd43a478	-0.04776427
237	0xbdd3b9df	-0.103381865
238	0xbc9187d9	-0.017764973
239	0x3d8a1f36	0.06744234
240	0x3dc236c1	0.094831
241	0xbdf06e68	-0.11739808
242	0x3cce777b	0.025203457
243	0xbd28b5f0	-0.041189134
244	0xbd0d3df5	-0.034482915
245	0xbddaff93	-0.10693278
246	0x3ba8d69f	0.005152538
247	0xbca9409b	-0.02066069
248	0x3c9172c0	0.017754912
249	0x3ca51bb7	0.020154817
250	0x3d8b6300	0.06805992
251	0x3b9d5cef	0.0048023383
252	0xbcee50cd	-0.029091263
253	0x3bdaff0d	0.0066832365
254	0x3d3cf441	0.046131376
255	0x3cb3c73c	0.021945588

network_body.linear_encoder.seq_layers.2.bias f4 [256]
0	0xba09fb71	-0.0005263603
1	0xbac301ec	-0.0014877892
2	0xbb47c1ea	-0.0030480572
3	0xbaedb6b1	-0.0018136111
4	0xb942fb29	-0.00018594846
5	0xba9f0f1c	-0.001213524
6	0xbb0b5359	-0.0021259396
7	0xba13dae0	-0.000564022
8	0x3ad952cb	0.001658046
9	0xbb183f6e	-0.0023231166
10	0xbb03fdf2	-0.0020140377
11	0xbb9e33ca	-0.004827951
12	0x3a0cb351	0.00053672964
13	0xbb860d09	-0.0040909094
14	0xbb4e9da2	-0.0031527062
15	0xbae93a51	-0.0017793869
16	0xbab64d34	-0.0013908506
17	0xba707324	-0.0009172431
18	0xba9a6f80	-0.0011782497
19	0x396cb9ec	0.00022575975
20	0xbb9a29f7	-0.0047047096
21	0xba8d6a96	-0.0010789211
22	0xba6030cb	-0.00085521926
23	0x3bd61893	0.006533691
24	0x3b12b145	0.0022383493
25	0xbb58a573	-0.00330576
26	0xba5fe0b4	-0.0008540258
27	0xb998fa52	-0.00029178202
28	0x3adb69b6	0.0016739878
29	0x39cd76b6	0.00039189094
30	0xbb8646d5	-0.0040977993
31	0x3a4fceec	0.0007927257
32	0x3b6f5157	0.0036516988
33	0xba43a5b4	-0.00074633514
34	0xbba995d5	-0.005175332
35	0xbb35dc74	-0.0027749809
36	0xbacf5754	-0.0015818872
37	0xba78065d	-0.00094613974
38	0x3b06ac36	0.0020549423
39	0xbb57b27a	-0.0032912777
40	0xbae882d3	-0.0017739184
41	0xba81ccde	-0.0009902974
42	0xba131177	-0.00056102074
43	0xbb9472ea	-0.0045303004
44	0xba646c44	-0.00087136426
45	0x3aa5f159	0.0012660428
46	0xbb29c976	-0.0025907434
47	0x3b989db9	0.004657474
48	0xbb0a3365	-0.0021087762
49	0x3a0917ca	0.000522968
50	0xba263228	-0.00063398713
51	0xba0e64c7	-0.0005431887
52	0x38868116	6.413662e-05
53	0xb9beb8b0	-0.00036377227
54	0x3aff0ec6	0.0019459359
55	0xbb04395e	-0.0020175795
56	0x3a1eed26	0.00060625596
57	0x3a96ae4e	0.0011496039
58	0x3b692af8	0.003557859
59	0x39dff0a3	0.00042713163
60	0xba641ab1	-0.0008701487
61	0xba3fca8c	-0.00073162536
62	0x3a90a98f	0.001103686
63	0x3abd719e	0.0014453416
64	0xbab65892	-0.0013911894
65	0xba816a21	-0.0009873548
66	0xbb1d4e0c	-0.0024002818
67	0xba51c17f	-0.00080015504
68	0x39ac01fe	0.0003280788
69	0xbb6336a1	-0.0034670013
70	0xba62e5ba	-0.0008655448
71	0xba5b9b28	-0.0008377307
72	0xb90cac12	-0.00013415542
73	0xb996737c	-0.00028696272
74	0x3b1e304a	0.002413767
75	0x38c236b1	9.260828e-05
76	0xb9b03a3d	-0.00033612727
77	0x3a6fe3b2	0.0009151056
78	0x3a175c9f	0.00057739945
79	0xba79d7be	-0.0009530744
80	0xba87cfe3	-0.0010361638
81	0xba267a83	-0.0006350653
82	0xb98751be	-0.0002581011
83	0xbaf3f00c	-0.0018610968
84	0xba95694d	-0.001139918
85	0x391efc6e	0.00015162092
86	0xb89a10af	-7.3464e-05
87	0xb92d9d77	-0.00016557226
88	0xba68e9aa	-0.00088849163
89	0xb9434735	-0.00018623176
90	0xba72f926	-0.00092686934
91	0xbb87c829	-0.004143734
92	0xba93562d	-0.0011240892
93	0x39c94fd1	0.00038397175
94	0xbb4fb2e7	-0.0031692327
95	0xb9a6a2d4	-0.00031783304
96	0xbb4c46bf	-0.0031170098
97	0xba90bcb4	-0.0011042566
98	0xbb0ddfe3	-0.002164834
99	0xbb9dc9de	-0.004815324
100	0x3aa613e6	0.0012670725
101	0xba78feb1	-0.0009498401
102	0x3b3a9642	0.0028470908
103	0x39ccc626	0.00039057544
104	0x3a64dee1	0.00087307213
105	0xbac343c6	-0.0014897517
106	0x39f0973a	0.0004588904
107	0x3a07dacf	0.00051824463
108	0x3a888e55	0.0010418395
109	0xbb5df365	-0.0033866998
110	0x3b014ac3	0.00197284
111	0xb96a53f0	-0.00022347248
112	0xba6afb46	-0.0008963834
113	0xb9479180	-0.00019032322
114	0x3a23e43e	0.0006251967
115	0xb9428930	-0.00018552388
116	0xbb60d2f7	-0.0034305432
117	0xbafe2161	-0.001938861
118	0xb8e1b739	-0.00010762964
119	0x3a9d0f0d	0.0011982635
120	0xba5abd8a	-0.00083442836
121	0xba8f081b	-0.001091245
122	0xbb35a93f	-0.0027719287
123	0xbb3911d8	-0.0028239395
124	0xba515f5e	-0.0007986928
125	0xbbfd309d	-0.0077267424
126	0xbae6dd88	-0.0017613629
127	0x3ab5faca	0.0013883945
128	0xbb06bd87	-0.0020559744
129	0xbb2e87f2	-0.0026631323
130	0x399f03d8	0.00030329707
131	0xbb5fffb7	-0.0034179518
132	0xba616a0c	-0.0008598871
133	0xb9bb08bf	-0.00035673936
134	0x3a7004f9	0.00091560144
135	0x3b86082b	0.004090329
136	0x3a02babe	0.0004986933
137	0xbad9673f	-0.0016586556
138	0xbbb19674	-0.0054195467
139	0xba65454f	-0.00087459845
140	0xbb341da0	-0.0027483478
141	0xba774e5c	-0.00094339787
142	0x38bd6815	9.031609e-05
143	0xbaeb6634	-0.0017959536
144	0xbad8c95f	-0.0016539505
145	0x3b954034	0.0045547727
146	0x3b4c4920	0.0031171516
147	0xbae65079	-0.001757159
148	0xba150cde	-0.0005685816
149	0xba861469	-0.0010229471
150	0xbb9802e7	-0.004639018
151	0x3a95d760	0.0011431985
152	0x3a8d18af	0.0010764803
153	0xb99a6e56	-0.00029455376
154	0xb97489a7	-0.00023320933
155	0xbb1bb194	-0.0023756968
156	0xbb8d93b2	-0.004320585
157	0xb819ad35	-3.6639354e-05
158	0x3ac9b323	0.001538847
159	0xbb46ddc3	-0.0030344583
160	0xb8217077	-3.8490132e-05
161	0xbb2941ad	-0.00258265
162	0x3a5f57db	0.00085198664
163	0xbaa5b5b3	-0.0012642652
164	0x38b30d6d	8.537886e-05
165	0xbb0b6344	-0.0021268884
166	0xbaa146cc	-0.0012304424
167	0xbabcf7cd	-0.0014417112
168	0x38c403f1	9.3467424e-05
169	0xbb918018	-0.004440319
170	0xbabbc6b1	-0.0014326182
171	0xbb5e4de2	-0.0033920933
172	0xb9e316a6	-0.00043313688
173	0xbad72106	-0.001641304
174	0x39aa33c8	0.00032463507
175	0xbabe7728	-0.0014531361
176	0xbb2f3eb1	-0.0026740248
177	0xb83e8664	-4.542469e-05
178	0xba70d888	-0.0009187539
179	0x3ba8e315	0.0051540234
180	0xbb0da7e2	-0.0021614959
181	0xbb896f4a	-0.004194175
182	0xbb73b90a	-0.003718915
183	0x38e6afc7	0.00010999996
184	0xba1dcdd5	-0.0006019746
185	0xba6db09d	-0.000906715
186	0xba1e54d4	-0.0006039862
187	0xba1b06b0	-0.0005913777
188	0xbb39e11b	-0.0028362933
189	0x3a4cc003	0.00078105944
190	0xbb3699e4	-0.0027862722
191	0xb997cfab	-0.0002895569
192	0xbbc096b6	-0.005877341
193	0xba2f64a9	-0.000669072
194	0xb78088fb	-1.5322576e-05
195	0xba174d83	-0.0005771743
196	0xba825d91	-0.0009946098
197	0xba13af99	-0.0005633771
198	0xbb7111ec	-0.0036784364
199	0xb9545209	-0.00020248456
200	0xb97274ab	-0.0002312238
201	0xbb873f87	-0.004127446
202	0x39c9dee5	0.00038503777
203	0x3aa43a3f	0.0012529566
204	0xba8cbd5b	-0.0010737585
205	0xbb8334f5	-0.0040041157
206	0xbae03129	-0.0017104495
207	0xbb2b276b	-0.0026116024
208	0x3b4516e5	0.003007346
209	0xbb0c3cd5	-0.0021398563
210	0xba28cbfe	-0.00064390886
211	0xbbee71a4	-0.0072767306
212	0xb8d2dd33	-0.00010054782
213	0xbb79f450	-0.0038140006
214	0xba8f2f5f	-0.0010924152
215	0x392b1d9c	0.00016318861
216	0x3a8e427e	0.0010853556
217	0xbba072ac	-0.0048964825
218	0xba81522b	-0.0009866407
219	0xbb27e61a	-0.002561933
220	0xbac36f18	-0.0014910428
221	0xba7e599b	-0.00097026833
222	0x3a688ece	0.0008871377
223	0xbb6060b2	-0.0034237322
224	0xbb741715	-0.0037245203
225	0xbabcd6fd	-0.0014407333
226	0xbbc7f2c9	-0.0061019403
227	0xba3b9f6b	-0.0007157239
228	0xbb3e3d0c	-0.0029028086
229	0xba891c79	-0.0010460756
230	0xbb26681c	-0.0025391644
231	0xbb67eefd	-0.003539025
232	0xbb7a44fc	-0.003818809
233	0xbab70e96	-0.0013966139
234	0xba885309	-0.0010400723
235	0xb921da82	-0.00015435557
236	0xbaedebbd	-0.001815192
237	0x3b369131	0.0027857537
238	0xb84ea29b	-4.9265665e-05
239	0xbbca3d1a	-0.0061718347
240	0x3ae1bfe3	0.0017223324
241	0x3a652cd1	0.0008742335
242	0x3ba222bf	0.0049479897
243	0xbaa8a516	-0.0012866582
244	0xba8ac079	-0.0010585926
245	0xbb9b2027	-0.0047340575
246	0x39da31fa	0.00041617436
247	0xb9831625	-0.00025002766
248	0xbaf42194	-0.001862573
249	0xbb3cd8a8	-0.002881566
250	0xbacfe9b6	-0.0015862498
251	0x39a0c8a8	0.0003066708
252	0x3ab72e5c	0.0013975608
253	0x3a6f33f6	0.0009124869
254	0xb9c31968	-0.00037212227
255	0x3996f4bf	0.0002879258

network_body.linear_encoder.seq_layers.4.weight f4 [256, 256]
0	0xbd98c57d	-0.07459543
1	0x3c5f550c	0.013631117
2	0xbd39f06f	-0.04539531
3	0xbd185318	-0.03718862
4	0x3da26a23	0.079304
5	0xbd8e8f1d	-0.069608904
6	0x3ced9941	0.029003741
7	0x3c9638c2	0.018337611
8	0xbd8cf6f0	-0.06883037
9	0x3e161e6c	0.14660043
10	0xbdd73f9d	-0.1051018
11	0x3c6e6a73	0.014551747
12	0xbc48e3d7	-0.0122613525
13	0x3cae73cf	0.021295456
14	0xbd0ffe71	-0.035154764
15	0x3dee1bc0	0.11626387
16	0xbd689452	-0.056782074
17	0x3d3e5afa	0.04647348
18	0xbc610409	-0.013733872
19	0xbc76ce77	-0.0150638735
20	0xbdef4c18	-0.116844356
21	0xbd8e6f91	-0.06954873
22	0xbcad747c	-0.021173708
23	0x3d0e84b3	0.03479452
24	0x3c34b52f	0.011029526
25	0xbdd71db7	-0.105037145
26	0xbd9a4505	-0.07532696
27	0xbd3e7aa3	-0.046503674
28	0x3d8f4f7b	0.069975816
29	0xbd8368c5	-0.064164676
30	0xb9a66850	-0.00031739706
31	0x3dbc989d	0.09208796
32	0x3dd22ee4	0.1026285
33	0x3e2f0ab7	0.17093931
34	0xbcc3ccd7	-0.023901386
35	0xba2b999d	-0.00065460225
36	0xbe25e4d5	-0.16200574
37	0x3c2164cb	0.009850691
38	0x3c9aa55e	0.018877681
39	0xbd0ae2a3	-0.033907544
40	0x3df54955	0.119768776
41	0x3d937f82	0.072020546
42	0x3d22f373	0.039782953
43	0x3d2dee9e	0.04246389
44	0xbde2c394	-0.1107246
45	0x3d16b0d2	0.036789723
46	0x3c332b8b	0.010935674
47	0x3d7a2ae0	0.061076045
48	0x3cd8a987	0.026448024
49	0x3c946aeb	0.018117389
50	0x3e15e00a	0.14636245
51	0x3c73367a	0.014844531
52	0x3c0cce26	0.0085940715
53	0x3cdd49fa	0.027012814
54	0xbbd46da1	-0.0064827953
55	0xbc95898b	-0.018254062
56	0xbc610f1a	-0.013736511
57	0x3cc3b1ae	0.023888435
58	0xbcdd0fa1	-0.026984992
59	0x3bec4282	0.007210077
60	0x3d3e63b0	0.04648179
61	0x3c8a84a9	0.01690896
62	0xbbf268f3	-0.007397765
63	0x3e1082a6	0.14112338
64	0x3d5a55f6	0.053304635
65	0xbd8822af	-0.0664724
66	0x3d414ca1	0.04719222
67	0x3de40cbc	0.111352414
68	0xbc2df022	-0.010616334
69	0xbd929e22	-0.07159068
70	0x3c840be6	0.016118955
71	0x3de19632	0.110149756
72	0x3d1be760	0.038062453
73	0xbd5e2dc4	-0.054242864
74	0xbd412fba	-0.047164656
75	0xbdb02b85	-0.08602051
76	0x3d5eba9c	0.054377183
77	0x3d56cf60	0.052443862
78	0x3d0ab6b6	0.033865653
79	0xbdc4149a	-0.09574242
80	0xbd228745	-0.039679784
81	0x3cdeabd7	0.027181549
82	0xbd9ba5fd	-0.07600019
83	0x3d6fe828	0.05857101
84	0xbe310f1e	-0.17290923
85	0x3d04f5f8	0.032461137
86	0x3c738b8c	0.014864814
87	0xbd255598	-0.04036483
88	0x3a6f1edd	0.00091217255
89	0xbcb2e6da	-0.021838594
90	0xbcff71be	-0.031182166
91	0xbd9c382a	-0.076279
92	0xbe0a8fbd	-0.13531394
93	0xbd90b516	-0.070657894
94	0xbcdd239f	-0.026994525
95	0xbd0b9c1e	-0.03408443
96	0x3d951f1e	0.07281326
97	0xbc70d159	-0.01469835
98	0x3ddc47c1	0.107558735
99	0xbe5410e0	-0.20709562
100	0x3dd4c844	0.1038976
101	0xbd457c46	-0.04821422
102	0xbd2826a5	-0.04105248
103	0xbbb773d4	-0.0055985246
104	0x3d0f392a	0.034966625
105	0xbd9e3888	-0.07725626
106	0x3d8bf7d8	0.06834382
107	0x3d9cd641	0.07658053
108	0xbd0682e6	-0.03283968
109	0xbdd68c46	-0.10475974
110	0xbe02c7b7	-0.12771498
111	0xbcbae5f7	-0.022814734
112	0xbc80eacd	-0.015736962
113	0x3d5b3c55	0.053524334
114	0x3d67957e	0.05653905
115	0x3d3f9028	0.046768337
116	0x3c3acc82	0.0114012975
117	0xbd4d7cdd	-0.050167907
118	0xbd5bd3e5	-0.053668875
119	0x3daa54f2	0.08316983
120	0x3dacff85	0.08447174
121	0x3d16ea1d	0.03684436
122	0xbcc6fcd5	-0.024290482
123	0xbda54d02	-0.08071329
124	0x3cc09189	0.023506897
125	0x3d97cca6	0.074120805
126	0xbc0e5620	-0.008687526
127	0xbd3ae3a8	-0.045627266
128	0x3de465c5	0.111522235
129	0xbd492e8a	-0.04911665
130	0xbd47afaa	-0.04875151
131	0x3dae0095	0.08496205
132	0x3ccb24bd	0.024797792
133	0x3d924c48	0.07143456
134	0xbc4b968e	-0.012426032
135	0x3dd8a85f	0.10578989
136	0x3d6c8258	0.057741493
137	0x3d1affd5	0.037841637
138	0xbbf07bbf	-0.0073389704
139	0x3c929852	0.017894898
140	0x3cbefdc3	0.023314362
141	0x3cf7c90b	0.030247232
142	0xbe46153b	-0.19344036
143	0xbd2004a8	-0.03906694
144	0x3d8b01eb	0.06787475
145	0x3dbafc8b	0.091302
146	0x3d531ad2	0.05153925
147	0x3e1a7060	0.1508193
148	0x3d6cf1f1	0.05784792
149	0x3d93024f	0.07178175
150	0x3c46fc26	0.012145078
151	0x3ba9dc03	0.005183698
152	0x3d8e258f	0.069407575
153	0xbd93a4ee	-0.07209192
154	0xbd34e90c	-0.044167563
155	0xbc0c1575	-0.008550038
156	0x3dc38bc7	0.09548145
157	0x3d3f0637	0.046636786
158	0x3d22ca62	0.03974379
159	0x3c79ab71	0.015238629
160	0x3c9b5450	0.018961102
161	0xbcce88ca	-0.02521171
162	0xbca9e333	-0.02073822
163	0xbc7c4d6b	-0.015399317
164	0xbd3b7d67	-0.04577389
165	0xbda133c8	-0.078712046
166	0xbd935da9	-0.07195599
167	0x3cf259b6	0.029583793
168	0xbd069a50	-0.032862008
169	0x3d0e2d49	0.034711156
170	0xbb5f2c15	-0.0034053375
171	0x3b5b82a6	0.003349462
172	0x3d90507f	0.070466034
173	0xbdb39abe	-0.08769749
174	0x3e02035e	0.12696597
175	0x3da3f7e3	0.08006265
176	0x3c8cd3e3	0.01719088
177	0xbc295578	-0.010335319
178	0x3cdb7027	0.026786877
179	0xbd4550c1	-0.048172716
180	0x3d1d6706	0.03842833
181	0x3b034aa7	0.002003351
182	0xbdadbadb	-0.084829055
183	0x3d6a979d	0.057273496
184	0xbd4f1130	-0.0505535
185	0x3bac93fb	0.005266664
186	0xbddcfe03	-0.107906364
187	0x3d83c1da	0.064334586
188	0x3dcd59da	0.100269035
189	0x3db8c60e	0.09022151
190	0x3d932c6d	0.07186208
191	0xbd8a97d6	-0.06767242
192	0x3d06e4b2	0.032932945
193	0x3d4d2250	0.05008155
194	0x3d9af9e7	0.07567196
195	0xbc7be4a2	-0.0153743345
196	0xbd81db9b	-0.063407145
197	0x3e0d8e48	0.13823807
198	0x3e1a9abd	0.1509809
199	0xbd8ce205	-0.06879047
200	0x3d7c4109	0.06158546
201	0x3da054ac	0.0782865
202	0x3da30ffe	0.07962035
203	0x3b982749	0.004643355
204	0x3d977d86	0.073969886
205	0xbdc06774	-0.09394732
206	0x3c692706	0.014230495
207	0xbd691fec	-0.05691521
208	0x3d70a524	0.05875124
209	0xbd4f3f6d	-0.050597597
210	0xbd367e5f	-0.04455411
211	0x3d52a3b0	0.051425636
212	0x3bbb1949	0.0057098013
213	0x3e2322f5	0.15931304
214	0xbc9e13d8	-0.019296572
215	0xbdd3e391	-0.10346139
216	0xbaf8787f	-0.0018956809
217	0x3dc9293f	0.0982232
218	0xbdc96f6b	-0.098357044
219	0x3cd4d69e	0.025981244
220	0x3ceeb73c	0.029140107
221	0xbe173d20	-0.14769411
222	0xbdc49f9d	-0.09600756
223	0xbd7b300d	-0.06132512
224	0x3cde5299	0.027138995
225	0x3cbf4986	0.023350488
226	0x3d0851f6	0.03328129
227	0x3d266804	0.04062654
228	0x3d8d874d	0.06910572
229	0xbc02e76e	-0.007989747
230	0x3bde0339	0.0067752865
231	0x3d2fa430	0.04288119
232	0x3d66f22f	0.056383308
233	0xbd3ad66d	-0.04561465
234	0x3d32a469	0.043613825
235	0x3bcd39e6	0.0062630055
236	0x3d4e8c6a	0.050426878
237	0x3c472e3c	0.012157019
238	0x3d83cff5	0.06436149
239	0x3d23a03b	0.03994773
240	0x3c123f12	0.00892617
241	0x3da7e91a	0.081987575
242	0x3ba1c2e8	0.0049365647
243	0xbd8ba5e3	-0.0681875
244	0x3d235647	0.039877202
245	0xbdb5b142	-0.088717
246	0x3cc7717e	0.02434611
247	0x3d483733	0.048880767
248	0xbd884134	-0.066530615
249	0xbd0aefed	-0.033920217
250	0xbc4086e2	-0.011750909
251	0x3d10d939	0.03536341
252	0x3c870811	0.016483339
253	0x3cabb605	0.020960817
254	0xbe0f4a10	-0.13993096
255	0x3c28fb92	0.010313885

network_body.linear_encoder.seq_layers.4.bias f4 [256]
0	0x355f3b79	8.316052e-07
1	0xbaf2137f	-0.0018468945
2	0x38003e0c	3.0575364e-05
3	0xba4f6ead	-0.00079129153
4	0x38cd387b	9.785682e-05
5	0xba04356b	-0.000504336
6	0xbb3b1745	-0.0028547805
7	0x3a87a551	0.0010348951
8	0xbb0dbb46	-0.0021626516
9	0x3b64b653	0.0034898713
10	0x3a89cdde	0.0010513624
11	0x3a43cb87	0.00074689876
12	0xba739e95	-0.0009293345
13	0xbb99aa57	-0.0046894955
14	0xba9d98d7	-0.0012023699
15	0xba15b1ef	-0.0005710413
16	0xb9d9d802	-0.00041550404
17	0x390d4708	0.00013473269
18	0xba92cd60	-0.0011200123
19	0xbbfb8d5b	-0.007676763
20	0x3b91169b	0.0044277436
21	0xbae80c4b	-0.0017703859
22	0x38c5af09	9.426295e-05
23	0xbb06ef34	-0.0020589354
24	0xba9ee4a4	-0.0012122584
25	0xb810ff1a	-3.4569857e-05
26	0x38b22aed	8.495697e-05
27	0x39339eae	0.00017129883
28	0xba18d193	-0.0005829569
29	0xba905693	-0.0011012129
30	0xbadc597c	-0.0016811336
31	0x3a04553f	0.0005048103
32	0xba38c4f4	-0.0007048391
33	0xba9666ce	-0.001147473
34	0xbb1434e9	-0.0022614545
35	0x39b92e6c	0.00035320537
36	0xb9551232	-0.00020320041
37	0x3b2a466d	0.0025981918
38	0xb9347f4c	-0.0001721356
39	0xba8a5bb5	-0.0010555895
40	0xba2a09c6	-0.00064864417
41	0x3948486b	0.00019100464
42	0xbb0bcd8d	-0.0021332235
43	0xbbc81618	-0.0061061494
44	0x382a2f9a	4.057549e-05
45	0x3aa8a825	0.0012867494
46	0xba6d2b39	-0.0009047273
47	0xb993dd6b	-0.00028202994
48	0xba11edbc	-0.0005566736
49	0x3a914819	0.0011084109
50	0x39d174cf	0.00039950616
51	0xbac66d74	-0.0015138821
52	0x3ada3b7b	0.0016649807
53	0x3b0ad655	0.002118488
54	0xbb2caef9	-0.002634941
55	0x3889579a	6.548986e-05
56	0xbab3016f	-0.0013657043
57	0xbb616559	-0.0034392683
58	0xb85d0c49	-5.2701947e-05
59	0xbb827f3f	-0.003982454
60	0xba33e41e	-0.00068623
61	0xbab83512	-0.0014053902
62	0xbab83bd5	-0.0014055917
63	0xba2adc1b	-0.00065177836
64	0xbb1d6e52	-0.0024022055
65	0xbba0f603	-0.0049121394
66	0xb93461e6	-0.00017202608
67	0xbbb51d77	-0.005527194
68	0xb9f61b1e	-0.0004694098
69	0xb9e288d6	-0.0004320803
70	0xba36bc15	-0.00069707754
71	0xba5b13ce	-0.0008357138
72	0x3925ace9	0.0001580004
73	0xba8b317f	-0.0010619609
74	0xbb54d640	-0.0032476336
75	0x3b247fb0	0.0025100522
76	0x3ac49f8b	0.0015001161
77	0x3b4f0d63	0.0031593672
78	0x3a9f7948	0.0012166882
79	0xba3b883e	-0.00071537856
80	0xba26acdf	-0.0006358157
81	0x3b9a11d2	0.0047018314
82	0xbae00a7b	-0.0017092967
83	0xba825431	-0.0009943304
84	0x3a8afeff	0.0010604559
85	0xbb82810d	-0.003982669
86	0xb860d919	-5.360795e-05
87	0x393f3633	0.0001823537
88	0x394eb522	0.00019713168
89	0xba90d93d	-0.001105107
90	0xb95f07c2	-0.00021269827
91	0xbab19059	-0.0013547047
92	0x3b6f7eaf	0.0036544015
93	0xbafb64e7	-0.0019179852
94	0x39f6dfa7	0.0004708741
95	0x3a683fd6	0.000885961
96	0x3b13e283	0.0022565431
97	0xb8e783bf	-0.00011039478
98	0x3a0b330f	0.00053100375
99	0xba47019b	-0.0007591487
100	0xba8de975	-0.0010827022
101	0xb9918599	-0.00027756093
102	0x39bc8a77	0.0003596132
103	0x39e4bdf5	0.00043629078
104	0xba71de0b	-0.00092265074
105	0xb9a83588	-0.0003208334
106	0xbb1093f3	-0.002206084
107	0x38f403ed	0.00011635558
108	0xbaac747a	-0.0013157271
109	0xb94e6d43	-0.00019686394
110	0xba120928	-0.00055708224
111	0xba98873a	-0.001163698
112	0xb9cf5ec6	-0.00039552728
113	0xbb91cb86	-0.0044493107
114	0xb9bf5ecb	-0.00036500985
115	0xba640a40	-0.0008699037
116	0xba3cc964	-0.00072016404
117	0xb9dc9472	-0.0004207227
118	0xbb654a0a	-0.0034986758
119	0xbaaaa0c8	-0.0013017887
120	0xbaea1ac6	-0.0017860762
121	0xb9100896	-0.00013736109
122	0x3a44ea26	0.00075116975
123	0xbb2e0b61	-0.0026557075
124	0xbbf6cc8e	-0.007531709
125	0xbbb43751	-0.0054997583
126	0x3b0b7e40	0.0021284968
127	0xb9c9f56b	-0.00038520558
128	0xbadd3693	-0.0016877226
129	0xbb7dbcc7	-0.0038717256
130	0xba41b2a8	-0.00073889876
131	0x3824190f	3.9123985e-05
132	0x3bf0be57	0.007346909
133	0xbbaa2291	-0.005192109
134	0xb9886d7f	-0.00026021522
135	0xbab919a2	-0.0014122019
136	0xbab23fc8	-0.001359933
137	0xba4c8aab	-0.00078026456
138	0xba92bd02	-0.0011195245
139	0xbab377d7	-0.0013692331
140	0xbaa2af44	-0.0012411852
141	0xba6164e4	-0.0008598103
142	0x39de04a2	0.0004234659
143	0xba1c6b32	-0.0005966901
144	0xba6903a5	-0.00088887877
145	0x3a0543b3	0.00050836353
146	0xbbc6b7d0	-0.0060643926
147	0xb96b32bb	-0.00022430245
148	0xba5c2289	-0.000839748
149	0xbb85ed86	-0.004087153
150	0xbaa8e24f	-0.0012884828
151	0xbb815be0	-0.00394772
152	0xbaa55983	-0.0012615178
153	0xbb4ebdd0	-0.0031546243
154	0xba64df76	-0.0008730808
155	0xbb92e963	-0.0044833883
156	0xbb2f4cbc	-0.0026748618
157	0xbbc38f35	-0.0059679993
158	0xb9850f9b	-0.00025379364
159	0x38b18a2b	8.4657535e-05
160	0x399ec30c	0.0003028143
161	0x3857ef48	5.1482843e-05
162	0x39db3003	0.00041806707
163	0x394935c1	0.00019188879
164	0xba8aec3d	-0.0010598969
165	0x39fee2b4	0.00048615562
166	0xbbb0b0be	-0.005392163
167	0xbb8c5907	-0.004283074
168	0x3a23b23f	0.0006244517
169	0xbb9abd95	-0.004722307
170	0xba1dbfdd	-0.00060176646
171	0xbb155a20	-0.0022789314
172	0x3b90cbc8	0.004418824
173	0x39d21a03	0.00040073702
174	0xba803c7e	-0.0009783653
175	0xbbc96342	-0.0061458657
176	0xb9afcac1	-0.00033529665
177	0xbbaa045b	-0.0051885075
178	0x39b66f83	0.00034796828
179	0xba9d3ae2	-0.0011995698
180	0x3a15e8d2	0.0005718592
181	0xbb151017	-0.0022745186
182	0x3bcda433	0.0062756776
183	0xba83ad16	-0.001004609
184	0xbbb1dc92	-0.0054279054
185	0xb95e4f72	-0.00021201166
186	0xba8dd3aa	-0.0010820527
187	0xbbaa9ff4	-0.005207056
188	0xba278be1	-0.0006391388
189	0x3b98d35f	0.0046638693
190	0x397356c6	0.00023206612
191	0x3a51b246	0.0007999282
192	0x3a282272	0.0006413824
193	0xbb522f42	-0.0032071625
194	0xbab99084	-0.0014157449
195	0x3a25c3f7	0.00063234515
196	0xb95556fe	-0.0002034567
197	0xba69cec8	-0.00089190574
198	0x3ac5ec9f	0.0015100426
199	0x3b90a5a8	0.004414279
200	0x3baddf4f	0.0053061615
201	0xb9a7a06e	-0.00031972252
202	0xbb37b40c	-0.00280309
203	0xb9c482d3	-0.00037481505
204	0x3a4bd8a7	0.0007776119
205	0xba0fcc5d	-0.00054854696
206	0xbab970f2	-0.001414804
207	0xbc0cf038	-0.0086021945
208	0xba538920	-0.00080694444
209	0xbb759633	-0.003747356
210	0x37bed680	2.274965e-05
211	0x3bea010d	0.0071412385
212	0x3b17b1b5	0.0023146693
213	0xbb9af939	-0.0047294167
214	0x3b9b4cc3	0.0047393753
215	0xb94707f9	-0.00018981089
216	0x3918ce80	0.00014572777
217	0x3a11af32	0.0005557417
218	0xbb0fa79c	-0.0021919971
219	0x399666c7	0.00028686805
220	0xba202f52	-0.0006110567
221	0xba87474f	-0.0010320934
222	0xbafd6be2	-0.001933452
223	0x3a23a43c	0.00062424294
224	0xb865b1ee	-5.4763565e-05
225	0x3a31ef38	0.00067876605
226	0xb9277e6d	-0.00015973458
227	0xba5154de	-0.00079853635
228	0x3b236bd0	0.0024936087
229	0xb919fdf8	-0.00014685828
230	0x39f17ba1	0.00046059213
231	0xb707c0ac	-8.091487e-06
232	0xbac52453	-0.0015040733
233	0xbad7690c	-0.0016434505
234	0xba0cec60	-0.0005375799
235	0xbb1ec85a	-0.0024228306
236	0xba55a880	-0.00081504136
237	0x3aed499b	0.0018103601
238	0xba7cfb04	-0.00096504414
239	0xba63063e	-0.0008660293
240	0xbb52cd05	-0.0032165658
241	0x3b318866	0.0027089356
242	0x3b123e99	0.0022315143
243	0x3a2117a3	0.0006145185
244	0xba511e26	-0.000797721
245	0xbab9675f	-0.0014145187
246	0x3afcd398	0.0019289134
247	0xb9f33934	-0.0004639119
248	0x3a19ba36	0.00058642344
249	0xbb02b41e	-0.0019943784
250	0xb9c68591	-0.00037865018
251	0xb81f30c3	-3.7953967e-05
252	0xbac46528	-0.001498376
253	0xba94bcea	-0.0011347805
254	0x3a78edfe	0.0009495913
255	0x38cec47f	9.859446e-05

action_model._continuous_distribution.mu.weight f4 [1, 256]
0	0x3b31df89	0.0027141294
1	0xbca0d94b	-0.019634863
2	0x3c31dbe8	0.010855652
3	0xbc1e9e78	-0.009681337
4	0x3c3894c2	0.011265935
5	0x3b9b4993	0.0047389953
6	0xba006104	-0.0004897269
7	0x3cc528ce	0.024067309
8	0x3a4d2852	0.00078261376
9	0x3a8b9336	0.0010648731
10	0x3b7d4764	0.0038647288
11	0x3c4f01f2	0.012634741
12	0x3a670b80	0.00088136643
13	0xbc4b5e7c	-0.012412664
14	0xbbc90682	-0.006134809
15	0xbc4d7f26	-0.012542522
16	0xbb8c9373	-0.0042900383
17	0x3bdee5f6	0.006802316
18	0x3a635b18	0.0008672937
19	0x382ff42e	4.195066e-05
20	0x3b1bbe37	0.00237645
21	0xbcc03f5d	-0.023467714
22	0x3bb4bb9b	0.0055155284
23	0xbc7b0391	-0.0153206745
24	0xbbb80e25	-0.0056169205
25	0x3cc8f999	0.02453308
26	0x3b901b94	0.004397819
27	0x3c38465d	0.011247245
28	0xbc2efac2	-0.0106799025
29	0xbc92a287	-0.017899765
30	0xba8ab4ad	-0.001058241
31	0x3c1cd2fc	0.009571787
32	0x3bd08ffd	0.006364821
33	0xbc7e311a	-0.015514636
34	0xb8a50882	-7.869398e-05
35	0x3b94a5a5	0.004536348
36	0xbc2b3120	-0.010448724
37	0x3c2d9167	0.010593749
38	0x3c0db7ae	0.00864975
39	0xba2cb12f	-0.0006587682
40	0xbc0fe8a6	-0.008783495
41	0x3caf050e	0.021364715
42	0xbb876c25	-0.004132765
43	0xbb2f7891	-0.0026774744
44	0x3c623d9c	0.013808634
45	0x3b14a8ed	0.0022683695
46	0xbc0e96a6	-0.00870291
47	0x3b16cc55	0.0023009975
48	0xbc0ae2b0	-0.008476898
49	0x3caeadd4	0.021323122
50	0x3c31f543	0.010861698
51	0xbb2f4f90	-0.0026750304
52	0x3cd1fe41	0.025633933
53	0x3c193a43	0.00935227
54	0xbc6c9cb4	-0.014441658
55	0x3a4b6cde	0.0007760058
56	0xbcbc9bc7	-0.0230235
57	0xbc512eb7	-0.012767485
58	0x3c02c10d	0.007980597
59	0xbcafe694	-0.021472253
60	0x3b4fcc1b	0.003170735
61	0xbb33ff90	-0.002746556
62	0xbc4565ac	-0.012048166
63	0x3b015844	0.0019736448
64	0x392769e0	0.00015965803
65	0xbbb955af	-0.0056559662
66	0x3b3e71d1	0.002905954
67	0xbc594d67	-0.013263083
68	0xbbe6b49b	-0.007040573
69	0x3c754957	0.014971099
70	0x3c33020d	0.010925782
71	0xbc65cee6	-0.014026379
72	0x3c486320	0.0122306645
73	0x3abe7374	0.0014530257
74	0xbc58bea9	-0.013229051
75	0x3c7736ec	0.015088778
76	0x3bef7e0c	0.007308727
77	0x3c3ebe49	0.011642047
78	0x3b7e03f1	0.0038759673
79	0xbcbcfd25	-0.023069927
80	0x3b502006	0.0031757369
81	0x3adae1b4	0.0016699345
82	0xbb928421	-0.0044713174
83	0xbadb1b82	-0.0016716572
84	0x3ca75fc3	0.020431405
85	0xbbf52978	-0.00748175
86	0x3ad9283b	0.0016567776
87	0x3b5c1d62	0.003358685
88	0x3c39f9c4	0.011351053
89	0x3b16f37d	0.0023033314
90	0x3c146042	0.009056153
91	0xbbc4792f	-0.0059958915
92	0x3cdc256c	0.026873313
93	0xbaec7107	-0.0018039056
94	0x3cc12233	0.023575878
95	0x3c65b3b3	0.014019894
96	0x3c560147	0.013061828
97	0xbbf45fbf	-0.007457703
98	0x3c1d383a	0.009595925
99	0xbc8e2886	-0.017353307
100	0x38cfd611	9.910402e-05
101	0xbccc6893	-0.024952209
102	0x3c0d1919	0.008611941
103	0x3c44df9c	0.012016203
104	0x3ada6fb6	0.0016665373
105	0x3c56e819	0.01311686
106	0xbcc3667e	-0.023852583
107	0x3c8e7b81	0.017392876
108	0x3969790a	0.00022265702
109	0x3c8e27c5	0.017352948
110	0xbc606f12	-0.013698356
111	0xbb1ceea2	-0.0023945947
112	0x3b058a6f	0.0020376702
113	0xbc001c15	-0.007819195
114	0xbc695c33	-0.014243173
115	0x3acfbcbf	0.0015849097
116	0xbc8d8919	-0.017277287
117	0x3bc5d6ff	0.0060375924
118	0xbc197d9a	-0.009368325
119	0x3c85b7b1	0.016322942
120	0xbccb71de	-0.02483457
121	0x3cb7c6a8	0.022433594
122	0x3c86ba41	0.016446235
123	0xbc19a1a8	-0.009376921
124	0xba8e47b8	-0.0010855114
125	0xbcd09283	-0.025460487
126	0x3ac3209d	0.0014887039
127	0x3b3c3aaf	0.0028721502
128	0xbab7386a	-0.0013978605
129	0xbb851764	-0.0040616263
130	0xbcdb47b8	-0.026767597
131	0x3c3e7bdc	0.01162621
132	0x3cda687a	0.026661146
133	0xbb962fb4	-0.0045833234
134	0x3c2e72d6	0.010647496
135	0xbb0ad32c	-0.0021182997
136	0xbb4e7c56	-0.0031507215
137	0xbbbf9657	-0.0058467793
138	0x3c8bd3de	0.0170688
139	0xbc6154de	-0.013753144
140	0x38ac9fc6	8.231359e-05
141	0xbcc317a2	-0.02381498
142	0x3c4a3ac3	0.012343111
143	0xbc9397b7	-0.01801668
144	0xbc02e40e	-0.007988943
145	0x3c928aea	0.017888505
146	0xbbd3c9cf	-0.0064632664
147	0x3bc9e650	0.0061614886
148	0x3c156be1	0.009119959
149	0xbcc8e3d7	-0.024522705
150	0xbad23589	-0.0016037683
151	0xbcd636ea	-0.026149232
152	0x3ad17015	0.0015978838
153	0xbbb3ba40	-0.005484849
154	0xbba70602	-0.0050971517
155	0xbc4d7546	-0.012540167
156	0xbc36379c	-0.011121657
157	0xbc4139ee	-0.011793597
158	0x3c42052b	0.011842052
159	0x3bd607dd	0.006531699
160	0x3c3081d4	0.010773141
161	0x3bb868bb	0.005627719
162	0x3c6b0fc2	0.014347019
163	0x3c98122a	0.018563349
164	0xbb165bfc	-0.002294301
165	0x3b89306c	0.0041866805
166	0xbc524767	-0.012834406
167	0xbc7c9ea5	-0.015418683
168	0x3b30985a	0.0026946277
169	0xbb1b07c2	-0.0023655747
170	0xbc10fc8e	-0.008849276
171	0xbabaec8c	-0.001426117
172	0x3b3f4f12	0.0029191417
173	0x3a1feb83	0.00061004626
174	0xbc253739	-0.010083967
175	0xbbb0ea55	-0.0053990283
176	0x3bcb0a76	0.0061963154
177	0xb9b65309	-0.0003477561
178	0x3c3e81d9	0.011627638
179	0x3c307e1d	0.010772255
180	0x3c69b421	0.0142641375
181	0xbcfc5169	-0.030800538
182	0x3c83c079	0.016082989
183	0xbb5fd70b	-0.0034155275
184	0xbcb79dc7	-0.022414101
185	0x3a3eaa9b	0.0007273347
186	0xbc24a92d	-0.0100501
187	0xbcb26fa2	-0.021781746
188	0xbc24365f	-0.010022729
189	0x3c514367	0.012772418
190	0x3c5c31ca	0.013439605
191	0x3c2e7191	0.0106471935
192	0x3c70c660	0.014695734
193	0xba1dee57	-0.000602459
194	0xbca77a51	-0.020444067
195	0x3c285bdf	0.01027581
196	0x3b391a7f	0.0028244553
197	0xbb9d263e	-0.0047958186
198	0x3c0936f6	0.00837492
199	0x3ba5ada3	0.0050560995
200	0x3b434abe	0.0029799188
201	0x3c4ef380	0.012631297
202	0xbbbc71a4	-0.0057508517
203	0x3c0649c3	0.008196297
204	0x3c8f60e8	0.017502263
205	0x3bee1ff1	0.0072669913
206	0x3a0c4849	0.00053513475
207	0xba2e401c	-0.0006647126
208	0xbc687a36	-0.014189294
209	0xbd186f32	-0.03721542
210	0x3b47f9ff	0.0030514
211	0x3c6d399c	0.014479067
212	0x3b126473	0.0022337704
213	0xbc288c7f	-0.010287403
214	0x3cd87dc3	0.026427155
215	0x3c0980d2	0.00839253
216	0x3baf9f9c	0.005359603
217	0x3c967d3d	0.018370265
218	0x3a232897	0.0006224005
219	0x3c0e3335	0.008679201
220	0xbbaf105c	-0.0053425264
221	0xbb41ced3	-0.002957274
222	0xbaaea036	-0.0013322893
223	0xbc9680c5	-0.018371949
224	0x3c9983d5	0.01873962
225	0xbb0483c2	-0.0020220135
226	0x3b6e59e6	0.0036369502
227	0xbc595b48	-0.013266392
228	0x3bb3158e	0.005465216
229	0x3c0d4745	0.008622949
230	0x3c40014d	0.01171906
231	0x3c5a24fb	0.013314481
232	0xbc008648	-0.007844515
233	0xbc6adf01	-0.014335395
234	0xbcec5ca0	-0.02885276
235	0x3a20eaf9	0.0006138529
236	0xbb971ada	-0.0046113553
237	0x3bd20bf6	0.0064101173
238	0xbb1e7901	-0.002418101
239	0x3b5b1d1c	0.0033434099
240	0xbc4dc121	-0.012558253
241	0x3c2f740d	0.010708821
242	0x3c024d9e	0.007953076
243	0x3bc20b08	0.005921725
244	0x3b22fbba	0.002486928
245	0xbc106120	-0.008812219
246	0x3c8745ae	0.016512718
247	0x3b4e6907	0.0031495707
248	0x3bf95c71	0.007609897
249	0xbc66a769	-0.014078
250	0x3bdda0d9	0.0067635593
251	0x3c95a30b	0.018266222
252	0xbaa50b5a	-0.0012591884
253	0xba27fd1a	-0.00064082595
254	0x3c9fb8fb	0.019497385
255	0x3b6ad052	0.0035829735
