results/ZBHCC/ZBHCC-999520.onnx (onnx, 553552 bytes, 7 tensors)

network_body.linear_encoder.seq_layers.0.weight f4 [256, 22]
0	0x3f0b624b	0.5444686
1	0xbe1c5d62	-0.15269998
2	0xbdd76c13	-0.105186604
3	0x3cdd4e1a	0.02701478
4	0x3cb105f9	0.021609293
5	0xbdb0324b	-0.086033426
6	0x3e3e7cf5	0.18602355
7	0x3e310d1d	0.17290159
8	0xbe191c2d	-0.14952154
9	0x3ceeff09	0.029174345
10	0x3e657b78	0.22410381
11	0x3ca2ac2a	0.019857485
12	0xbd9f08c7	-0.07765346
13	0xbc9d75da	-0.019221235
14	0x3ee23f61	0.4418898
15	0xbebf84dc	-0.3740605
16	0xbd667d7f	-0.056272026
17	0x3d847d47	0.06469207
18	0xbe653e86	-0.22387132
19	0x3e27c161	0.16382362
20	0x3e3b271d	0.1827664
21	0x3c99399d	0.01870423
22	0xbea34705	-0.3189012
23	0x3e7703c2	0.24122527
24	0x3e90d5e1	0.28288177
25	0xbe89b63b	-0.26896843
26	0x3e4f6c03	0.20256047
27	0xbe0f2a8e	-0.13981077
28	0x3e4ca0af	0.19983171
29	0xbe0a20c5	-0.13489063
30	0xbe0db3a1	-0.13838054
31	0x3ee310ce	0.44348758
32	0x3e9924ce	0.29910892
33	0xbd889ba1	-0.06670309
34	0xbd483b26	-0.048884533
35	0x3ee03bcc	0.4379562
36	0xbc4151dc	-0.011799302
37	0xbe187664	-0.14888912
38	0xbded3c6a	-0.11583789
39	0xbd06b771	-0.032889787
40	0xbd808eb7	-0.06277221
41	0x3e86ca7e	0.26326364
42	0x3e69eecf	0.22845004
43	0x3d85a82e	0.06526218
44	0x3eb1b1e5	0.34706035
45	0xbd4e42db	-0.050356727
46	0x3e2c18d3	0.16806345
47	0xbc8cee60	-0.01720351
48	0xbdab575e	-0.08366273
49	0x3e8a579d	0.2701997
50	0x3e675d25	0.22594126
51	0xbdda9b94	-0.106742054
52	0xbe7bc0ab	-0.24585216
53	0x3eab41de	0.3344869
54	0x3e17a67d	0.14809604
55	0x3e03f968	0.1288811
56	0x3e8b3c9f	0.27194688
57	0xbe0fedbf	-0.14055537
58	0x3e72b0ff	0.23700331
59	0xbe66b102	-0.2252846
60	0x3e8a9fdf	0.27075097
61	0x3eabc5a2	0.3354922
62	0x3cef6d77	0.029227002
63	0x3e6831d6	0.22675261
64	0xbe70bba4	-0.23509079
65	0xbe3e5f10	-0.18590951
66	0xbf47de15	-0.78073245
67	0x3e32dbd3	0.17466669
68	0x3cdb356c	0.026758872
69	0xbe27ea3c	-0.16397947
70	0x3d077f45	0.033080358
71	0xbe3fba39	-0.18723382
72	0xbdd663c0	-0.104682446
73	0x3e53b001	0.20672609
74	0xbedb1472	-0.42789036
75	0x3cb595aa	0.022166092
76	0x3e3c60f2	0.18396357
77	0x3e269d63	0.16270976
78	0xbe87021c	-0.26368797
79	0xbe32c000	-0.17456055
80	0x3ec5089d	0.38483134
81	0xbe258cc0	-0.16166973
82	0x3d35652d	0.044285942
83	0x3ebaa5a0	0.36454487
84	0xbe80c2b3	-0.25148544
85	0x3e131687	0.14364062
86	0x3e3945eb	0.18093078
87	0xbe88923d	-0.2667407
88	0x3e795ee0	0.24352598
89	0xbed8b0b1	-0.42322305
90	0x3ee20bbb	0.44149575
91	0xbe7513a4	-0.23933274
92	0xbcb69a1f	-0.022290288
93	0xbe5ef56e	-0.21773311
94	0xbd8dd7dd	-0.06925938
95	0xbe40ba72	-0.18821123
96	0x3d43ded8	0.047819942
97	0x3ebad253	0.3648859
98	0xbebd0b13	-0.3692251
99	0xbec72309	-0.38893917
100	0x3e0ac672	0.13552263
101	0x3e17004b	0.14746206
102	0x3e212327	0.15736066
103	0x3d8e76ea	0.06956275
104	0x3e429fd5	0.19006284
105	0xbea9c42a	-0.33157474
106	0xbbe6a590	-0.0070387796
107	0xbec72a87	-0.38899633
108	0x3dda2f36	0.10653536
109	0xbcf27c63	-0.029600328
110	0x3d8283fa	0.06372829
111	0x3d2b1ec0	0.041777372
112	0xbda759d3	-0.081714295
113	0x3e426aa6	0.18985996
114	0xbcf2d436	-0.029642206
115	0x3ec1bd05	0.37839523
116	0x3e1a666c	0.15078133
117	0xbd37205b	-0.04470859
118	0xbd974bd6	-0.073875114
119	0xbe37aa8c	-0.17936152
120	0xbd9442fa	-0.07239337
121	0xbe0f7372	-0.14008883
122	0x3eb60480	0.35550308
123	0x3ea8fba3	0.33004484
124	0x3ecae2c2	0.39626127
125	0xbcc6fc2d	-0.024290169
126	0x3e98808a	0.29785568
127	0xbd65870f	-0.056037005
128	0x3e2cf715	0.1689113
129	0x3dfd2f2b	0.12362512
130	0x3db15f6d	0.08660779
131	0x3e99784a	0.29974586
132	0x3ec52f96	0.38512868
133	0xbdc6f33a	-0.097143605
134	0x3e15c3c1	0.14625455
135	0xbef1bc41	-0.4721394
136	0xbe868161	-0.26270583
137	0x3ea5ab80	0.32357407
138	0x3e4fa76a	0.20278707
139	0xbe342d58	-0.17595422
140	0xbe92c262	-0.28663927
141	0x3db63b6a	0.08898051
142	0x3e783e72	0.24242571
143	0x3e4c0885	0.19925125
144	0x3cb13b7e	0.021634813
145	0x3e665a1a	0.22495309
146	0xbf0954e3	-0.5364515
147	0xbd94d927	-0.07267981
148	0x3e9a0cf1	0.30087999
149	0x3e051a0f	0.12998222
150	0x3cca3fc9	0.024688618
151	0x3ebd2d14	0.36948454
152	0xbde9caff	-0.114156716
153	0xbdb2a16a	-0.087221935
154	0x3d48083c	0.048835978
155	0xbe060ca7	-0.13090764
156	0x3ed14ba0	0.4087801
157	0xbd50c46b	-0.05096857
158	0x3edabd5d	0.42722598
159	0xbe85d7ec	-0.26141298
160	0xbd8b4ad7	-0.06801384
161	0xbdbae600	-0.091259
162	0xbe0e456d	-0.13893671
163	0x3e817e7c	0.25291812
164	0xbd8b2693	-0.06794467
165	0x3f0ce1d0	0.5503206
166	0x3dac7a94	0.084218174
167	0x3e8d1fe2	0.27563387
168	0xbcd08980	-0.02545619
169	0x3e8eab80	0.2786522
170	0x3e88813d	0.266611
171	0x3ec44f10	0.3834157
172	0x3d899e11	0.06719602
173	0xbdf0aa75	-0.11751262
174	0xbe30ccab	-0.17265575
175	0xbe473285	-0.19452865
176	0xbe005ffe	-0.12536618
177	0x3ed25d0f	0.41086623
178	0xbe809326	-0.25112265
179	0xbe83b2a5	-0.25722232
180	0x3d977ee7	0.073972516
181	0xbdad0e65	-0.08450011
182	0xbebb9e5d	-0.3664426
183	0x3e4e1799	0.2012619
184	0xbe5ce061	-0.21569969
185	0xbe908cfd	-0.28232566
186	0xbdda6976	-0.10664646
187	0xbd1bf676	-0.03807684
188	0xbe10019e	-0.14063117
189	0x3d0c0942	0.034188516
190	0xbe1da016	-0.15393099
191	0xbd2560ca	-0.04037551
192	0xbf0abe99	-0.5419708
193	0x3e1bca7f	0.15213965
194	0x3de0b795	0.109725155
195	0xbe041365	-0.12898023
196	0x3dba703e	0.0910344
197	0x3ef024fd	0.4690322
198	0x3dc7ff17	0.097654514
199	0xbd220aad	-0.039560962
200	0xbd4aa9b6	-0.049478255
201	0x3ec0ae8b	0.37633166
202	0xbdb75a3d	-0.089527585
203	0xbe83cd94	-0.2574278
204	0x3e5046c7	0.203395
205	0xbda32a64	-0.0796707
206	0x3d8d0d58	0.06887311
207	0x3e171638	0.1475457
208	0xbc142838	-0.009042792
209	0x3db80009	0.08984382
210	0xbe3689c8	-0.17825997
211	0x3dcf69aa	0.10127576
212	0xbd5659a7	-0.052331593
213	0xbe14a1c8	-0.1451484
214	0xbe286ad3	-0.16447
215	0x3e34dd32	0.17662504
216	0x3d287a03	0.041131984
217	0xbe6be867	-0.23037873
218	0x3e57a209	0.21057905
219	0x3d3ba3b9	0.045810435
220	0xbe7985f7	-0.2436751
221	0x3e14391e	0.14474913
222	0x3d266d7e	0.040631764
223	0xbd59918b	-0.053117316
224	0x3e30e726	0.17275676
225	0xbe69adca	-0.22820202
226	0xbd628bfd	-0.055309284
227	0xbd04a9c9	-0.032388482
228	0x3f23ed13	0.6403362
229	0x3dfcc01a	0.12341328
230	0x3e081595	0.13289483
231	0x3e013efc	0.12621683
232	0x3e281b59	0.16416682
233	0xbe8049d5	-0.2505633
234	0x3da83f37	0.08215182
235	0xbc5c470f	-0.013444676
236	0x3d82bf18	0.063841045
237	0xbdd4da1f	-0.10393166
238	0xbdc4a4d6	-0.096017525
239	0x3e8ec551	0.27884915
240	0x3e5ae326	0.21375713
241	0x3ed28925	0.41120258
242	0xbe1836dc	-0.14864677
243	0xbbab225e	-0.0052226027
244	0xbda8d990	-0.08244622
245	0xbdf0dac9	-0.1176048
246	0x3d4f3e3f	0.050596472
247	0x3e350bf7	0.17680345
248	0x3df633a4	0.120215684
249	0xbdaf93ba	-0.085730985
250	0xbd515eda	-0.051115848
251	0xbe69acc6	-0.22819814
252	0xbcd5894b	-0.026066443
253	0x3d922e70	0.071377635
254	0x3d31f28c	0.0434442
255	0x3e5e5533	0.21712188

network_body.linear_encoder.seq_layers.0.bias f4 [256]
0	0x37daf974	2.6103786e-05
1	0xb9dd7e2f	-0.0004224642
2	0xba9056ae	-0.0011012161
3	0x38b55e97	8.648371e-05
4	0xbb553dc1	-0.003253803
5	0x3b35e541	0.0027755054
6	0x3a58df95	0.00082730624
7	0xba983158	-0.0011611385
8	0xba9490c8	-0.0011334652
9	0xbb0c7a48	-0.002143519
10	0xbb9140da	-0.0044327797
11	0x39bcb03b	0.00035989456
12	0xbab1da5a	-0.0013569102
13	0xb8b692a6	-8.705752e-05
14	0xbabb4749	-0.0014288212
15	0xba81b8d1	-0.0009896999
16	0xb8bebe0d	-9.095306e-05
17	0x37ab34a4	2.0409301e-05
18	0xba664f97	-0.00087856635
19	0x39bfce9a	0.0003658429
20	0xbaa75836	-0.0012767378
21	0xbb053867	-0.0020327808
22	0xb9ec4846	-0.00045067276
23	0xba7940c7	-0.0009508249
24	0x3b7186f0	0.003685411
25	0x3b274523	0.0025523386
26	0xb830a805	-4.211815e-05
27	0xb936f169	-0.00017446805
28	0x3a6b15cf	0.00089677883
29	0xba02edf1	-0.00049945625
30	0x38090d7b	3.26759e-05
31	0x39ae0b4e	0.0003319629
32	0xbb878ce4	-0.0041366685
33	0xbb51c75b	-0.0032009694
34	0xbb8520db	-0.0040627546
35	0x3b7ca22d	0.0038548813
36	0xbaa113a1	-0.0012289175
37	0xbbb5a4ad	-0.0055433125
38	0xbafdf11f	-0.0019374228
39	0xb950ed5c	-0.00019924849
40	0xba85703a	-0.0010180541
41	0xb69996c6	-4.5773077e-06
42	0xb75a4993	-1.3010943e-05
43	0xb9947426	-0.00028315297
44	0x3ae35a1e	0.0017345583
45	0xba356b07	-0.00069205504
46	0x3b1b5234	0.002370012
47	0x3907053c	0.00012876553
48	0xb98c6750	-0.00026779855
49	0xbb7af97a	-0.0038295672
50	0xbaa843aa	-0.0012837548
51	0xb99b606a	-0.00029635738
52	0xba5a94a7	-0.0008338191
53	0x3b04906e	0.0020227688
54	0xba69587f	-0.00089014316
55	0xbb794a60	-0.0038038716
56	0xb9b60296	-0.00034715672
57	0x3aecdb61	0.0018070751
58	0xba2857bf	-0.00064217666
59	0xba1906cb	-0.0005837499
60	0xbb615b0a	-0.003438654
61	0x3aef5828	0.0018260526
62	0x3bce375e	0.0062932214
63	0xb9a7d8cc	-0.00032014248
64	0x3b8c9043	0.0042896583
65	0xba259b1f	-0.00063173653
66	0xbac40b71	-0.0014957023
67	0xb9579297	-0.00020558607
68	0x3ae0134b	0.0017095594
69	0x39db4d8a	0.00041828706
70	0xbb5dfb2f	-0.003387164
71	0xb9928feb	-0.00027954517
72	0x393fabd0	0.00018279185
73	0x3b475248	0.0030414034
74	0xb8c20b12	-9.252703e-05
75	0xbba3ef44	-0.005002888
76	0x3b69f449	0.0035698584
77	0xba8ab95d	-0.0010583807
78	0xb99273bc	-0.0002793352
79	0xbb7cdf77	-0.0038585344
80	0x3a79f252	0.0009534705
81	0x3a4c28eb	0.00077880797
82	0x3990f573	0.00027648694
83	0xbb702f2e	-0.0036649215
84	0x393cfdb8	0.00018023595
85	0xb9b3a79f	-0.00034266428
86	0x3a90347b	0.0011001969
87	0xba591ff7	-0.0008282656
88	0xb8d81672	-0.000103038634
89	0x3a377290	0.0006997967
90	0x3acc4683	0.0015584979
91	0x3b15eef0	0.0022878014
92	0xbac4bd3d	-0.0015010011
93	0xbae0553a	-0.0017115243
94	0x3b2ea311	0.0026647488
95	0xb97a2fe4	-0.00023859699
96	0xbba16db4	-0.0049264077
97	0x3ba45eba	0.005016175
98	0x397e579c	0.00024255965
99	0xbab2218f	-0.0013590324
100	0xbb310fb6	-0.002701742
101	0xb7fbf823	-3.003708e-05
102	0x3a0d14f6	0.00053818466
103	0xb9e2c0cb	-0.0004324972
104	0xbafbe0ba	-0.0019216754
105	0xb9bec1b0	-0.00036383932
106	0xb7cf3c51	-2.470441e-05
107	0xbae7fdea	-0.0017699574
108	0x38f21b48	0.00011544541
109	0xba311dc5	-0.000675645
110	0xba74be76	-0.0009336242
111	0xbb176b0f	-0.0023104583
112	0xba28056d	-0.00064095
113	0xba2b0f6f	-0.0006525432
114	0xbb7d2f24	-0.0038632834
115	0xba5ecd12	-0.0008499186
116	0xbac80fcd	-0.0015263498
117	0x39b193dc	0.00033870235
118	0xbad891a7	-0.00165229
119	0xbafae1b6	-0.0019140753
120	0xbaba798b	-0.0014226896
121	0xbab9cc6b	-0.0014175301
122	0xbadd2083	-0.0016870651
123	0x3909335c	0.00013084471
124	0x3a938c99	0.0011257111
125	0xbb3703a1	-0.0027925747
126	0xb9471fa4	-0.00018989906
127	0xbaa666b5	-0.0012695404
128	0xbbc292bd	-0.0059379027
129	0x3703d47b	7.85768e-06
130	0xb9eec68e	-0.00045542832
131	0xba8965cd	-0.001048261
132	0x3a031909	0.0005000984
133	0x3b03d5ef	0.0020116528
134	0xbb14a3f0	-0.0022680722
135	0x3a039379	0.00050192286
136	0x3b951b83	0.004550399
137	0x39151e68	0.00014221075
138	0xb72f7560	-1.0458141e-05
139	0xba7f1662	-0.00097308133
140	0x39f484b0	0.00046638167
141	0x39792cf1	0.00023763232
142	0xba5f6c4d	-0.0008522913
143	0xb9e19546	-0.00043026562
144	0xbafdf460	-0.0019375198
145	0xba06f1b6	-0.0005147712
146	0x39b9187e	0.00035304198
147	0xbb69b3f4	-0.003566024
148	0xbb146ec4	-0.002264903
149	0xbac9a1a9	-0.0015383261
150	0x39ee5e24	0.00045465038
151	0xb9f67283	-0.00047006094
152	0xbb5079a2	-0.003181078
153	0xba046545	-0.0005050491
154	0x3a180db4	0.0005800382
155	0xbb884922	-0.0041591087
156	0xbb807109	-0.003919725
157	0xba068ddf	-0.0005132835
158	0xbb9f2396	-0.004856537
159	0xbb0474e9	-0.0020211285
160	0xba674a06	-0.0008822981
161	0x3ad684e3	0.0016366508
162	0xb9eda136	-0.00045324274
163	0xbb5b005a	-0.0033416958
164	0x39360fdf	0.00017362785
165	0xbb11ef21	-0.0022267776
166	0xbb57b6b9	-0.0032915308
167	0xbb09a750	-0.0021004267
168	0xbaf4987d	-0.0018661168
169	0xba96abf6	-0.001149534
170	0x3a96d1a3	0.0011506568
171	0xb9db3246	-0.00041808392
172	0x3ac89165	0.001530212
173	0xbb409388	-0.002938481
174	0xb8e0fcc3	-0.00010728233
175	0xba2c8daa	-0.0006582389
176	0xba447df9	-0.0007495578
177	0x3ab52200	0.0013819337
178	0xb907765c	-0.00012918696
179	0xba4edc6b	-0.0007891121
180	0xbb795807	-0.0038046853
181	0xbaad8f31	-0.0013241527
182	0x3a4b2965	0.0007750004
183	0xbbb39124	-0.0054799486
184	0xba26f6e7	-0.0006369189
185	0xbaa561ef	-0.0012617687
186	0xbbbdb8e9	-0.0057898653
187	0x398bbaf0	0.00026651425
188	0xb9769570	-0.00023516058
189	0x3a13f14a	0.000564356
190	0xbaf14db6	-0.001841
191	0xbb314bbb	-0.0027053196
192	0xb9a82379	-0.00032069886
193	0xba4c402f	-0.00077915465
194	0xbb13ab77	-0.002253262
195	0xbb10a1e5	-0.0022069153
196	0xb9a4b617	-0.00031416185
197	0x3ba54bcf	0.0050444375
198	0x39c03376	0.00036659435
199	0xba7718d1	-0.0009426
200	0xbb164c7d	-0.0022933774
201	0x394a9bae	0.00019322216
202	0xbaf54887	-0.0018713631
203	0x3a9e1c7d	0.0012062934
204	0xbb270608	-0.0025485773
205	0x3b871431	0.00412228
206	0xbb82a0ab	-0.0039864383
207	0xb98445b4	-0.00025228935
208	0xbb51a537	-0.0031989345
209	0xbae4a084	-0.0017442857
210	0x3b089bcf	0.0020844822
211	0xb9ed5ffb	-0.00045275674
212	0x3b12fc35	0.002242816
213	0xb9adb2c9	-0.00033130337
214	0x3a977814	0.0011556172
215	0xba37a463	-0.00070053915
216	0xbaf1a2ad	-0.0018435322
217	0xbb6d5e12	-0.00362194
218	0xba6c33ed	-0.0009010423
219	0xb93ec309	-0.00018192468
220	0xbb5d9d14	-0.003381555
221	0x3a9e0778	0.0012056669
222	0x3857aaaa	5.1418938e-05
223	0xbbb360b4	-0.0054741744
224	0xbb1b0c05	-0.0023658287
225	0xba7ca1a6	-0.00096371246
226	0xbb38aa30	-0.0028177612
227	0xb64e957f	-3.078341e-06
228	0xb9d6bea3	-0.00040959296
229	0x3a8c8c5a	0.001072298
230	0xb7b4def0	-2.1561485e-05
231	0xbb02263b	-0.0019859213
232	0xba1ee00f	-0.0006060609
233	0xb9e5d349	-0.00043835703
234	0xb9d2b022	-0.0004018555
235	0xb8f03fff	-0.00011456012
236	0x3b39412e	0.002826761
237	0xbaeb557a	-0.0017954551
238	0xbb0bdba7	-0.002134064
239	0xbb8befe6	-0.0042705415
240	0xba42b4b1	-0.0007427438
241	0x38acddff	8.242949e-05
242	0xbacb9fa0	-0.0015535243
243	0xba2f8204	-0.0006695094
244	0xbafc4c71	-0.0019248856
245	0x39a9480a	0.00032287865
246	0x3ab6bcc1	0.0013941751
247	0xba1f1963	-0.00060691516
248	0xbb9f91db	-0.0048696822
249	0xb9fb032e	-0.0004787682
250	0x3a19264f	0.0005842195
251	0xbb0af39b	-0.002120233
252	0x3b5980a7	0.0033188255
253	0xba83cea9	-0.0010056096
254	0xbbd02dd6	-0.0063531203
255	0xb8aeb2ca	-8.3302686e-05

network_body.linear_encoder.seq_layers.2.weight f4 [256, 256]
0	0x3c570a5a	0.013125027
1	0x3d08405d	0.033264507
2	0x3ccf1485	0.02527834
3	0x3db56078	0.088562906
4	0xbd5851c8	-0.052812368
5	0x3d58f188	0.052964717
6	0xbc9481f7	-0.018128378
7	0xbd91265b	-0.07087394
8	0xbdcf25e7	-0.10114651
9	0x3c8d9565	0.01728315
10	0xbdb83c34	-0.08995858
11	0xbd670d35	-0.05640908
12	0x3cebf8ab	0.028805098
13	0x3da8895f	0.082293265
14	0x3c1710d5	0.009220322
15	0x3d29ba97	0.04143771
16	0x3d2a5450	0.041584313
17	0xbe02d28e	-0.12775633
18	0x3cfa5c41	0.030561568
19	0xbe1d0a88	-0.15336049
20	0x3c4c6c6d	0.012477023
21	0xbd0a1197	-0.03370818
22	0x3cba1622	0.022715632
23	0x3d8f2f57	0.06991451
24	0x3e296759	0.1654333
25	0xbda5280d	-0.0806428
26	0x3c157c11	0.009123818
27	0xbdf9a5eb	-0.121898495
28	0x3d09befb	0.0336294
29	0x3d30bd52	0.0431493
30	0x3ca0839e	0.01959401
31	0xbddb78d5	-0.10716406
32	0x3da87f97	0.08227461
33	0xbc2f82b0	-0.010712311
34	0x3e249940	0.16074085
35	0x3d25b5f6	0.040456735
36	0xbc95c1ed	-0.018280948
37	0xbd69969f	-0.05702841
38	0x3d3cd556	0.04610189
39	0x3daa9f9b	0.083312236
40	0xbc0d4f0d	-0.008624804
41	0xbd3fed4d	-0.046857167
42	0xbda80adc	-0.08205196
43	0xbdf59573	-0.11991396
44	0xbd986ac9	-0.07442243
45	0x3c81cd9e	0.015845116
46	0x3cc3302f	0.023826687
47	0x3d95e65a	0.07319327
48	0x3a789290	0.0009482289
49	0x3d882443	0.066475414
50	0x3d629a1f	0.055322763
51	0xbc7b0d8e	-0.015323056
52	0x3d706ece	0.05869942
53	0x3db2e33b	0.08734747
54	0xbc5841ac	-0.013199251
55	0x3c43b331	0.011944578
56	0x3daa4e26	0.08315687
57	0x3c1a247a	0.009408111
58	0x3ccfe1b4	0.025376178
59	0x3dac31ae	0.08407913
60	0xbc09f468	-0.008420087
61	0xbd181796	-0.03713187
62	0x3db99b28	0.09062797
63	0xbe039020	-0.12847948
64	0x3d0dbe06	0.03460505
65	0x3d20d882	0.039268978
66	0x3dada2cd	0.084783174
67	0x3e1b8542	0.15187553
68	0x3dbc518a	0.0919524
69	0x3c5cbf67	0.013473368
70	0xbb3a89c2	-0.0028463458
71	0xbd3fc8c6	-0.04682233
72	0xbce38a1e	-0.02777582
73	0x3d3caf43	0.04606558
74	0xbdb250ad	-0.08706794
75	0x3e124291	0.14283206
76	0x3d4cac48	0.049968988
77	0xbdbfce86	-0.09365563
78	0x3d0e002e	0.03466814
79	0x3c83552f	0.01603183
80	0x3c2cd4d7	0.010548792
81	0x3d78c3bc	0.06073354
82	0xbd5441a1	-0.0518204
83	0xbc901ac0	-0.01759088
84	0xbd512d59	-0.051068638
85	0xbd0121e7	-0.031526472
86	0x3c9509c0	0.018193126
87	0xbd012af1	-0.031535093
88	0xbd40c83f	-0.04706597
89	0xbca7a326	-0.020463537
90	0xbd884c3f	-0.06655168
91	0xbced47e2	-0.02896494
92	0x3d9009f8	0.070331514
93	0x3d6fc6e4	0.058539286
94	0xbc7d04ce	-0.01544304
95	0xbd4ea96d	-0.050454546
96	0xbe13e7f9	-0.1444396
97	0x3dde690a	0.10859878
98	0xbcd1c333	-0.025605774
99	0xbd8a906d	-0.06765828
100	0xbd79345f	-0.06084096
101	0x3d1a72a2	0.03770698
102	0xbd095bf6	-0.033534966
103	0xbc39f686	-0.01135028
104	0x3c985b54	0.018598236
105	0xbd093f5d	-0.033507694
106	0xbd61c3c1	-0.055118326
107	0xbb9e9d3b	-0.0048405207
108	0x3cc5e7c4	0.024158366
109	0xbd13158a	-0.035909213
110	0x3db8e498	0.09027976
111	0x3d9855da	0.0743825
112	0xbd826f34	-0.063688666
113	0x3b9f4c50	0.004861392
114	0x3cb69509	0.022287862
115	0x3c42deb4	0.011893917
116	0x3d358eb5	0.04432555
117	0xbc0fbfa9	-0.008773723
118	0x3d5fb6d6	0.054617725
119	0x3d0c1107	0.034195926
120	0x3c811db6	0.015761238
121	0x3e1fced1	0.15606238
122	0xbc802a37	-0.01564513
123	0xbcfc964a	-0.030833382
124	0xbdc32f45	-0.095305
125	0xbb8779df	-0.004134401
126	0xbda36d73	-0.0797986
127	0xbbc12a4d	-0.005894935
128	0xbdb67510	-0.08909047
129	0xbc0ccff3	-0.008594501
130	0x3d03886c	0.032112524
131	0xbe1a35ce	-0.15059587
132	0xbd15bf36	-0.036559306
133	0x3cd92f9f	0.026511965
134	0xbd740be3	-0.05958165
135	0xbc099824	-0.00839809
136	0x3da6aa0f	0.08137905
137	0xbcd98d9f	-0.026556788
138	0x3c1aeada	0.009455407
139	0xbcc9f92b	-0.024654945
140	0xbdb04e1c	-0.08608648
141	0xbd0679e1	-0.032831077
142	0xbba39847	-0.004992518
143	0x3d9f38de	0.077745184
144	0xbc06e9e8	-0.0082344785
145	0xbc8d3295	-0.017236033
146	0x3dc68df2	0.09695043
147	0xbc7cd5fd	-0.015431878
148	0x3d629f07	0.05532744
149	0xbc3fc529	-0.0117047215
150	0xbc85ab13	-0.016316926
151	0x3b8d2d27	0.004308361
152	0x3ddd6a3f	0.108112805
153	0xbd57d46e	-0.052692823
154	0xbdac7b00	-0.08421898
155	0xbca4e1f9	-0.020127283
156	0xbbd9e4a1	-0.006649569
157	0x3d196b20	0.037455678
158	0x3d76c4d6	0.06024631
159	0xbde29e1a	-0.11065312
160	0x3c79b07d	0.015239832
161	0x3d224a35	0.03962155
162	0x3e0bcdf8	0.1365279
163	0xbbe044a2	-0.006844119
164	0x3b01fae2	0.0019833376
165	0xbc6e069d	-0.014527944
166	0x3c23e59b	0.010003473
167	0xbcebbd9d	-0.028776938
168	0xbcaabb9f	-0.020841418
169	0xbd146584	-0.036229625
170	0xbd2662b3	-0.04062147
171	0xbe01a922	-0.12662175
172	0x3d7fe1a6	0.062471054
173	0xbb95c540	-0.004570633
174	0x3d4038e6	0.046929263
175	0x3dff9017	0.12478655
176	0x3d2346d3	0.039862465
177	0x3c508d69	0.012729027
178	0x3da9f3a8	0.08298427
179	0x3d671acd	0.056422044
180	0xbd0fee12	-0.03513915
181	0xbb1124e8	-0.0022147242
182	0x3dc76517	0.09736078
183	0x3d1bfa60	0.038080573
184	0xbbf62d16	-0.007512699
185	0xbcf43b3e	-0.029813405
186	0xbcfabf1a	-0.030608702
187	0xbe045faf	-0.12927125
188	0x3ac80610	0.0015260596
189	0x3ce3797d	0.027767891
190	0xbc77c982	-0.015123727
191	0xbc9a2f66	-0.01882143
192	0xbbcb08b2	-0.006196105
193	0xbd9243c2	-0.0714183
194	0xbdf52708	-0.11970335
195	0xbd5c3f03	-0.05377103
196	0x3b82e023	0.0039940043
197	0xbd44a895	-0.048012335
198	0xbdbfcfa2	-0.09365775
199	0x3d463dba	0.04839871
200	0xbdca18cd	-0.098680116
201	0x3dc0f444	0.0942159
202	0xbd4d22ff	-0.050082203
203	0x3c14a9ab	0.009073655
204	0xbcfcf567	-0.030878736
205	0x3c6e705c	0.014553156
206	0x3cfe2191	0.031021865
207	0xbd0ba5fe	-0.03409385
208	0xbd3ae011	-0.045623843
209	0xbc2c4c67	-0.010516263
210	0xbd50a3cf	-0.05093747
211	0x3cbfeb93	0.02342776
212	0x3c685cb8	0.014182262
213	0xbb763bb7	-0.0037572214
214	0x3d187ab6	0.0372264
215	0x3b0f5a2c	0.0021873815
216	0xbcc49a78	-0.023999438
217	0x3d89d93c	0.06730887
218	0x3d673607	0.05644801
219	0xbdc7f686	-0.097638175
220	0x3d05f3ff	0.032703396
221	0xbd5ebd2f	-0.05437964
222	0x3c7f07e5	0.015565847
223	0x3dcfbf35	0.10143892
224	0x3c11d8bb	0.00890177
225	0xbdddfce5	-0.108392514
226	0x3d54e998	0.051980585
227	0x3d34f980	0.044183254
228	0xbb6fe4ea	-0.003660495
229	0xbd099908	-0.033593208
230	0xbe01845b	-0.12648146
231	0xbcb164d5	-0.021654526
232	0x3e2c4e33	0.16826706
233	0x3ca054d3	0.019571697
234	0xbd983584	-0.07432082
235	0x3ccf704b	0.0253221
236	0xbd4027a0	-0.04691279
237	0xbdd32d1e	-0.1031134
238	0xbc828b39	-0.015935527
239	0x3d8b204b	0.06793269
240	0x3dc24264	0.09485319
241	0xbdf0cd45	-0.11757902
242	0x3cc9a7a2	0.024616066
243	0xbd27a3c0	-0.04092765
244	0xbd145973	-0.036218118
245	0xbdd99b49	-0.106253214
246	0x3b8cadd4	0.004293183
247	0xbca644f3	-0.02029655
248	0x3c8d31ad	0.017235601
249	0x3ca46322	0.020066801
250	0x3d8c2328	0.06842643
251	0x3b9ec1b6	0.0048448695
252	0xbce54e62	-0.027991477
253	0x3beb5804	0.007182123
254	0x3d3d7abd	0.04625963
255	0x3cafd3f3	0.02146337

network_body.linear_encoder.seq_layers.2.bias f4 [256]
0	0xb9c058f1	-0.0003668736
1	0xbac000b4	-0.0014648647
2	0xbaea997e	-0.0017898527
3	0xbaa250e2	-0.0012383724
4	0xb7f96a9c	-2.9732757e-05
5	0xba8387cd	-0.0010034979
6	0xbacbded7	-0.0015554082
7	0xb9ef1e2a	-0.00045608106
8	0x3b4ac69a	0.003094113
9	0xbad2dc66	-0.0016087412
10	0xb9f35554	-0.00046412146
11	0xbb0f0933	-0.0021825552
12	0x37fc7e41	3.0099533e-05
13	0xbb701f58	-0.0036639776
14	0xbad56ad3	-0.0016282446
15	0xbaaeaf1b	-0.0013327332
16	0xba7c07ae	-0.00096141815
17	0xba2bf328	-0.00065593654
18	0xbad11369	-0.0015951219
19	0x39c9a53d	0.0003846082
20	0xbba4a6c7	-0.005024764
21	0xba616129	-0.0008597547
22	0xbb2ef2af	-0.0026694944
23	0x3bbd5ed2	0.0057791257
24	0x3b1999df	0.0023437662
25	0xbb7a4a78	-0.003819136
26	0xba2df5e6	-0.0006636068
27	0xb9e00d47	-0.00042734502
28	0x3a726e20	0.0009247977
29	0x3990859e	0.00027565373
30	0xbb5546d4	-0.0032543438
31	0x3a1fac9e	0.00060910906
32	0x3b1792bb	0.002312823
33	0xb9c00a87	-0.00036628937
34	0xbb9f138a	-0.004854624
35	0xbb095b09	-0.0020958802
36	0xbaddb2b0	-0.0016914215
37	0xb8b47e5e	-8.6066066e-05
38	0x3b34734f	0.002753455
39	0xbb106042	-0.002203003
40	0xba86cec3	-0.0010285008
41	0xb9e8f2db	-0.0004443143
42	0xb97e6b64	-0.00024263334
43	0xbb734965	-0.0037122604
44	0xba6bb6eb	-0.00089917955
45	0x3aa52453	0.0012599326
46	0xbb20daa8	-0.0024544392
47	0x3b36ab26	0.0027873009
48	0xba174883	-0.0005770998
49	0x39aeef3c	0.0003336611
50	0xb94baa7a	-0.00019423096
51	0xbada0983	-0.0016634915
52	0xb9d6cd1e	-0.00040970085
53	0xb996b86b	-0.00028747632
54	0x3b07a6e7	0.0020698847
55	0xbb8a3f37	-0.0042189616
56	0xb9f758a5	-0.00047177557
57	0x3a1417a6	0.0005649276
58	0x3b5e3169	0.0033903962
59	0x379993c6	1.8307834e-05
60	0xba0f95e8	-0.0005477355
61	0xb9f30b2b	-0.00046356893
62	0xba3be8ac	-0.00071681547
63	0x3a57bbbb	0.0008229573
64	0xba6060fd	-0.0008559374
65	0xbac0e775	-0.0014717417
66	0xba6fe782	-0.0009151624
67	0xb925e128	-0.00015819503
68	0x38c10aac	9.204945e-05
69	0xbb324ee7	-0.0027207674
70	0xb9dcbfa7	-0.00042104462
71	0xbaa5109b	-0.001259345
72	0xb7fee4e0	-3.0385738e-05
73	0xba166cef	-0.0005738278
74	0xb942cf79	-0.00018578571
75	0xba38e478	-0.00070530875
76	0x3a556756	0.00081407034
77	0x3a688b21	0.00088708295
78	0xb6f5d9d1	-7.326926e-06
79	0xbaa1e8cb	-0.0012352703
80	0xba352aac	-0.00069109607
81	0xb92a0b20	-0.00016216608
82	0xb9073620	-0.00012894766
83	0xbb38538a	-0.0028125965
84	0xba9b8dd0	-0.0011867825
85	0x390f6439	0.00013674879
86	0x3778bf42	1.4826483e-05
87	0xb92aa902	-0.00016275424
88	0xbb2c24aa	-0.002626697
89	0xb9814522	-0.00024656305
90	0xba006357	-0.0004897615
91	0xbb74e5d1	-0.0037368427
92	0xb98212e0	-0.00024809595
93	0xb9bf390c	-0.00036472862
94	0xbb437740	-0.0029825717
95	0xba35f142	-0.0006940552
96	0xba8bc1f4	-0.0010662661
97	0xb9ad5267	-0.00033058526
98	0xbac48b8a	-0.0014995199
99	0xbba161e5	-0.004925
100	0x3952fbca	0.0002012096
101	0xbaa867e7	-0.0012848348
102	0x3a6492ac	0.00087193656
103	0x399936e8	0.00029223342
104	0xb9645b86	-0.0002177787
105	0xbaa5807d	-0.0012626793
106	0x39adec9c	0.0003317342
107	0x3ae43088	0.0017409483
108	0x38ddd6fa	0.00010578144
109	0xbb7babb3	-0.0038401901
110	0x3aed6d34	0.001811421
111	0xb6ed3611	-7.0694446e-06
112	0xba3c7726	-0.00071893854
113	0x36886013	4.0643004e-06
114	0x38af8f7f	8.3713785e-05
115	0x39fef02c	0.00048625597
116	0xbb27a8ee	-0.0025582868
117	0xbab9e554	-0.0014182725
118	0xb9139b79	-0.0001407693
119	0xb944c334	-0.00018764735
120	0xba57ae0f	-0.0008227536
121	0xb976b5e0	-0.00023528142
122	0xbaf9f4a7	-0.0019070104
123	0xbb36a00b	-0.002786639
124	0x3a1162da	0.0005546041
125	0xbbccda52	-0.0062516117
126	0xbb13528c	-0.0022479622
127	0x3af9dc45	0.0019062838
128	0xbafdb628	-0.0019356655
129	0xbad6751b	-0.0016361804
130	0x37c89def	2.3915401e-05
131	0xbb31dcb6	-0.002713961
132	0xba047542	-0.0005052873
133	0xb91cdf5e	-0.0001496053
134	0x3a140a1d	0.0005647259
135	0x3b46c996	0.0030332557
136	0xb9e12383	-0.00042941803
137	0xba1407fe	-0.0005646943
138	0xbb705529	-0.0036671853
139	0xba140c92	-0.0005647625
140	0xba56e0a5	-0.0008196927
141	0xba115ab6	-0.0005544828
142	0x3a25253d	0.00062997994
143	0xba8be5b7	-0.0010673319
144	0xb99fe581	-0.00030497837
145	0x3b5885b1	0.003303867
146	0x3b83a9ad	0.0040180297
147	0xbae699cb	-0.0017593441
148	0xb9c5b434	-0.0003770903
149	0xbaafa3e3	-0.0013400282
150	0xbb491d26	-0.003068754
151	0x3aaef357	0.0013347667
152	0xba49afde	-0.0007693748
153	0x38b0bf08	8.427916e-05
154	0xb984074e	-0.00025182444
155	0xb8ef72bd	-0.0001141778
156	0xbb2498b9	-0.0025115444
157	0xb9b8a84f	-0.00035220615
158	0x3a885214	0.0010400438
159	0xbb40212e	-0.0029316652
160	0xb94d034b	-0.0001955155
161	0xbadafa8d	-0.001670675
162	0x3a9543b4	0.0011387975
163	0xba4854a3	-0.00076420064
164	0x39d2d629	0.00040213883
165	0xbadf509c	-0.0017037573
166	0xba560cdc	-0.00081653683
167	0xb8b3f5fe	-8.581205e-05
168	0xb6c9f889	-6.0192e-06
169	0xbb83f6c0	-0.0040272176
170	0xbaa685aa	-0.001270463
171	0xbad494ba	-0.001621864
172	0xb99379c5	-0.0002812875
173	0xba5bd20a	-0.0008385485
174	0x39b6d3aa	0.00034871447
175	0xbb36936e	-0.002785887
176	0xba9efc06	-0.0012129552
177	0xb899e340	-7.337937e-05
178	0xb9b1b190	-0.00033892365
179	0x3acf2a0c	0.0015805378
180	0xbb2e5fad	-0.002660732
181	0xbb63fd82	-0.0034788554
182	0xbb56c5c6	-0.003277169
183	0x39aa3e78	0.0003247147
184	0xb9573851	-0.00020524977
185	0xb9c909f2	-0.00038345117
186	0xb9945c95	-0.0002829774
187	0x37839f1a	1.5690504e-05
188	0xbb332bcc	-0.0027339337
189	0x3968b992	0.00022194374
190	0xbad1ec12	-0.0016015789
191	0xb9fe6262	-0.00048519956
192	0xbb939eec	-0.004505029
193	0xb9820330	-0.00024797907
194	0xbade993c	-0.0016982923
195	0xba82e226	-0.000998561
196	0xba40fe52	-0.00073621154
197	0xba1a0e38	-0.00058767525
198	0xbb0677d5	-0.0020518203
199	0xb7cf5367	-2.471516e-05
200	0xb995f825	-0.00028604377
201	0xbb4dee48	-0.0031422544
202	0xb995bebe	-0.0002856161
203	0x3ad769ed	0.0016434767
204	0xba4cad4c	-0.00078078057
205	0xbb06767e	-0.0020517404
206	0xba764633	-0.0009394616
207	0xbaf01a42	-0.0018318372
208	0x3b914138	0.0044328235
209	0xbb1c647a	-0.00238636
210	0xba4d4690	-0.0007830644
211	0xbb9f51f9	-0.004862067
212	0xba0cf51e	-0.00053771015
213	0xbaf1d538	-0.0018450385
214	0xba05e482	-0.00051075977
215	0xb919bde4	-0.00014661957
216	0x3a0a0546	0.0005265068
217	0xbb5efdf0	-0.003402587
218	0xba546fb1	-0.00081038015
219	0xbb4ca856	-0.0031228266
220	0xba8785f0	-0.0010339599
221	0xb9cb0dbd	-0.00038729413
222	0x3a5fb533	0.00085337757
223	0xbb2ea5c6	-0.0026649102
224	0xbb268cdb	-0.0025413546
225	0xba6ee0f1	-0.00091124984
226	0xbba591ef	-0.005052797
227	0xb9a46409	-0.0003135505
228	0xbb04140c	-0.002015355
229	0xb90ccf45	-0.00013428654
230	0xbadd4add	-0.0016883273
231	0xbb1bed55	-0.0023792584
232	0xbb643c95	-0.0034826149
233	0xba46018b	-0.00075533305
234	0xba15e975	-0.0005718687
235	0xb9201851	-0.00015267848
236	0xbad7d71a	-0.0016467304
237	0x3a2f45a7	0.0006686099
238	0xb97434e5	-0.00023289358
239	0xbbb0420f	-0.0053789685
240	0xb7dc5bff	-2.6268883e-05
241	0x3a24e380	0.00062900037
242	0x3b94ff29	0.004547019
243	0xbac1cc23	-0.0014785569
244	0xba907835	-0.0011022153
245	0xbb6022f6	-0.0034200526
246	0x3a7da4ce	0.0009675742
247	0xb89b21ca	-7.39727e-05
248	0xba6d2b52	-0.0009047288
249	0xbad8821e	-0.001651827
250	0xbaaaf6c4	-0.0013043513
251	0x39977487	0.00028887784
252	0x3a327c4d	0.00068086834
253	0x3a09e0ab	0.00052596134
254	0xb9c2e605	-0.0003717394
255	0xb98d140f	-0.0002690856

network_body.linear_encoder.seq_layers.4.weight f4 [256, 256]
0	0xbd99f634	-0.07517663
1	0x3c5a0b85	0.0133084105
2	0xbd3d6eb0	-0.046248138
3	0xbd12d0b7	-0.035843577
4	0x3da32363	0.07965734
5	0xbd8ee325	-0.06976918
6	0x3cef434e	0.029206898
7	0x3c96cf4a	0.01840939
8	0xbd8bc77a	-0.068251565
9	0x3e161fbf	0.14660548
10	0xbdd37240	-0.10324526
11	0x3c7e01e8	0.015503384
12	0xbc3e66da	-0.011621201
13	0x3cbade64	0.022811122
14	0xbd0f49ff	-0.034982678
15	0x3dedc4a1	0.116097696
16	0xbd66bce1	-0.056332473
17	0x3d3f7bd6	0.04674896
18	0xbc56fba0	-0.0131215155
19	0xbc70ff65	-0.014709328
20	0xbdeed238	-0.1166119
21	0xbd8b97e8	-0.06816083
22	0xbca6e1f3	-0.020371413
23	0x3d133636	0.03594037
24	0x3c3e16d1	0.01160212
25	0xbdd64dc9	-0.10464055
26	0xbd98513c	-0.07437369
27	0xbd3d4de1	-0.04621685
28	0x3d91aa7c	0.071125954
29	0xbd82bd1d	-0.06383727
30	0x3abb1e81	0.0014276059
31	0x3dc02408	0.093818724
32	0x3dd10843	0.10206654
33	0x3e2f5d92	0.17125538
34	0xbcbc9b2d	-0.023023212
35	0xbabb385b	-0.0014283763
36	0xbe266648	-0.16249955
37	0x3c22aae8	0.009928443
38	0x3ca3691b	0.01994758
39	0xbd0aa58b	-0.03384928
40	0x3df5c6b5	0.12000791
41	0x3d941707	0.072309546
42	0x3d25b947	0.040459897
43	0x3d2e5ae0	0.042567134
44	0xbde33dce	-0.11095773
45	0x3d1bb5f6	0.03801533
46	0x3c3c5892	0.011495726
47	0x3d745ebf	0.05966067
48	0x3cdf2368	0.027238563
49	0x3c9690ab	0.01837953
50	0x3e165522	0.14680913
51	0x3c7975e7	0.015225864
52	0x3c0da40d	0.00864507
53	0x3cde03cb	0.027101418
54	0xbba6744b	-0.005079781
55	0xbc91ad9e	-0.017782982
56	0xbc571bf3	-0.013129222
57	0x3cc62d39	0.024191486
58	0xbcdd338c	-0.027002119
59	0x3bf2b826	0.007407206
60	0x3d4031f1	0.046922628
61	0x3c93ef36	0.0180584
62	0xbbcbf9c6	-0.0062248437
63	0x3e0fb0d8	0.14032304
64	0x3d5ef6b6	0.0544345
65	0xbd889200	-0.06668472
66	0x3d40d678	0.047079533
67	0x3de5be08	0.11217886
68	0xbc2dbfba	-0.010604793
69	0xbd9065cb	-0.070506655
70	0x3c84d6e1	0.016215743
71	0x3de2e18f	0.11078178
72	0x3d1bcc9f	0.03803694
73	0xbd5ef76c	-0.05443518
74	0xbd402844	-0.0469134
75	0xbdb05a0a	-0.086109236
76	0x3d5f820c	0.05456738
77	0x3d589490	0.052876055
78	0x3d0bfe89	0.03417829
79	0xbdc3f70b	-0.09568604
80	0xbd21b409	-0.039478336
81	0x3cded064	0.027198978
82	0xbd9b580c	-0.07585153
83	0x3d747b0e	0.059687667
84	0xbe318b37	-0.17338262
85	0x3d094232	0.033510394
86	0x3c726be3	0.01479623
87	0xbd21d051	-0.039505307
88	0x3a8dd64a	0.0010821309
89	0xbcb49dc9	-0.022047894
90	0xbcfd970f	-0.03095582
91	0xbd9a8ddf	-0.07546591
92	0xbe09b3ae	-0.13447449
93	0xbd90f9ae	-0.070788726
94	0xbcd721ea	-0.026261289
95	0xbd085d6c	-0.03329222
96	0x3d95bc7a	0.0731134
97	0xbc40f08d	-0.011776102
98	0x3dde5938	0.10856861
99	0xbe540039	-0.2070321
100	0x3dd60c5c	0.10451576
101	0xbd454ac2	-0.048166998
102	0xbd31ec47	-0.043438222
103	0xbba94c2f	-0.0051665525
104	0x3d0ec688	0.034857303
105	0xbd9f9875	-0.07792751
106	0x3d8b695f	0.06807207
107	0x3d9e4214	0.07727447
108	0xbd062a4a	-0.032755174
109	0xbdd6097f	-0.1045103
110	0xbe023340	-0.12714863
111	0xbcb8e2f3	-0.022569155
112	0xbc6c8b4d	-0.014437509
113	0x3d5e4143	0.054261457
114	0x3d690543	0.056889784
115	0x3d4431d7	0.047899093
116	0x3c3ef301	0.011654616
117	0xbd4a5c56	-0.049404465
118	0xbd594742	-0.053046472
119	0x3da908fb	0.08253666
120	0x3dad2d6d	0.0845593
121	0x3d10a294	0.035311297
122	0xbcc4da71	-0.024029942
123	0xbda42b85	-0.08016113
124	0x3caf0b1b	0.0213676
125	0x3d97ea16	0.07417695
126	0xbc127771	-0.00893961
127	0xbd39c54e	-0.04535418
128	0x3de35e12	0.11101927
129	0xbd486603	-0.04892541
130	0xbd452b0e	-0.048136763
131	0x3dae22c6	0.08502726
132	0x3cbe79e3	0.02325148
133	0x3d92a1b1	0.071597464
134	0xbc4d80cf	-0.012542917
135	0x3dd95988	0.1061278
136	0x3d628e54	0.055311516
137	0x3d1c6904	0.03818609
138	0xbbef67d6	-0.0073060794
139	0x3c92e672	0.01793215
140	0x3cc8699d	0.024464423
141	0x3cf7ff12	0.030272994
142	0xbe4713bc	-0.19441122
143	0xbd184ab5	-0.03718062
144	0x3d8bce5d	0.0682647
145	0x3dbb0f76	0.09133808
146	0x3d4f8991	0.050668303
147	0x3e1bb107	0.1520425
148	0x3d6a4c36	0.057201587
149	0x3d94a809	0.07258613
150	0x3c490296	0.012268683
151	0x3ba4de04	0.005031349
152	0x3d8d2c87	0.068932585
153	0xbd90529e	-0.07047008
154	0xbd358d8e	-0.04432445
155	0xbc17f35c	-0.00927433
156	0x3dc4e3e2	0.09613778
157	0x3d43125c	0.04762493
158	0x3d241732	0.040061183
159	0x3c80537b	0.015664807
160	0x3c9b2ca9	0.018942194
161	0xbcc31a75	-0.023816327
162	0xbca47656	-0.020075958
163	0xbc7ab25f	-0.015301316
164	0xbd39b693	-0.045340132
165	0xbda0d77d	-0.07853601
166	0xbd923e11	-0.071407445
167	0x3cef50e6	0.02921338
168	0xbd05480c	-0.032539412
169	0x3d11f6a1	0.035635594
170	0xbb253b5b	-0.002521238
171	0x3b47855b	0.0030444476
172	0x3d90992b	0.070604645
173	0xbdb14eea	-0.0865763
174	0x3e02a64e	0.12758753
175	0x3da3cc0a	0.07997902
176	0x3c8b49cf	0.017002968
177	0xbc17f91f	-0.009275704
178	0x3cde6295	0.027146617
179	0xbd3e42bd	-0.046450365
180	0x3d1ece8c	0.038771197
181	0x3b06e53e	0.0020583416
182	0xbdad5dd3	-0.08465161
183	0x3d63cef1	0.055617277
184	0xbd4acaee	-0.049509935
185	0x3bbfe022	0.005855576
186	0xbddb7c10	-0.107170224
187	0x3d88e7c6	0.06684832
188	0x3dcf01ff	0.101078026
189	0x3db989ef	0.09059512
190	0x3d93ac35	0.0721058
191	0xbd8a4f0f	-0.067533605
192	0x3d0964c9	0.03354338
193	0x3d4fd69c	0.050741777
194	0x3d9bfd5c	0.07616684
195	0xbc7c9dca	-0.015418479
196	0xbd829258	-0.06375569
197	0x3e0d5648	0.13802445
198	0x3e1c1e6d	0.15245982
199	0xbd8bce61	-0.06826473
200	0x3d7d3944	0.06182219
201	0x3da11f51	0.07867301
202	0x3da47729	0.080305405
203	0x3b9a261a	0.004704249
204	0x3d980121	0.0742209
205	0xbdbf11e7	-0.093295865
206	0x3c61eb31	0.013788984
207	0xbd6b6a20	-0.057474256
208	0x3d7597b3	0.059959125
209	0xbd4f2b4c	-0.0505784
210	0xbd370379	-0.044681046
211	0x3d537824	0.051628247
212	0x3ba29fc2	0.0049628923
213	0x3e226cf9	0.15861882
214	0xbc8cdae6	-0.017194223
215	0xbdd403d5	-0.103522934
216	0xbb043d88	-0.0020178277
217	0x3dc9878e	0.09840308
218	0xbdc8f004	-0.09811404
219	0x3ce00d35	0.027350048
220	0x3cf2284c	0.02956023
221	0xbe170357	-0.14747368
222	0xbdc575ca	-0.09641607
223	0xbd79a6a2	-0.06094993
224	0x3ce43668	0.027857974
225	0x3cb8d4a5	0.022562334
226	0x3d084b1d	0.03327476
227	0x3d272e59	0.040815685
228	0x3d8d81e3	0.069095396
229	0xbbdfddc9	-0.006831859
230	0x3be32c84	0.006932797
231	0x3d284cdd	0.041088928
232	0x3d67f8bf	0.056633707
233	0xbd3aed6b	-0.045636576
234	0x3d3294b3	0.043598842
235	0x3bdb4ec1	0.006692738
236	0x3d4fadab	0.050702732
237	0x3c2e5d08	0.010642298
238	0x3d82e885	0.06392006
239	0x3d24457c	0.040105328
240	0x3bff2bf2	0.007787221
241	0x3da8f566	0.08249931
242	0x3bb7191f	0.0055877115
243	0xbd8d2844	-0.06892446
244	0x3d23d8e0	0.04000175
245	0xbdb52294	-0.08844486
246	0x3cd3f1af	0.02587208
247	0x3d49f8bd	0.04930948
248	0xbd8bd0f2	-0.068269625
249	0xbd0a4c0f	-0.03376394
250	0xbc423511	-0.011853472
251	0x3d130e9f	0.035902616
252	0x3c88527b	0.016640892
253	0x3caf8e41	0.021430137
254	0xbe0e44f2	-0.13893488
255	0x3c2b9daf	0.010474606

network_body.linear_encoder.seq_layers.4.bias f4 [256]
0	0xb8867d0c	-6.41291e-05
1	0xbaa71ab7	-0.001274905
2	0x3800e736	3.073291e-05
3	0xb9a3c1cc	-0.00031234173
4	0x3991cf76	0.00027811126
5	0xb9f58012	-0.0004682546
6	0xbadb396d	-0.0016725488
7	0xba42f55e	-0.0007437075
8	0xbac93a33	-0.0015352428
9	0x3b3839c2	0.0028110598
10	0x39eeb116	0.00045526837
11	0x3a5f1581	0.0008509979
12	0xb9e8325c	-0.0004428801
13	0xbb5ea4c4	-0.003397272
14	0xb81eb8d5	-3.7842274e-05
15	0xb9bdbf59	-0.00036191454
16	0xb9977128	-0.00028885272
17	0x38acaee5	8.234176e-05
18	0xba3a32b6	-0.00071028934
19	0xbbb69d6d	-0.005572966
20	0x3b015432	0.0019734022
21	0xba979ce5	-0.0011567144
22	0x37730d3b	1.4487009e-05
23	0xba86fb5b	-0.0010298298
24	0xba29b51d	-0.00064738264
25	0xb79a35d6	-1.83833e-05
26	0x381112d1	3.4588218e-05
27	0x382146f3	3.8451468e-05
28	0xb9e36e08	-0.00043378794
29	0xba3b5761	-0.00071465044
30	0xba7346d5	-0.0009280269
31	0x398c0461	0.00026706143
32	0xb9a530c7	-0.00031507594
33	0xba2db748	-0.00066267373
34	0xbae2bf56	-0.0017299454
35	0x3932446d	0.00017000893
36	0xb985561f	-0.00025431902
37	0x3a193a1e	0.0005845147
38	0x3894e7f2	7.100393e-05
39	0xba151ad0	-0.00056878943
40	0xb9cd880b	-0.00039202007
41	0x394b694f	0.00019398819
42	0xbaa923ef	-0.0012904386
43	0xbb7dd225	-0.0038729992
44	0x35711315	8.9807264e-07
45	0x3a252d42	0.00063009944
46	0xba0d16e1	-0.00053821324
47	0xb98f9a91	-0.00027390246
48	0xb9c2ddcd	-0.00037167818
49	0x3a58b543	0.0008266756
50	0x396cfeee	0.00022601683
51	0xba8a9819	-0.0010573893
52	0x3ab1af53	0.0013556279
53	0x3adc3eb8	0.001680336
54	0xbb0fac8e	-0.002192292
55	0x3996fc5f	0.0002879826
56	0xba9879db	-0.0011632995
57	0xbb42472d	-0.0029644475
58	0xb9275164	-0.00015956681
59	0xbb3176b9	-0.002707882
60	0xb96b4fcc	-0.00022441073
61	0xba68c7ea	-0.0008879887
62	0xbaa47f2d	-0.0012550108
63	0xb9f8db2f	-0.0004746555
64	0xbae9599b	-0.0017803194
65	0xbb6edf42	-0.003644899
66	0xb9ca50d3	-0.0003858866
67	0xbb74b72e	-0.003734063
68	0xb97fa1e7	-0.00024379008
69	0xb862e6ee	-5.409767e-05
70	0xba4ac6c7	-0.00077353086
71	0xba7579d1	-0.00093641604
72	0x391c6512	0.00014914971
73	0xba947454	-0.0011326172
74	0xbb01c0cc	-0.0019798754
75	0x3aa5348c	0.0012604161
76	0x3a437ae4	0.0007456972
77	0x3ad1c829	0.0016005087
78	0x3930d0fd	0.00016862522
79	0xb9d01f04	-0.0003969596
80	0xb98bcb84	-0.00026663777
81	0x3b3d93e3	0.0028927259
82	0xba71b82f	-0.0009220866
83	0xba456be3	-0.000753103
84	0x3888eef6	6.529495e-05
85	0xbb419b49	-0.002954202
86	0x389fca3e	7.619381e-05
87	0x38c931ed	9.593726e-05
88	0x392052f9	0.00015289699
89	0xba396f5d	-0.00070737844
90	0xb9f84647	-0.00047354607
91	0xba429428	-0.00074225897
92	0x3b27a30d	0.0025579364
93	0xba8de261	-0.0010824912
94	0xba23ac3a	-0.00062436203
95	0x3850b2d9	4.975763e-05
96	0x398896e8	0.00026052375
97	0xba7c296e	-0.00096192106
98	0x3989fd85	0.00026319563
99	0xb9f4c9a1	-0.00046689532
100	0xba6e453a	-0.0009089295
101	0xb9417632	-0.00018449945
102	0x3925dd68	0.00015818106
103	0x395fda97	0.00021348368
104	0xba1d3f1a	-0.00059984776
105	0xb71651e0	-8.95976e-06
106	0xbb34bd59	-0.002757868
107	0x38d73290	0.00010261417
108	0xba573c00	-0.000821054
109	0xba13f87f	-0.0005644634
110	0xb9d52f10	-0.0004066159
111	0xba3f8950	-0.0007306533
112	0xb8af966c	-8.3726685e-05
113	0xbb38dab9	-0.002820654
114	0xb9d33128	-0.0004028168
115	0xba29614a	-0.00064613356
116	0xba2d046a	-0.0006600084
117	0xb984f3b9	-0.0002535859
118	0xba8cc62a	-0.001074021
119	0xbaa19508	-0.001232774
120	0xbaf9bd7b	-0.0019053662
121	0xb9ccc22a	-0.00039054576
122	0x39aa5e2d	0.00032495093
123	0xbaf10e3a	-0.0018391081
124	0xbbaf2efb	-0.0053461767
125	0xbb7074b4	-0.0036690654
126	0x3aae5535	0.001330054
127	0xb9964878	-0.00028664223
128	0xba9014f8	-0.0010992577
129	0xbb0a309c	-0.0021086102
130	0xb938ed5d	-0.00017636032
131	0xb74e7147	-1.2304931e-05
132	0x3bacd565	0.005274462
133	0xbb22c210	-0.0024834909
134	0xb9937441	-0.0002812464
135	0xba9c4742	-0.0011923092
136	0xba17ee7b	-0.0005795729
137	0xb9cffca8	-0.0003967036
138	0xb9dcd3ac	-0.00042119378
139	0xba6ee850	-0.0009113597
140	0xba975340	-0.0011545196
141	0xba17d7c7	-0.0005792346
142	0x3a5b7a40	0.00083724037
143	0xb9b0f0ac	-0.0003374865
144	0xba2db45e	-0.0006626303
145	0xb9ec3d4a	-0.00045059092
146	0xbb7a8751	-0.0038227628
147	0xb887c44e	-6.473866e-05
148	0xba0fb8d2	-0.00054825575
149	0xbb12877c	-0.0022358587
150	0xba84e6fa	-0.0010139637
151	0xbb34c50d	-0.0027583272
152	0xba6dd2d5	-0.0009072249
153	0xbb232d37	-0.0024898776
154	0xba26acba	-0.0006358136
155	0xbb2c085a	-0.0026250095
156	0xba840ecc	-0.0010075211
157	0xbb857660	-0.0040729493
158	0xb9027696	-0.00012441943
159	0x38f2aafe	0.00011571309
160	0xba07d62e	-0.00051817566
161	0x38a006be	7.63065e-05
162	0x39813435	0.00024643695
163	0x39bdb018	0.0003618009
164	0xba44fb60	-0.00075142644
165	0xb99031b1	-0.00027502843
166	0xbb6e2db2	-0.0036343154
167	0xbb1672a7	-0.0022956522
168	0xb874a749	-5.832993e-05
169	0xbb4e1914	-0.0031448053
170	0xb9a2363c	-0.00030939456
171	0xbac5fcbe	-0.001510523
172	0x3b574bd3	0.0032851591
173	0x3933eb57	0.00017158441
174	0xba10db28	-0.0005525821
175	0xbb87060c	-0.004120594
176	0xb98ac141	-0.00026465397
177	0xbb8727db	-0.004124624
178	0x395997dd	0.00020751306
179	0xbaabf0af	-0.0013117994
180	0x399a686b	0.00029450966
181	0xbab901cf	-0.0014114919
182	0x3b907e0e	0.004409558
183	0xba1dc785	-0.00060188054
184	0xbb9397ae	-0.0045041656
185	0xb9e17a6d	-0.0004300656
186	0xba8dd49b	-0.0010820808
187	0xbb8fb8e9	-0.0043860567
188	0xba036bd3	-0.00050133205
189	0x3b1cd6e4	0.0023931796
190	0x3911411a	0.0001385253
191	0x3a01f0f2	0.0004956863
192	0x3981ae42	0.0002473463
193	0xbb17223e	-0.0023061181
194	0xba37d503	-0.0007012637
195	0x38adc744	8.286399e-05
196	0xb97d616b	-0.00024164251
197	0xba233211	-0.0006225417
198	0x3a44c848	0.0007506651
199	0x3af3fd47	0.0018614911
200	0x3b8fcd99	0.004388523
201	0x3718a0de	9.097361e-06
202	0xba864813	-0.0010244868
203	0xb9ced792	-0.00039451994
204	0xb814da5b	-3.548931e-05
205	0xb9a08db1	-0.00030623146
206	0xbb0474ca	-0.0020211213
207	0xbbdb3294	-0.006689379
208	0xb9dbd52b	-0.00041929758
209	0xbb33cb63	-0.002743446
210	0xb83ce854	-4.5039065e-05
211	0x3b9583ce	0.0045628315
212	0x3aa01bc2	0.0012215304
213	0xbaf7dff6	-0.001891135
214	0x3b0f6fd2	0.0021886718
215	0xb861945f	-5.378236e-05
216	0x3a0ac27f	0.00052932644
217	0xb92332cd	-0.00015563816
218	0xbad8f0e5	-0.0016551284
219	0x3912d643	0.00014003464
220	0xb9a91e28	-0.0003225666
221	0xba659fdb	-0.0008759477
222	0xbad8a366	-0.0016528189
223	0x3a9edef3	0.0012120887
224	0x37993a37	1.826613e-05
225	0x3a2623e1	0.0006337744
226	0xb9267a82	-0.00015876631
227	0xba444ebd	-0.00074885396
228	0x3aa199af	0.0012329126
229	0xb8bce4a1	-9.007124e-05
230	0x399fffe6	0.00030517502
231	0xb809bed0	-3.2841053e-05
232	0xba8af83b	-0.0010602543
233	0xbaf04cbe	-0.0018333418
234	0xb9a8d088	-0.00032198825
235	0xbace6f09	-0.0015749644
236	0xba0b6bd2	-0.00053184957
237	0x3ae63061	0.0017562025
238	0xba303e96	-0.0006723193
239	0xba32845f	-0.0006809886
240	0xbb153693	-0.0022768124
241	0x3a5935b0	0.0008285893
242	0x3a878688	0.0010339776
243	0x3a040ec7	0.00050376024
244	0xba17fcb2	-0.00057978474
245	0xba03d3c4	-0.0005028809
246	0x3a939aca	0.0011261341
247	0xb9b79022	-0.00035011867
248	0x397597b3	0.00023421533
249	0xbaa74b70	-0.0012763571
250	0xb75dde9f	-1.32244595e-05
251	0x3822569c	3.870447e-05
252	0xba8daaa2	-0.0010808299
253	0xba56ff00	-0.000820145
254	0xb93892e2	-0.00017602326
255	0xb795a01b	-1.7836739e-05

action_model._continuous_distribution.mu.weight f4 [1, 256]
0	0x3b3ab2ce	0.0028487924
1	0xbca4ca22	-0.020115916
2	0x3c3408bf	0.010988413
3	0xbc25d34b	-0.010121177
4	0x3c4074c1	0.011746586
5	0x3babda54	0.0052445326
6	0x3862db6b	5.4086948e-05
7	0x3cc5bd14	0.024138011
8	0x3a676cce	0.0008828164
9	0xb9c1fa25	-0.000369982
10	0x3b90633f	0.0044063623
11	0x3c5d10b4	0.013492752
12	0x3a9e233b	0.0012064943
13	0xbc432e4a	-0.011912892
14	0xbbe2bb29	-0.006919284
15	0xbc530c60	-0.012881368
16	0xbba42277	-0.0050089913
17	0x3bebb1ea	0.00719284
18	0x3a9fa8cb	0.0012181042
19	0x370149d0	7.706185e-06
20	0x3b0aecd8	0.0021198299
21	0xbcc09de4	-0.023512788
22	0x3bafe0e4	0.005367385
23	0xbc782deb	-0.015147666
24	0xbbfde35c	-0.0077480506
25	0x3cd0d969	0.025494294
26	0x3b959ccd	0.0045658113
27	0x3c3d7021	0.011562378
28	0xbc33f226	-0.010983026
29	0xbc95752f	-0.018244354
30	0x3a89245a	0.0010463104
31	0x3c1d13aa	0.009587208
32	0x3c00936e	0.00784765
33	0xbc849b23	-0.016187256
34	0xba15cb85	-0.00057142257
35	0x3baa03ad	0.0051884265
36	0xbc2b81e2	-0.010467978
37	0x3c020a89	0.007937082
38	0x3c13144a	0.008977005
39	0xbaf87fda	-0.0018959001
40	0xbc0f98f0	-0.0087644905
41	0x3cb27536	0.021784406
42	0xbbaf445b	-0.005348725
43	0xbb1692c6	-0.0022975667
44	0x3c69b91a	0.014265323
45	0x3b23a4c2	0.002497003
46	0xbc11355a	-0.008862818
47	0x3b249d98	0.0025118347
48	0xbc0a3137	-0.008434585
49	0x3cb34408	0.021883026
50	0x3c355f9a	0.0110701565
51	0xbb5375b4	-0.0032266201
52	0x3cd56991	0.026051315
53	0x3c2d94e3	0.010594579
54	0xbc6ae957	-0.014337859
55	0x3ae1f442	0.0017238932
56	0xbcbc3356	-0.022973698
57	0xbc49464f	-0.012284829
58	0x3c07fc18	0.00829985
59	0xbcab124c	-0.020882748
60	0x3b9a26ad	0.0047043175
61	0xbb46ff32	-0.003036451
62	0xbc36c497	-0.011155269
63	0x3b13bd71	0.0022543336
64	0x39959390	0.00028529437
65	0xbba08805	-0.0048990273
66	0x3b0b9e3f	0.0021304039
67	0xbc562b34	-0.013071824
68	0xbbeef927	-0.007292885
69	0x3c820d33	0.015875435
70	0x3c3b4455	0.011429866
71	0xbc5e51bb	-0.013569291
72	0x3c56645b	0.01308545
73	0x3aa2593e	0.0012386215
74	0xbc5593f5	-0.013035764
75	0x3c83a414	0.01606945
76	0x3beb5822	0.007182137
77	0x3c3d50b9	0.01155489
78	0x3b830570	0.003998451
79	0xbcbcf81d	-0.023067528
80	0x3b8c73de	0.0042862734
81	0x3af45c6e	0.0018643269
82	0xbbc9f3be	-0.0061630895
83	0xbad3c0a0	-0.0016155429
84	0x3ca1b8b5	0.019741395
85	0xbbde8a31	-0.006791376
86	0x3b4805b8	0.0030520987
87	0x3b6b1ec4	0.0035876492
88	0x3c3ac0c5	0.011398499
89	0x3b310579	0.0027011319
90	0x3c22d1b4	0.009937692
91	0xbbd87bd7	-0.0066065597
92	0x3cdb4b0a	0.02676918
93	0xbab27589	-0.001361535
94	0x3cc2e896	0.023792546
95	0x3c688d68	0.01419387
96	0x3c536025	0.012901341
97	0xbbe70d10	-0.0070511177
98	0x3c217db7	0.009856633
99	0xbc8fab53	-0.017537748
100	0x39d88bc1	0.00041302855
101	0xbcccba7f	-0.024991272
102	0x3c0f4b0f	0.008745923
103	0x3c47a832	0.012186097
104	0x3ac9ad23	0.0015386682
105	0x3c6164c1	0.013756932
106	0xbcc0fdcd	-0.023558522
107	0x3c93ac79	0.018026577
108	0x38b9566a	8.837583e-05
109	0x3c8eaabe	0.0174154
110	0xbc6748f5	-0.014116515
111	0xbb2648f4	-0.0025373073
112	0x3b5ded1c	0.0033863252
113	0xbbfd6e44	-0.007734092
114	0xbc61c7a7	-0.013780511
115	0x3af62f9d	0.00187825
116	0xbc8d53e7	-0.017251922
117	0x3be767fe	0.0070619574
118	0xbc216354	-0.009850342
119	0x3c8b0077	0.016967995
120	0xbcba7bfa	-0.022764195
121	0x3cb83b6d	0.022489274
122	0x3c8892d4	0.016671576
123	0xbc1606f8	-0.009156935
124	0xba89f83a	-0.0010526248
125	0xbcc944e3	-0.02456898
126	0x3add6bb9	0.0016893066
127	0x3b4c72cb	0.0031196352
128	0xbaaa9c72	-0.0013016595
129	0xbb96fb18	-0.0046075694
130	0xbcdd0bfa	-0.02698325
131	0x3c3a4014	0.0113678165
132	0x3ccb6167	0.024826718
133	0xbbb2a170	-0.0054513738
134	0x3c44f0b5	0.01202028
135	0xbb265807	-0.0025382058
136	0xbb8bd6f2	-0.004267567
137	0xbbde11df	-0.0067770327
138	0x3c9b5ded	0.018965686
139	0xbc6dfdb9	-0.014525824
140	0xba878e71	-0.0010342133
141	0xbcc9ba5d	-0.024624998
142	0x3c4ca811	0.012491242
143	0xbc96eb74	-0.01842282
144	0xbc03c441	-0.008042396
145	0x3c937a0c	0.018002532
146	0xbbc8f1b0	-0.006132327
147	0x3bda1efc	0.0066565257
148	0x3c1c3322	0.009533675
149	0xbccd820d	-0.025086427
150	0xbadfd75e	-0.0017077734
151	0xbcd0fa0f	-0.025509862
152	0x3b03b0d9	0.0020094423
153	0xbbb476e6	-0.005507338
154	0xbbac3beb	-0.005256166
155	0xbc56d51f	-0.0131123355
156	0xbc3d3965	-0.011549328
157	0xbc389785	-0.011266594
158	0x3c49b072	0.012310134
159	0x3bd25d25	0.006419795
160	0x3c13745e	0.008999912
161	0x3baed471	0.0053353836
162	0x3c700cc8	0.014651485
163	0x3c9f29f3	0.019429183
164	0xbb2f6b03	-0.0026766665
165	0x3ad5860c	0.001629056
166	0xbc4daea9	-0.012553849
167	0xbc7deee6	-0.015498852
168	0x3af07fcc	0.0018348633
169	0xbb2cbedc	-0.0026358878
170	0xbc12b464	-0.008954141
171	0xba61394b	-0.0008591606
172	0x3b31b089	0.002711328
173	0xb8a8217d	-8.017102e-05
174	0xbc35865f	-0.0110794
175	0xbbb2e9ad	-0.005459985
176	0x3be09530	0.006853722
177	0xba205707	-0.0006116484
178	0x3c44ca9e	0.012011198
179	0x3c31b5da	0.010846579
180	0x3c708bef	0.0146818
181	0xbcf430a6	-0.029808354
182	0x3c78a53a	0.015176112
183	0xbb6cc65d	-0.0036128976
184	0xbcb1bf77	-0.021697743
185	0x3ac5640c	0.0015059724
186	0xbc11f833	-0.008909273
187	0xbca58ef8	-0.020209774
188	0xbc2bbbac	-0.010481756
189	0x3c527c5d	0.012847033
190	0x3c637fa4	0.013885412
191	0x3c26cda5	0.010180865
192	0x3c67f9c1	0.014158667
193	0xba98282d	-0.0011608653
194	0xbcb5677e	-0.022144075
195	0x3c20cb6e	0.009814126
196	0x3b3c4ab1	0.0028731043
197	0xbb9d1415	-0.0047936537
198	0x3c09f7f0	0.008420929
199	0x3b6d82a8	0.0036241207
200	0x3b4db28a	0.0031386935
201	0x3c764c9e	0.015032915
202	0xbbc8c1dc	-0.0061266255
203	0x3c0a9eae	0.008460684
204	0x3c7fb918	0.015608095
205	0x3bff5d84	0.0077931304
206	0x372a6699	1.01566775e-05
207	0xb9b8f625	-0.00035278607
208	0xbc68a31e	-0.014199046
209	0xbd1adbc9	-0.03780726
210	0x3b5c585b	0.0033622
211	0x3c61828e	0.013764037
212	0x3b169bb2	0.0022980985
213	0xbc26ebf5	-0.0101880925
214	0x3ccf0d0f	0.025274782
215	0x3c0f1141	0.008732141
216	0x3bbe3076	0.005804117
217	0x3c99dcf0	0.018782109
218	0x3973bc73	0.00023244489
219	0x3c0ea0eb	0.008705358
220	0xbbbf0d6e	-0.0058304584
221	0xbb55ae97	-0.0032605284
222	0x3a1e40a9	0.0006036857
223	0xbc98facf	-0.018674282
224	0x3c9cf167	0.019158078
225	0xbb05655f	-0.0020354611
226	0x3b4227be	0.002962574
227	0xbc59d5ef	-0.013295635
228	0x3bcb55a4	0.0062052775
229	0x3c15b805	0.009138112
230	0x3c4758d2	0.0121671725
231	0x3c62a84a	0.013834069
232	0xbc0725ec	-0.008248787
233	0xbc655a76	-0.013998618
234	0xbcf28831	-0.029605957
235	0x3a3255c5	0.0006802942
236	0xbb9353d6	-0.004496078
237	0x3be3c376	0.006950791
238	0xbb38bfa1	-0.0028190392
239	0x3b3d3a9d	0.0028874048
240	0xbc4b98ac	-0.0124265365
241	0x3c30f838	0.010801367
242	0x3c0db5d8	0.008649312
243	0x3bcf4f8c	0.0063266214
244	0x3b45f61d	0.003020651
245	0xbc0d83a6	-0.008637344
246	0x3c8c04ae	0.017092075
247	0x3b6419a0	0.0034805313
248	0x3be76d25	0.0070625716
249	0xbc669a18	-0.014074825
250	0x3bf04288	0.00733215
251	0x3ca08b13	0.019597566
252	0xbae3731f	-0.0017353034
253	0xba9d21a5	-0.0011988176
254	0x3c95a28c	0.018265985
255	0x3b7da2fd	0.0038701885
