results/ZBHCC/ZBHCC-1999800.onnx (onnx, 553552 bytes, 7 tensors)

network_body.linear_encoder.seq_layers.0.weight f4 [256, 22]
000000 04 35 0b 3f 9b 4c 1c be 13 6c d7 bd 1a 4e dd 3c
       0.5437777 -0.15263598 -0.105186604 0.02701478
000010 f9 05 b1 3c 4b 32 b0 bd 63 67 3c 3e 28 ff 30 3e
       0.021609293 -0.086033426 0.18398814 0.17284834
000020 93 29 1c be b9 a6 ef 3c 4e 97 61 3e 44 b1 a1 3c
       -0.15250234 0.029254304 0.22030374 0.019737847
000030 b8 7b 9c bd e6 e6 9d bc ee 37 e5 3e 8d cc bc be
       -0.07640785 -0.01927514 0.44769233 -0.3687481
000040 af a4 61 bd f0 21 87 3d 37 84 61 be f0 3e 26 3e
       -0.055088695 0.0659827 -0.22023092 0.16234946
000050 ee 90 3f 3e af c0 9d 3c 1f 91 a2 be 19 39 77 3e
       0.1870763 0.019256918 -0.31751344 0.24142875
000060 e1 d5 90 3e 3b b6 89 be 03 6c 4f 3e 8e 2a 0f be
       0.28288177 -0.26896843 0.20256047 -0.13981077
000070 59 f0 4e 3e 5f d2 09 be 63 b9 0a be ee 26 e3 3e
       0.20208873 -0.13459156 -0.13547282 0.44365638
000080 51 2d 9c 3e 2e d3 87 bd 75 c9 46 bd ae 70 e0 3e
       0.30503324 -0.06632076 -0.04853197 0.43835968
000090 5e ed 96 bc 61 92 1e be c2 b4 ef bd 01 69 0e bd
       -0.018423732 -0.15485527 -0.11704399 -0.03476811
0000a0 5d c0 89 bd 22 62 88 3e 63 17 65 3e 11 18 85 3d
       -0.067261435 0.2663737 0.22372203 0.06498731
0000b0 5b d5 b1 3e a3 bb 4d bd d3 18 2c 3e 60 ee 8c bc
       0.3473309 -0.050227772 0.16806345 -0.01720351
0000c0 5e 57 ab bd 9d 57 8a 3e 1f 9a 69 3e 76 66 da bd
       -0.08366273 0.2701997 0.22812699 -0.10664074
0000d0 0e 65 79 be 41 4b ab 3e 2e dc 1a 3e 5a 44 04 3e
       -0.24354956 0.33455852 0.15123054 0.12916699
0000e0 2d 81 8a 3e 21 8b 0f be 17 80 6e 3e 94 c6 6b be
       0.27051678 -0.14017917 0.2329105 -0.2302497
0000f0 41 d7 8a 3e 9b 19 ab 3e 9f 0f e1 3c eb 05 69 3e
       0.2711735 0.33417973 0.027473269 0.22756164
000100 4c 3e 74 be a4 05 3f be 0f aa 47 bf 28 ef 33 3e
       -0.2385189 -0.18654495 -0.77993864 0.175717
000110 6c 35 db 3c 3c ea 27 be 45 7f 07 3d 39 ba 3f be
       0.026758872 -0.16397947 0.033080358 -0.18723382
000120 de b6 d3 bd 10 27 54 3e 4c 25 dc be bf 17 b5 3c
       -0.103376135 0.20718026 -0.42997205 0.02210605
000130 c5 95 3f 3e 70 16 27 3e 2d 94 88 be 61 94 32 be
       0.18709476 0.16317153 -0.2667555 -0.17439415
000140 de 99 c7 3e 1a 63 1e be 88 07 3a 3d f7 2f bc 3e
       0.3898458 -0.15467492 0.04541734 0.36755344
000150 ca 9e 7e be a5 91 12 3e 92 80 38 3e f0 75 88 be
       -0.2486526 0.14313371 0.18017796 -0.2665248
000160 32 5c 79 3e 41 50 d8 be bb 0b e2 3e a4 13 75 be
       0.24351576 -0.4224873 0.44149575 -0.23933274
000170 1f 9a b6 bc 6e f5 5e be bc 0f 86 bd 29 4a 3f be
       -0.022290288 -0.21773311 -0.0654597 -0.18680634
000180 1d 12 45 3d c9 8a bb 3e 46 74 bc be f9 40 c6 be
       0.048112977 0.36629322 -0.3680746 -0.38721445
000190 17 ff 0c 3e 85 21 18 3e e6 b2 20 3e af 56 8d 3d
       0.13769184 0.14856537 0.15693244 0.06901299
0001a0 d6 b0 42 3e 6f 29 a9 be 15 8d ed bb 64 37 c8 be
       0.1901277 -0.33039424 -0.0072494843 -0.3910476
0001b0 59 b3 d7 3d a4 31 f2 bc 92 9c 81 3d 7b 0f 2a 3d
       0.10532255 -0.029564686 0.063286915 0.04151867
0001c0 d3 59 a7 bd a6 6a 42 3e 36 d4 f2 bc 05 bd c1 3e
       -0.081714295 0.18985996 -0.029642206 0.37839523
0001d0 12 90 16 3e b8 92 37 bd 29 8b 9a bd 8c bd 37 be
       0.14703396 -0.044817656 -0.07546074 -0.179434
0001e0 6f d8 9c bd 21 4a 10 be 2f 83 b8 3e 45 b6 a8 3e
       -0.07658469 -0.14090778 0.36037585 0.3295156
0001f0 2f ef d0 3e c9 5b 4e bc 7f 94 99 3e 58 12 54 bd
       0.40807483 -0.0125951255 0.29996106 -0.051775306
000200 bc c4 2e 3e 88 65 f8 3d 59 ed ba 3d cf bc 99 3e
       0.17067236 0.121287405 0.09127302 0.30026862
000210 df ae c5 3e 8d 1a c6 bd c1 c3 15 3e 41 bc f1 be
       0.3860998 -0.09673033 0.14625455 -0.4721394
000220 61 81 86 be 80 ab a5 3e 45 02 50 3e 83 d7 33 be
       -0.26270583 0.32357407 0.20313366 -0.1756268
000230 9a 63 92 be f5 9c b6 3d 80 1b 79 3e 21 81 4c 3e
       -0.28591615 0.08916656 0.24326897 0.19971134
000240 36 22 c2 3c 2b 05 67 3e 96 61 09 bf 86 85 9b bd
       0.023697954 0.22560565 -0.5366453 -0.07593827
000250 69 81 9a 3e 7e 17 05 3e 13 a8 c4 3c d1 e2 bd 3e
       0.30176857 0.12997243 0.024005925 0.3708711
000260 fa e8 ea bd fc 64 b3 bd c4 8a 42 3d 5f 45 07 be
       -0.11470218 -0.087594956 0.04749562 -0.13210057
000270 a0 4b d1 3e 6b c4 50 bd 5d bd da 3e ec d7 85 be
       0.4087801 -0.05096857 0.42722598 -0.26141298
000280 f5 e9 91 bd a3 37 bc bd 7a 74 11 be de 2f 81 3e
       -0.07124702 -0.09190299 -0.14204589 0.25231832
000290 04 0f 96 bd b0 a8 0c 3f bd 72 b0 3d 85 b0 8c 3e
       -0.07327083 0.54944897 0.086156346 0.27478424
0002a0 27 23 bb bc 61 f9 8f 3e 60 3d 88 3e 9e 9d c3 3e
       -0.02284391 0.28119949 0.26609325 0.3820619
0002b0 1b 10 90 3d 4a 69 f4 bd 8b 8a 2c be 5c e5 45 be
       0.07034322 -0.11934145 -0.16849725 -0.19325775
0002c0 79 3d 01 be 52 72 d2 3e 26 93 80 be a5 b2 83 be
       -0.12621106 0.41102844 -0.25112265 -0.25722232
0002d0 e7 7e 97 3d 65 0e ad bd f8 44 bc be cc 55 4e 3e
       0.073972516 -0.08450011 -0.3677137 0.20149916
0002e0 8a fc 5d be 52 bf 90 be ca 9b dc bd 69 7d 1e bd
       -0.21678367 -0.28270966 -0.10771902 -0.03869382
0002f0 d7 a4 0e be ca 54 09 3d 0e 34 14 be ab b1 eb bc
       -0.13930069 0.033528127 -0.14472982 -0.028771242
000300 08 e8 0a bf 03 b0 1e 3e 83 53 e8 3d 72 45 06 be
       -0.542603 0.1549683 0.113440536 -0.13112429
000310 44 08 bc 3d 0c b5 f0 3e a9 ac c6 3d e2 0b 26 bd
       0.09181264 0.47013128 0.09700901 -0.040538676
000320 b6 a9 4a bd 8b ae c0 3e 3d 5a b7 bd 94 cd 83 be
       -0.049478255 0.37633166 -0.089527585 -0.2574278
000330 e9 3b 51 3e d5 ec a4 bd d8 20 8f 3d d6 da 15 3e
       0.2043301 -0.080529846 0.06988686 0.1463426
000340 52 7d e8 bb 5e 3e b6 3d e2 ba 39 be 1d e7 cd 3d
       -0.0070950175 0.08898614 -0.18137696 0.10053847
000350 e4 55 76 bd 80 31 1c be f0 05 2a be 40 79 32 3e
       -0.060140505 -0.15253258 -0.16603827 0.17429066
000360 a0 6a 11 3d 18 0d 6b be f3 79 51 3e ba 51 30 3d
       0.035502076 -0.22954214 0.20456676 0.04304669
000370 90 8d 7d be b7 03 13 3e 7e 6d 26 3d 8b 91 59 bd
       -0.24761033 0.14356886 0.040631764 -0.053117316
000380 26 e7 30 3e ca ad 69 be ad 9c 62 bd 8b 1c 0d bd
       0.17275676 -0.22820202 -0.0553252 -0.03445105
000390 d3 81 24 3f e8 1a fb 3d 89 f9 04 3e 30 de fe 3d
       0.64260596 0.12260991 0.12985815 0.12444723
0003a0 b5 d5 25 3e b4 a2 7f be 45 a8 ac 3d 52 db 9c bc
       0.16194804 -0.2496441 0.08430532 -0.019147549
0003b0 cc 6d 87 3d 42 3d d5 bd fa 99 bd bd 3d 2c 8e 3e
       0.06612739 -0.104120746 -0.09257884 0.27768126
0003c0 c7 de 54 3e c6 5c d1 3e f9 78 17 be 16 73 a5 bb
       0.20788108 0.40891093 -0.14792241 -0.0050491197
0003d0 90 d9 a8 bd c9 da f0 bd 3f 3e 4f 3d f7 0b 35 3e
       -0.08244622 -0.1176048 0.050596472 0.17680345
0003e0 6d 2c fc 3d ab 9a ae bd c1 78 4a bd 19 02 69 be
       0.12313161 -0.08525594 -0.049431566 -0.22754706
0003f0 f9 53 b1 bc 6b 59 93 3d 96 3c 29 3d 4d b3 5e 3e
       -0.021646487 0.071947895 0.041317545 0.21748085

network_body.linear_encoder.seq_layers.0.bias f4 [256]
000000 27 c7 bc 38 94 a1 65 b9 75 e1 7e ba e7 f6 94 3a
       9.0016336e-05 -0.00021899334 -0.0009722927 0.0011365087
000010 e4 20 25 bb 63 f1 24 3b 96 9c a2 3a 50 47 1a bb
       -0.0025196606 0.0025168292 0.0012406285 -0.002354104
000020 8c a5 7e ba 2f 8b 4c bb 4d ea b7 bb 1a d1 0b 3a
       -0.00097139995 -0.003121089 -0.0056126476 0.0005333588
000030 85 b5 ef ba 6a d9 39 3a 67 0e 58 bb 1d de a7 ba
       -0.001828835 0.0007089587 -0.003296757 -0.0012807284
000040 7d d5 18 3a f1 d8 33 38 52 4e 5c 3a 65 47 bf 38
       0.0005830152 4.2878968e-05 0.00084040046 9.120888e-05
000050 75 f0 aa 3a 44 d7 c5 3a 07 11 90 39 6f 7b 1c 37
       0.0013041632 0.0015094061 0.00027478507 9.327064e-06
000060 2c 6e 34 3b cb e5 37 3b 71 6f 37 b8 68 e9 00 ba
       0.0027531488 0.0028060551 -4.3734388e-05 -0.0004917593
000070 35 f1 c8 3a fd 60 1f 3b 39 6f 5f 3a 5c 1d e4 b8
       0.0015330674 0.0024319284 0.00085233484 -0.00010877356
000080 75 77 64 bb 51 88 3d bb d8 51 b9 bb c2 71 d2 3b
       -0.003486124 -0.0028920362 -0.0056555085 0.0064222524
000090 88 00 5d ba 96 9f fb bb c4 4d 44 bb 39 21 14 ba
       -0.000843056 -0.0076789362 -0.0029953578 -0.00056507025
0000a0 bd c1 df ba 95 5f 87 39 77 5a 45 b6 68 f7 96 b9
       -0.0017071288 0.0002582042 -2.9407945e-06 -0.00028794562
0000b0 11 86 57 3b 12 f2 c4 b9 44 0a bb 3a c5 e3 f9 39
       0.0032886306 -0.0003756439 0.0014270027 0.00047662682
0000c0 ac 80 00 ba e0 7c 6e bb 1c ad 86 ba 6d 50 f0 b9
       -0.0004901986 -0.003639035 -0.0010274979 -0.0004583629
0000d0 fe f1 9a ba 8c 86 01 3b 7c 36 76 ba 24 fa 62 bb
       -0.0011821387 0.0019764034 -0.0009392274 -0.0034633959
0000e0 05 9e b4 b9 7a e6 8f 3a cb 34 98 ba b1 9e b1 ba
       -0.0003445001 0.0010978722 -0.0011612413 -0.0013551322
0000f0 f5 37 60 bb f8 a2 23 3b f4 c0 12 3c 5a e7 d9 38
       -0.003421304 0.0024968963 0.008957136 0.00010390459
000100 ff b1 cd 3b 4c c2 55 ba 65 4f fd ba 98 13 3a ba
       0.0062773223 -0.00081542577 -0.001932603 -0.00070982566
000110 c4 6a 01 3b b3 fc 17 b9 51 e5 93 bb 0f d0 18 ba
       0.0019747475 -0.0001449462 -0.0045134206 -0.0005829343
000120 23 1a 9e b9 db bf 40 3b 85 eb 20 37 bf 60 b7 bb
       -0.00030155582 0.002941123 9.591579e-06 -0.00559625
000130 2e 72 41 3b fa 2e 5a bb e6 8b 44 3a b9 d6 75 bb
       0.002951752 -0.003329216 0.0007497653 -0.0037512018
000140 3a 60 91 3a d4 27 35 3a 89 7e ee 39 aa 12 52 bb
       0.00110913 0.0006910537 0.00045489173 -0.0032054582
000150 01 2d 45 ba 2f b2 bf b9 f2 a1 be b8 cb 40 0b bb
       -0.000752166 -0.00036563116 -9.090071e-05 -0.0021248336
000160 14 3f 07 ba 8c 68 34 3a dc 71 2f 3b ea 4c 6c 3b
       -0.00051592407 0.0006882034 0.0026770746 0.0036056587
000170 a8 21 a4 ba f4 a9 f8 ba a9 37 7a 3b 6b 09 d7 ba
       -0.0012522237 -0.0018971548 0.0038180149 -0.0016406005
000180 d6 78 9c bb 51 6d 93 3b 7a 99 74 b9 b9 cc a3 b9
       -0.004775147 0.0044991155 -0.00023326828 -0.00031242313
000190 90 cb 25 bb 7a bc 20 b8 98 e9 c1 b7 a2 13 38 ba
       -0.0025298335 -3.8322505e-05 -2.3116168e-05 -0.00070219685
0001a0 c2 32 ec ba 08 cd 4e ba 3b 92 da 37 4b b7 3f bb
       -0.0018020498 -0.00078888284 2.6055719e-05 -0.0029253538
0001b0 8d 3f 02 3a 57 e1 94 ba 94 6a c0 ba 7a bb 6e bb
       0.0004968576 -0.001135866 -0.00146802 -0.0036427663
0001c0 fe 9b 4e ba 43 3e 76 ba a5 90 b7 bb b1 be 1d 3b
       -0.0007881521 -0.0009393433 -0.00560196 0.002406996
0001d0 9c 32 0f bb f5 c3 8b 3a 71 7a 3e bb 5c 8b 23 bb
       -0.0021850234 0.0010663258 -0.002906468 -0.002495489
0001e0 f7 f4 18 bb 11 31 0c bb 69 5a 35 bb e7 8d 85 39
       -0.002333937 -0.002139155 -0.0027672297 0.00025473462
0001f0 b2 d8 df 3a b5 af 6e bb 39 9c 15 b9 7c 3c 25 bb
       0.001707813 -0.0036420648 -0.00014267945 -0.0025213053
000200 1e 4d f9 bb 06 d2 dc 3a b9 3a 10 bb c9 9b 08 bb
       -0.00760807 0.001684726 -0.0022007658 -0.0020844808
000210 bd 1e 7f 3a fd ee 83 3a aa 42 85 bb 37 55 ae 39
       0.00097320584 0.0010065731 -0.004066785 0.00033251356
000220 35 1d 8d 3b b9 59 32 3a 37 72 0d 39 d3 f8 e6 ba
       0.0043064603 0.0006803531 0.00013489356 -0.0017621763
000230 e4 d8 5f 38 e2 3b 37 ba 5c 83 8b ba a7 29 b0 3a
       5.336934e-05 -0.0006989819 -0.0010644007 0.0013440148
000240 cb c7 41 bb e6 61 18 39 62 b2 fd 3a 23 db 65 bb
       -0.0029568549 0.0001453232 0.001935553 -0.0035073243
000250 47 c2 26 bb 1d 6f 27 bb a2 86 05 3b f8 7e 47 ba
       -0.0025445388 -0.0025548406 0.0020374437 -0.00076101674
000260 49 58 5d bb f0 81 6a ba d6 58 bc 3a 3f 35 9b bb
       -0.0033774546 -0.0008945754 0.0014369737 -0.004736572
000270 11 7b 7b bb af 18 a5 ba a4 06 db bb ab 82 70 bb
       -0.0038372914 -0.0012595857 -0.0066841412 -0.0036698978
000280 d3 79 a5 ba 46 63 e1 3a 7d 1c 62 ba df 1c 68 bb
       -0.0012624807 0.0017195723 -0.0008625461 -0.00354176
000290 a4 a4 f2 ba 9f 7d 56 ba 8a 09 88 bb 07 87 3e bb
       -0.0018512201 -0.0008182171 -0.004151528 -0.0029072182
0002a0 c9 b9 46 bb 2e 49 df ba 1e bc b1 3a 3f 3b 64 ba
       -0.003032314 -0.0017035359 0.0013560092 -0.0008706338
0002b0 a2 ce 35 3b 7d 8c 1d bb 21 b2 3b b9 57 e5 2f ba
       0.002774157 -0.0024040036 -0.00017900068 -0.00067098945
0002c0 41 36 d7 ba bf 58 1e 3b d5 4d 34 b9 60 ed 87 ba
       -0.0016419367 0.0024161784 -0.00017195132 -0.0010370426
0002d0 1c a2 45 bb 93 73 3d b7 8b c7 4b 3b ab 51 e3 bb
       -0.003015644 -1.1292187e-05 0.0031094279 -0.006937226
0002e0 ab a7 69 ba 24 40 ce ba 47 03 ce bb 9f e5 8e 39
       -0.0008913229 -0.0015735668 -0.006287012 0.00027255432
0002f0 91 da 9a 36 35 95 d2 3a e0 05 60 bb c5 6c ce bb
       4.615002e-06 0.0016066196 -0.003418319 -0.0062995874
000300 25 4d 63 3a 70 6c d8 ba 55 5e 79 bb 3d bf c2 ba
       0.0008670858 -0.0016511809 -0.003805061 -0.0014858019
000310 9d bf ca b9 22 ed d7 3b 3b 42 04 3b 9c a2 a9 b9
       -0.00038671205 0.0065895477 0.0020181078 -0.00032355345
000320 f0 94 67 bb 14 37 6e 3a 08 31 2c bb f9 d4 d5 39
       -0.0035336576 0.0009087187 -0.0026274342 0.00040785203
000330 16 3c 8c bb b6 ae bd 3b ea 12 8a bb 3a c5 36 ba
       -0.0042796237 0.0057886494 -0.0042136805 -0.0006972138
000340 bb 61 22 bb 80 fc 38 bb cd 99 30 3b d9 e2 8c bb
       -0.002477749 -0.0028226674 0.002694714 -0.0042995033
000350 d3 cf 6e 3b 02 05 6e b9 d5 bd 0c 3b 12 df d6 b9
       0.003643979 -0.00022699314 0.0021475453 -0.0004098346
000360 91 14 38 bb dc 04 8e bb a8 e4 b0 b9 79 81 84 3a
       -0.002808843 -0.0043340754 -0.00033739698 0.0010109387
000370 a4 c5 38 bb 0b a1 25 3a 24 38 20 3a e8 30 bf bb
       -0.0028193975 0.0006318248 0.0006111881 -0.0058346875
000380 cb f3 37 bb 2c f8 ff 37 41 7e 90 bb 35 7c 72 b9
       -0.0028068896 3.0513933e-05 -0.004409582 -0.00023125189
000390 cc 32 7f b9 9b a9 72 3a 10 7c 93 b9 29 dd 1d bb
       -0.00024337618 0.00092568406 -0.0002813046 -0.002408812
0003a0 c5 2d b3 ba 3d 42 8f b9 ff d1 12 ba 96 01 8f b9
       -0.0013670257 -0.00027324437 -0.000560075 -0.00027276267
0003b0 75 a2 22 3b f6 c7 01 bb d5 26 38 bb 28 ff 52 ba
       0.002481607 -0.0019803024 -0.0028099318 -0.00080488855
0003c0 49 b7 c1 ba cf e4 8b 39 e7 71 f9 ba f9 b1 d3 39
       -0.0014779355 0.00026682622 -0.0019031138 0.00040377656
0003d0 f8 a4 8b bb cd 92 8b 39 83 97 e5 3a ea ea d3 b9
       -0.004261609 0.0002662152 0.0017516467 -0.0004042008
0003e0 da 85 e8 bb a4 1d 90 ba 3d 8e 7b 3a 5d 65 1c bb
       -0.0070960345 -0.0010995162 0.00095960853 -0.0023864128
0003f0 98 3c 77 3b fd cf a0 ba 73 58 e6 bb 7e b6 fc b9
       0.0037725326 -0.0012269017 -0.007029587 -0.00048201153

network_body.linear_encoder.seq_layers.2.weight f4 [256, 256]
000000 bf 01 61 3c 7c 50 07 3d 31 d8 cc 3c 60 32 b4 3d
       0.013733326 0.03303574 0.025005432 0.08798671
000010 ce 14 5b bd f0 9c 55 3d ad b6 93 bc 06 96 91 bd
       -0.053486638 0.05215162 -0.018031443 -0.07108693
000020 5d 8b d0 bd 20 55 8d 3c b1 8e b7 bd 92 96 65 bd
       -0.101828314 0.017252505 -0.08962763 -0.0560518
000030 15 60 ec 3c 02 d0 a8 3d 4b 16 31 3c 3e 57 29 3d
       0.02885441 0.08242799 0.010808538 0.041342966
000040 af 1b 28 3d a1 d3 02 be 79 f4 00 3d 86 af 1c be
       0.041042026 -0.12776043 0.031483147 -0.15301332
000050 49 a3 66 3c a4 98 05 bd e9 64 ba 3c 95 ae 90 3d
       0.014077016 -0.032616273 0.022753196 0.07064549
000060 ba 47 26 3e ee 2c a4 bd 58 85 0c 3c 71 50 f8 bd
       0.16238299 -0.08016382 0.0085767135 -0.12124718
000070 b8 a2 0b 3d 9d ea 2c 3d e9 ce 9f 3c c3 d1 d9 bd
       0.034090728 0.042215932 0.019507842 -0.10635712
000080 7b 78 a6 3d de ef 0f bc 75 2f 24 3e c4 8d 1d 3d
       0.081284486 -0.008785216 0.16033728 0.038465276
000090 b6 c2 9d bc 51 74 69 bd 58 0b 3a 3d e6 65 aa 3d
       -0.019257884 -0.056995694 0.045420974 0.08320217
0000a0 d5 cc 0e bc 3b e1 42 bd ad 42 a9 bd 02 73 f4 bd
       -0.008715828 -0.047578078 -0.082646705 -0.119359985
0000b0 f1 70 97 bd 94 17 81 3c df 5b c5 3c bb 82 95 3d
       -0.07394589 0.015758313 0.02409166 0.073003255
0000c0 ce 55 45 3a de ae 87 3d 01 9a 67 3d ce 33 78 bc
       0.00075277395 0.0662515 0.056543354 -0.01514907
0000d0 17 2a 6c 3d eb 98 b7 3d 03 64 5b bc 12 9a 3f 3c
       0.057657328 0.08964714 -0.013390544 0.011694448
0000e0 a5 1a aa 3d 4f 05 33 3c 34 df cb 3c ca 4e ab 3d
       0.08305863 0.010926559 0.024886705 0.08364637
0000f0 1e 85 0d bc 46 3a 19 bd bd b2 bb 3d e8 c7 03 be
       -0.008637695 -0.03740909 0.09164951 -0.12869227
000100 8e 2c 14 3d bd 18 1d 3d 05 60 ad 3d 50 47 1a 3e
       0.036175303 0.03835367 0.0846558 0.15066266
000110 de 99 bd 3d bd 72 6f 3c 4c aa 5e bb 9f a3 3f bd
       0.092578635 0.014614758 -0.0033976017 -0.0467869
000120 33 cf e5 bc 2e 4b 43 3d c5 ff b3 bd a4 ef 12 3e
       -0.028052902 0.04767912 -0.087890185 0.14349228
000130 66 4e 52 3d c6 3d c0 bd c1 ca 05 3d 24 69 86 3c
       0.051344298 -0.09386782 0.032664064 0.016407557
000140 8d 71 26 3c fa dc 75 3d 82 8d 55 bd 18 a5 8e bc
       0.010158909 0.060025193 -0.052136905 -0.017412707
000150 71 9c 4f bd da 4f 02 bd ba 8a 92 3c 3c b1 fa bc
       -0.050686304 -0.031814434 0.017888416 -0.03060209
000160 35 0a 42 bd 56 02 aa bc 0d b3 85 bd 4b 78 eb bc
       -0.047373015 -0.020753067 -0.06528292 -0.028743884
000170 a5 c6 90 3d 00 59 73 3d a5 2e 86 bc 71 de 4c bd
       0.070691384 0.05941105 -0.016379664 -0.050016824
000180 4d 6a 14 be e3 d2 dc 3d 3e da d3 bc 81 91 87 bd
       -0.14493676 0.10782411 -0.025860902 -0.066195495
000190 42 43 72 bd 88 01 18 3d 26 ab 0b bd 96 5c 3f bc
       -0.059146173 0.037110835 -0.034098767 -0.011679789
0001a0 ea 59 8d 3c e5 da 09 bd 5b ce 62 bd 3c 6b 9e bb
       0.017254788 -0.03365602 -0.055372577 -0.0048345607
0001b0 e7 8c c4 3c b4 40 19 bd d9 4a b8 3d 16 e4 97 3d
       0.023992969 -0.03741522 0.08998651 0.07416551
0001c0 99 95 82 bd 78 40 89 3b 19 28 b4 3c 75 cf 4f 3c
       -0.0637619 0.0041885935 0.021991776 0.012683739
0001d0 da 1e 35 3d a1 26 1b bc 22 c1 5e 3d 1e 99 11 3d
       0.044218875 -0.009469659 0.054383405 0.035546415
0001e0 e9 ed 7f 3c 92 63 1f 3e 98 4e 84 bc 30 d0 fe bc
       0.015620687 0.15565327 -0.016150758 -0.03110513
0001f0 f6 fe c2 bd f6 cd 91 bb 23 fb a2 bd 40 fc c5 bb
       -0.09521286 -0.0044496013 -0.07958057 -0.0060420334
000200 d4 5f b6 bd ce dc 0c bc f9 64 06 3d ba c5 19 be
       -0.089049965 -0.008597566 0.03281114 -0.15016833
000210 46 2f 14 bd 5f 82 e3 3c e9 3b 71 bd 11 14 09 bc
       -0.036177896 0.027772127 -0.058895025 -0.008366601
000220 a2 3d a6 3d db a4 d5 bc 76 de 16 3c 6d 6b c9 bc
       0.08117224 -0.026079586 0.009208312 -0.024587357
000230 7a 07 b1 bd ab f3 08 bd 73 d2 ab bb c6 d8 9e 3d
       -0.08644004 -0.033435505 -0.0052435934 0.0775619
000240 1b 4a e4 bb 7a e3 83 bc 68 6e c7 3d 52 db 66 bc
       -0.006966842 -0.01609968 0.09737855 -0.014090376
000250 ac f5 66 3d 4b a6 42 bc 9e 53 81 bc 13 2c 88 3b
       0.056386635 -0.011880468 -0.015786942 0.0041556447
000260 3d 47 df 3d f0 10 58 bd 92 89 ab bd 53 0d a8 bc
       0.109022595 -0.052750528 -0.08375849 -0.020514166
000270 a2 0d e4 bb 8a b5 18 3d 12 74 76 3d 2b 08 e3 bd
       -0.006959633 0.037282504 0.060169287 -0.11085542
000280 93 e1 85 3c 7b 1a 23 3d 96 65 0b 3e 34 2f df bb
       0.016342914 0.039820176 0.1361297 -0.006811047
000290 d8 07 92 3a c7 2d 7e bc f5 ec 27 3c da 64 ec bc
       0.0011141254 -0.015513844 0.010249366 -0.028856684
0002a0 0e a2 b2 bc cd 39 0f bd 3b a1 23 bd df 40 02 be
       -0.02180579 -0.034967232 -0.039948683 -0.12720059
0002b0 ab 24 81 3d 9d 63 78 bb 2b dc 3c 3d 71 3e 00 3e
       0.06305822 -0.003790117 0.046108406 0.1252382
0002c0 88 be 23 3d 6e 0e 54 3c b8 6e ac 3d 47 78 66 3d
       0.039976627 0.012942893 0.084195554 0.05626705
0002d0 5e 83 00 bd 1d 86 c8 ba d5 15 c5 3d 79 ac 1a 3d
       -0.03137528 -0.0015298758 0.09623305 0.03776214
0002e0 37 d3 f5 bb c9 27 f5 bc 04 53 f8 bc 15 8e 04 be
       -0.0075019854 -0.029926198 -0.030313022 -0.12944825
0002f0 60 bc b6 3a c1 3b e5 3c 83 a3 75 bc 2d 99 99 bc
       0.0013941638 0.027982594 -0.0149925975 -0.018749798
000300 1a 8c e8 bb c1 ba 91 bd f3 a7 f5 bd 98 fc 5a bd
       -0.0070967795 -0.071156986 -0.119949244 -0.05346355
000310 63 9d a9 3b 5b 04 43 bd 8b 24 c0 bd 92 f2 49 3d
       0.0051762327 -0.047611576 -0.0938197 0.0493036
000320 39 41 ca bd 1d 7c c3 3d c7 e9 4d bd 1b 77 32 3c
       -0.098757215 0.09545157 -0.050271776 0.010892655
000330 00 e2 f6 bc d7 e5 70 3c 37 a9 fe 3c e2 7a 07 bd
       -0.030137062 0.014703236 0.031086547 -0.033076175
000340 ee 26 39 bd 3e 97 28 bc c8 b4 50 bd 12 99 b8 3c
       -0.045203142 -0.010289965 -0.050953656 0.022533927
000350 c9 82 82 3c 1e e3 7c bb 47 4e 18 3d a9 0e 44 3b
       0.015931504 -0.003858752 0.037184026 0.0029915965
000360 e1 43 d4 bc c3 fa 89 3d 73 e1 65 3d 44 d7 c5 bd
       -0.025911273 0.06737282 0.05612321 -0.09660199
000370 41 8a 06 3d 7b ad 5e bd d7 21 81 3c c0 20 cf 3d
       0.032846693 -0.054364663 0.015763206 0.101136684
000380 1d a5 18 3c 64 dc db bd 84 96 53 3d 44 94 33 3d
       0.00931671 -0.107353956 0.051657215 0.04384257
000390 ad fe 81 bb d2 dd 09 bd 49 74 01 be ec dd b2 bc
       -0.0039671273 -0.03365881 -0.12642016 -0.021834336
0003a0 4f 22 2d 3e d5 6b a2 3c cc 47 99 bd 7c 21 cf 3c
       0.16907619 0.019826809 -0.07484397 0.025284521
0003b0 88 ec 43 bd 03 a8 d3 bd cf 55 90 bc 93 84 89 3d
       -0.047832996 -0.1033478 -0.017619042 0.0671474
0003c0 ca f1 c1 3d 35 b2 f0 bd 5e 52 ce 3c 76 55 29 bd
       0.09469946 -0.1175274 0.02518576 -0.041341268
0003d0 9f 88 0e bd d7 47 db bd d9 db 9c 3b 51 63 aa bc
       -0.03479826 -0.10707062 0.00478695 -0.02079931
0003e0 66 3b 95 3c 5c 96 a4 3c 3e 3b 8b 3d da d7 a3 3b
       0.0182168 0.020091228 0.06798409 0.0050000967
0003f0 08 d0 ed bc de d4 d5 3b f2 43 3c 3d b4 92 b2 3c
       -0.029029861 0.00652562 0.045963235 0.02179847

network_body.linear_encoder.seq_layers.2.bias f4 [256]
000000 a1 ab 2f ba dc 8f e8 ba 70 48 22 bb be 4e 01 bb
       -0.0006701295 -0.0017743069 -0.0024762414 -0.0019730772
000010 0b 8e 6d b9 2b 38 96 ba e1 34 0c bb b8 05 04 ba
       -0.00022654996 -0.0011460831 -0.0021393823 -0.00050362526
000020 84 64 ff 3a 94 0a 1f bb 1f 75 ed ba 1f 8b 8b bb
       0.0019484912 -0.002426778 -0.001811657 -0.004258528
000030 05 0b f2 38 b7 5c 76 bb bc 24 3c bb b9 a5 02 bb
       0.00011541512 -0.0037591883 -0.0028708419 -0.0019935204
000040 19 f0 9c ba 44 b6 5b ba 94 f4 c1 ba 1d 51 65 39
       -0.001197341 -0.00083813467 -0.0014797621 0.00021869359
000050 7d 3f 8c bb 94 b8 8c ba c0 3c 6f ba f3 b7 d3 3b
       -0.0042800293 -0.0010736161 -0.0009126179 0.0064611374
000060 5d 0e fa 3a 05 e3 66 bb c4 06 02 ba e5 c0 fe b9
       0.0019077767 -0.003523053 -0.00049601146 -0.00048590373
000070 7c 59 fd 3a 36 2d d5 39 eb e9 9c bb ab aa 27 3a
       0.0019329037 0.0004066021 -0.0047886274 0.0006395976
000080 39 52 6a 3b a2 0c 5b ba a3 a9 96 bb 90 f7 35 bb
       0.0035754575 -0.00083560694 -0.004597859 -0.0027765967
000090 bc 33 a6 ba 8b 08 51 ba 13 d9 11 3b ee 05 5f bb
       -0.0012680213 -0.000797399 0.002225463 -0.0034030634
0000a0 7d 6e e7 ba 80 b6 58 ba 73 e6 db b9 34 68 99 bb
       -0.001765683 -0.0008266941 -0.00041942633 -0.0046816114
0000b0 bb 6e 73 ba 30 22 97 3a 39 d7 2d bb cd 76 4c 3b
       -0.00092862145 0.0011530574 -0.0026525988 0.003119874
0000c0 43 29 fe ba 14 2e e8 39 34 c0 1b ba 32 18 9c ba
       -0.0019390959 0.0004428482 -0.0005941421 -0.0011909066
0000d0 63 47 4d b9 77 b1 c6 b9 36 a8 c8 3a c2 2f 7a ba
       -0.00019576917 -0.00037897725 0.001530892 -0.00095438596
0000e0 dc ed a1 3a bd cf 89 3a a5 6e 88 3b 54 c7 ac 39
       0.0012354213 0.0010514181 0.0041635805 0.00032954908
0000f0 96 fa 6a ba cb 02 53 ba 4c 22 6c 39 08 b4 28 3a
       -0.0008963732 -0.00080494274 0.0002251949 0.0006435518
000100 4a 36 a1 ba 24 b0 a9 ba 56 8d 29 bb 12 5a 2b ba
       -0.0012299505 -0.0012946171 -0.0025871596 -0.0006536554
000110 72 e0 f7 39 6a 15 6d bb 4c c9 5e ba b1 df 8f ba
       0.00047278736 -0.0036176094 -0.00084986235 -0.0010976699
000120 da 35 55 b8 d0 0c b7 b9 0f 16 ab 3a 70 6a 97 39
       -5.083331e-05 -0.00034914026 0.0013052839 0.00028880266
000130 47 cf 47 39 59 fe 01 3a 36 7a cd 39 d5 1b 9b ba
       0.00019055336 0.000495886 0.000391917 -0.0011833856
000140 2b 2f 92 ba 2f 81 31 ba 81 6d 41 b9 55 49 1e bb
       -0.0011152973 -0.0006771264 -0.00018446708 -0.0024152596
000150 4a 0b ae ba 3b d5 0a 39 da 29 84 b5 ba 4a 03 b9
       -0.0013278511 0.0001324014 -9.846947e-07 -0.00012520971
000160 a5 37 90 ba 1d ef 7f 39 2c ad 80 ba 70 bc 77 bb
       -0.0011002911 0.00024407772 -0.0009817234 -0.0037801526
000170 39 91 88 ba 28 7d 37 37 09 9d 2b bb ef e9 28 ba
       -0.0010419256 1.093679e-05 -0.002618613 -0.000644355
000180 0b 59 45 bb 07 cd 94 ba 05 0a 10 bb 7c 1a a4 bb
       -0.0030112888 -0.0011352607 -0.0021978628 -0.00500804
000190 cd 36 a2 3a 86 c9 8b ba ca fa ca 3a 9f 54 d6 39
       0.0012375951 -0.0010664917 0.0015486118 0.00040880308
0001a0 9e bd 32 3a 83 73 c5 ba 28 48 21 3a 03 1c 2e 3a
       0.00068184163 -0.0015064332 0.0006152415 0.00066417473
0001b0 76 87 94 3a f6 f9 77 bb c3 55 ce 3a e3 5f 0d ba
       0.0011331874 -0.0037838197 0.0015742112 -0.00053930114
0001c0 1d 5e b3 ba e3 f1 58 b8 4e 1e 0a 3a ed c3 f0 b8
       -0.0013684664 -5.1723688e-05 0.0005268798 -0.00011480586
0001d0 48 8d 54 bb a2 84 d7 ba 74 c8 07 b9 b8 6f 8d 3a
       -0.0032432843 -0.0016442726 -0.00012949278 0.0010790741
0001e0 e2 16 8e ba af 37 51 ba 97 aa 4e bb ef 88 3b bb
       -0.001084056 -0.0007981015 -0.0031534785 -0.0028615554
0001f0 7b 72 c0 b9 c8 9a f2 bb 74 ef fd ba 77 30 60 3a
       -0.00036706388 -0.0074037053 -0.0019373731 0.00085521437
000200 5d 3b 30 bb 8d 76 36 bb ba 1f 93 39 bc cc 57 bb
       -0.0026890852 -0.0027841658 0.00028061663 -0.0032928428
000210 79 89 88 ba 77 04 b4 b9 ed 20 6c 3a 67 b7 52 3b
       -0.0010416947 -0.00034335602 0.0009007592 0.0032152773
000220 a3 a2 fa b9 22 6e ed ba d3 15 aa bb d6 8f 3d ba
       -0.0004780489 -0.0018114487 -0.00519059 -0.0007231211
000230 89 7e 25 bb 4c b7 9c ba 6b e2 cd 38 dd a2 cb ba
       -0.0025252423 -0.0011956482 9.8173354e-05 -0.0015536208
000240 0f 51 bb ba 51 e5 86 3b 8b 6a 22 3b f4 b9 cb ba
       -0.0014291125 0.004116692 0.0024782743 -0.0015543089
000250 77 a0 0c ba 20 e3 9a ba a7 5d 80 bb 34 c2 80 3a
       -0.00053644873 -0.0011816956 -0.003917414 0.0009823502
000260 10 4a 55 3a 8f b2 a5 b9 dd 9c bf b9 47 db df ba
       0.00081363413 -0.0003160429 -0.0003654723 -0.00170789
000270 9e e7 8c bb 1b c4 38 39 1f ba aa 3a 4e 8a 48 bb
       -0.004300072 0.00017620662 0.0013025439 -0.0030600014
000280 b8 30 19 b8 20 13 25 bb 27 c7 45 3a 12 e4 9d ba
       -3.6523415e-05 -0.0025188401 0.00075446296 -0.001204612
000290 68 78 a5 38 67 52 0c bb fe 12 b2 ba 98 b6 94 ba
       7.8902405e-05 -0.002141142 -0.0013585982 -0.0011345921
0002a0 ce e8 f5 b4 ef 12 90 bb 51 d0 84 ba cf c1 26 bb
       -4.5804194e-07 -0.0043967883 -0.0010132884 -0.0025445109
0002b0 85 d6 37 38 1a 34 c1 ba 61 ac d1 39 19 37 a0 ba
       4.3830387e-05 -0.0014740259 0.0003999202 -0.0012223452
0002c0 22 d6 03 bb 33 d3 4a b9 af 16 95 ba c4 2e 90 3b
       -0.0020116647 -0.00019342899 -0.0011374558 0.004400106
0002d0 1f 9c f0 ba 1a 91 88 bb e3 02 3c bb 32 24 d8 39
       -0.0018357075 -0.004167688 -0.0028688244 0.00041225698
0002e0 2a 17 c9 b9 8f 19 51 ba ec 87 df b9 99 44 16 ba
       -0.00038354966 -0.0007976526 -0.00042635144 -0.0005732268
0002f0 45 38 1b bb ad 3e 3d 3a a0 42 28 bb f3 ce 04 ba
       -0.0023684662 0.0007219117 -0.0025674477 -0.0005066238
000300 6c 73 c7 bb 96 93 98 b9 c1 01 1a ba 7a 56 4a ba
       -0.0060867574 -0.0002910166 -0.0005874895 -0.00077185745
000310 0e 00 84 ba bb d1 30 ba 90 b6 54 bb 9c 26 47 b9
       -0.0010070817 -0.00067451195 -0.0032457449 -0.00018992502
000320 25 7f c5 b9 05 db 88 bb 45 65 90 38 35 0f 34 3a
       -0.00037669498 -0.0041765 6.885318e-05 0.0006868721
000330 12 3d 86 ba 70 12 82 bb ae f0 b4 ba cc 9c 2b bb
       -0.0010241589 -0.003969483 -0.0013804638 -0.0026185988
000340 f8 6e 48 3b 77 3a 1e bb a5 16 2a ba ff 7d e8 bb
       0.003058372 -0.0024143734 -0.00064883596 -0.007095098
000350 47 59 ec b8 6a 4b 6c bb e2 45 56 ba bb 62 ac b8
       -0.00011269986 -0.0036055692 -0.00081738655 -8.219989e-05
000360 78 26 64 3a 80 f5 8e bb 5a f0 97 ba 55 e1 28 bb
       0.0008703242 -0.004362762 -0.0011592016 -0.0025769074
000370 74 f5 c9 ba be 11 2c ba 53 9e a5 3a a0 cf 59 bb
       -0.0015408234 -0.0006563923 0.0012635685 -0.0033235326
000380 f3 73 86 bb 75 a3 b9 ba 3d 4c c0 bb 19 be 03 ba
       -0.0041031777 -0.0014163094 -0.0058684633 -0.000502558
000390 e9 96 1d bb f1 22 7d ba 88 29 10 bb 2f 74 5d bb
       -0.0024046248 -0.0009656391 -0.002199741 -0.0033791175
0003a0 49 f8 5a bb f8 79 a5 ba f2 52 7e ba 03 7c 99 b9
       -0.003341215 -0.001262485 -0.0009701691 -0.0002927483
0003b0 4d b8 0d bb 87 94 0b 3b f0 d6 25 b8 f4 9f b8 bb
       -0.0021624744 0.0021298246 -3.953924e-05 -0.0056343023
0003c0 11 ac b6 3a bc 41 63 3a 2e 94 ae 3b 39 ce 9f ba
       0.0013936778 0.0008669158 0.005327723 -0.0012192196
0003d0 2a f4 b2 b9 f9 71 90 bb 94 b1 2e 3a 4c af 33 b9
       -0.00034132722 -0.004408118 0.00066640344 -0.00017136073
0003e0 52 bf 02 bb 46 3c 12 bb ea bf df ba d1 9b e7 38
       -0.0019950462 -0.0022313758 -0.0017070745 0.000110439614
0003f0 e2 f9 c8 3a 21 43 86 3a e1 6d 40 b9 c5 b7 b9 b8
       0.001533326 0.0010243395 -0.0001835148 -8.855717e-05

network_body.linear_encoder.seq_layers.4.weight f4 [256, 256]
000000 6b 8c 98 bd 4d 4e 5e 3c e3 26 39 bd 89 78 17 bd
       -0.074486576 0.013568473 -0.0452031 -0.036980186
000010 3b 92 a2 3d c8 a7 8d bd 0b e3 eb 3c 34 30 95 3c
       0.079380475 -0.06916767 0.028794786 0.018211462
000020 31 15 8d bd 82 19 16 3e e9 0f d7 bd cb ff 71 3c
       -0.068888076 0.14658168 -0.105010815 0.014770458
000030 3f 53 45 bc 06 bf af 3c 14 de 0f bd 42 6e ed 3d
       -0.012043773 0.021453392 -0.0351239 0.11593296
000040 48 88 67 bd a5 49 3e 3d c0 6f 5d bc 3e 7c 74 bc
       -0.056526452 0.04645695 -0.013515413 -0.0149222
000050 1a 6e ef bd d1 4d 8f bd 94 87 ab bc cc 45 0e 3d
       -0.11690922 -0.06997264 -0.020938672 0.034734532
000060 84 e5 35 3c 67 02 d7 bd 0c b7 99 bd 23 35 3d bd
       0.011102084 -0.10498505 -0.075056165 -0.046193253
000070 c9 c2 8f 3d 92 77 83 bd 68 75 d2 39 25 fb bc 3d
       0.07019574 -0.064192906 0.00040141796 0.092275895
000080 3b e6 d1 3d 9a 08 2f 3e cf 61 c5 bc 9f 4e 34 ba
       0.10248991 0.17093125 -0.02409449 -0.00068781705
000090 f4 c4 25 be 2e 3a 25 3c 49 ee 9b 3c a7 c6 0a bd
       -0.16188413 0.010084672 0.019034522 -0.033880856
0000a0 aa 4a f5 3d ef 78 93 3d 4f a7 22 3d 1f fe 2d 3d
       0.11977132 0.072008006 0.03971034 0.042478677
0000b0 69 49 e3 bd 0d b3 15 3d 81 fc 36 3c cd 6c 74 3d
       -0.11097986 0.03654771 0.0111686 0.059674073
0000c0 df e5 d8 3c 91 1e 95 3c 67 1d 16 3e 9a f8 73 3c
       0.026476799 0.018203052 0.14659654 0.014890814
0000d0 18 50 10 3c db bd dc 3c 39 d0 e8 bb 23 21 96 bc
       0.008808158 0.026945999 -0.0071049 -0.018326348
0000e0 17 64 60 bc 2c 0d c3 3c 5e bb db bc 91 09 e5 3b
       -0.013695738 0.023809992 -0.026822742 0.006989666
0000f0 e2 a4 3e 3d 2a 26 8a 3c 1c ba e4 bb cf da 0f 3e
       0.046543963 0.016863901 -0.006980194 0.14048313
000100 ad 17 5b 3d 95 5e 87 bd 8c 0d 42 3d 91 5b e4 3d
       0.053489376 -0.06609837 0.0473762 0.111502774
000110 ca 16 2e bc 61 35 92 bd 04 80 80 3c 5d 1a e2 3d
       -0.0106255505 -0.071390875 0.015686043 0.11040185
000120 84 07 1c 3d 31 5b 5e bd 6a 25 41 bd a3 1b b0 bd
       0.038093105 -0.054286186 -0.04715482 -0.08599021
000130 6e eb 5e 3d 3e a1 55 3d 22 65 0a 3d d4 be c4 bd
       0.054423742 0.052155726 0.033787854 -0.0960671
000140 a5 b3 22 bd a9 f3 dc 3c b6 6d 9b bd 72 55 71 3d
       -0.039722104 0.026971655 -0.07589285 0.058919378
000150 cd 09 31 be 0e f3 04 3d 74 8c 74 3c 64 f7 24 bd
       -0.17288895 0.032458358 0.014926065 -0.040274993
000160 0a ff 72 3a c2 27 b1 bc de 88 ff bc ed e8 9b bd
       0.0009269571 -0.021625403 -0.031193193 -0.076127864
000170 08 17 0a be eb c4 90 bd 7f 54 db bc a0 5d 0a bd
       -0.13485348 -0.07068809 -0.02677369 -0.033780694
000180 0e 4b 95 3d 14 86 71 bc db 82 dc 3d 3d ea 53 be
       0.07289706 -0.014741439 0.10767146 -0.20694824
000190 d9 61 d5 3d 79 83 46 bd 2a b0 2c bd 4e 57 b6 bb
       0.104190536 -0.048465226 -0.04216019 -0.0055646067
0001a0 4f 0b 10 3d fb 11 9f bd 30 72 8b 3d 6a c4 9c 3d
       0.035167035 -0.077671014 0.06808889 0.076546505
0001b0 c3 71 07 bd a2 86 d6 bd 00 c1 02 be 18 b3 bd bc
       -0.033067476 -0.10474898 -0.12768936 -0.023156688
0001c0 5e 34 85 bc a2 29 5c 3d 10 9a 67 3d 22 20 40 3d
       -0.016260322 0.05375064 0.05654341 0.046905644
0001d0 1e 4b 3a 3c b3 0b 4e bd 89 7b 5b bd 5a 11 ab 3d
       0.011370448 -0.050304126 -0.05358461 0.08352919
0001e0 99 d9 ac 3d e2 e3 15 3d 8f f4 c6 bc 6e af a4 bd
       0.08439941 0.03659428 -0.024286536 -0.08041273
0001f0 4d a0 bd 3c 5d fa 97 3d 10 82 0d bc 10 b3 3a bd
       0.023147726 0.074208 -0.008636966 -0.045580924
000200 91 f5 e2 3d 3b 94 48 bd 36 f0 46 bd 26 63 ae 3d
       0.11081994 -0.04896949 -0.048568927 0.08515005
000210 8d 7c c9 3c 09 40 92 3d c0 d5 4c bc c6 8c d6 3d
       0.024595523 0.0714112 -0.012502134 0.10476069
000220 71 62 67 3d b4 35 1b 3d ea dc ec bb fe 43 93 3c
       0.056490365 0.037893012 -0.0072284834 0.017976757
000230 e4 a2 bf 3c a7 f1 f7 3c ba fb 45 be 62 e4 1d bd
       0.023393102 0.030266596 -0.19334307 -0.03854788
000240 59 0e 8b 3d 2c f1 ba 3d 04 bf 53 3d 26 99 1a 3e
       0.06789846 0.09128031 0.05169584 0.15097484
000250 15 60 6b 3d 69 34 93 3d dd 72 41 3c 33 5b ac 3b
       0.057464678 0.07187731 0.011807171 0.005259895
000260 c2 7a 8e 3d 1d ab 93 bd 9b 24 35 bd c4 16 10 bc
       0.06957008 -0.07210372 -0.044224363 -0.00879449
000270 32 3c c3 3d 5a d7 3f 3d e9 45 23 3d 8c cd 7d 3c
       0.09532966 0.046836235 0.039861593 0.015490901
000280 37 0b 9c 3c 83 04 cb bc 13 cb a8 bc 0d 69 7c bc
       0.019048316 -0.024782425 -0.020604646 -0.015405905
000290 83 02 3b bd 3d 0a a1 bd 26 5a 93 bd 14 ba f3 3c
       -0.045656692 -0.07863281 -0.07194929 0.029751815
0002a0 93 af 06 bd ed b8 0f 3d f4 80 60 bb 36 24 55 3b
       -0.032882284 0.03508847 -0.003425655 0.0032522804
0002b0 a0 5c 91 3d de 1f b3 bd f0 1c 02 3e 49 fe a3 3d
       0.07097745 -0.087463126 0.12706351 0.080074854
0002c0 54 80 8c 3c 26 64 2f bc 94 9c da 3c 49 82 43 bd
       0.017151035 -0.01070503 0.02668599 -0.04773167
0002d0 e9 3a 1d 3d b5 2a 07 3b 49 0a ae bd 19 de 67 3d
       0.03838626 0.002062482 -0.084980555 0.056608293
0002e0 34 06 4e bd 54 ed ac 3b e4 46 dc bd 68 e2 83 3d
       -0.050298885 0.005277315 -0.10755709 0.06439668
0002f0 fc 0a ce 3d f0 b1 b8 3d 41 1e 93 3d bb d6 8a bd
       0.10060689 0.09018314 0.07183505 -0.06779238
000300 6d b1 06 3d 6c 37 4e 3d 62 37 9b 3d d7 37 7d bc
       0.03288405 0.050345823 0.07578923 -0.015455208
000310 88 cc 81 bd 98 9a 0d 3e 7f f2 1a 3e f5 a0 8c bd
       -0.06337839 0.13828504 0.15131567 -0.068666376
000320 3e 68 7c 3d 2b 69 a0 3d fc 5d a2 3d b8 f7 97 3b
       0.06162285 0.07832559 0.07928082 0.0046376847
000330 71 75 97 3d 32 42 c0 bd 24 9e 64 3c fa bc 68 bd
       0.07395447 -0.09387626 0.013953719 -0.056820847
000340 fd 88 70 3d 86 91 4f bd 3b 82 35 bd 8e a6 52 3d
       0.058724392 -0.05067589 -0.04431365 0.05142837
000350 cf c1 be 3b 8d 1f 23 3e 36 0f 9e bc 4f 34 d3 bd
       0.0058214436 0.15930004 -0.019294363 -0.103127114
000360 2e a4 11 bb af 55 c8 3d a6 77 c9 bd 6c 14 d6 3c
       -0.0022223103 0.09781968 -0.09837274 0.026132785
000370 a1 80 f0 3c 76 bb 17 be c1 88 c4 bd ac 12 7c bd
       0.02935821 -0.14817604 -0.09596396 -0.061541244
000380 70 f5 e0 3c 97 b8 be 3c 4c 37 08 3d 96 50 26 3d
       0.027460784 0.023281379 0.03325586 0.040604196
000390 f0 db 8d 3d f7 11 fb bb 4a 03 e0 3b 8b 31 2d 3d
       0.069267154 -0.0076620537 0.0068363296 0.042283576
0003a0 93 e4 66 3d 13 b2 3b bd 04 f8 32 3d 4b 72 d4 3b
       0.05637033 -0.04582412 0.043693557 0.0064833513
0003b0 7d a5 4e 3d 7a b1 44 3c ed 7c 83 3d 7b d3 23 3d
       0.05045079 0.012005204 0.06420312 0.039996605
0003c0 64 09 11 3c d7 fb a7 3d 10 68 a4 3b dd e0 8b bd
       0.008852337 0.082023315 0.005017288 -0.06829999
0003d0 b7 11 23 3d 7c 57 b5 bd 58 e5 c8 3c a8 08 48 3d
       0.039811816 -0.08854577 0.024523422 0.04883638
0003e0 bb 10 88 bd 67 0f 0b bd d1 08 3b bc 29 96 10 3d
       -0.06643816 -0.033950236 -0.011415676 0.035299454
0003f0 04 e0 84 3c 62 65 af 3c 85 49 0f be 01 b3 29 3c
       0.0162201 0.021410648 -0.13992889 0.010357619

network_body.linear_encoder.seq_layers.4.bias f4 [256]
000000 2b 23 89 b8 4c 95 e5 ba 48 98 32 38 21 c3 81 ba
       -6.5392196e-05 -0.0017515807 4.258033e-05 -0.0009900072
000010 4c b4 0c 39 b6 46 09 b9 f3 da 1e bb e4 d8 83 b8
       0.00013418606 -0.0001309168 -0.002423939 -6.286966e-05
000020 e7 c8 0e bb 1a a0 44 3b 2d fa 38 3a 95 15 17 3a
       -0.0021787228 0.0030002655 0.0007056322 0.0005763409
000030 84 27 5c ba f3 e6 8d bb f3 ca a1 ba 0d 86 0d ba
       -0.0008398222 -0.00433051 -0.0012343809 -0.0005398698
000040 99 51 d0 b9 c8 21 03 39 f3 a2 93 ba 76 24 f6 bb
       -0.00039733647 0.00012505718 -0.0011263773 -0.0075116707
000050 68 c9 90 3b 41 44 d7 ba d6 cd 0d 38 9e d5 0a bb
       0.0044185407 -0.001642354 3.380872e-05 -0.0021184455
000060 57 0d 80 ba f8 c2 90 b8 26 c4 bb 37 35 4b c8 38
       -0.0009769601 -6.902771e-05 2.2383476e-05 9.5507516e-05
000070 2f e6 d5 b9 8b 10 72 ba 9d 36 d6 ba 08 88 e1 39
       -0.00040798026 -0.00092340325 -0.001634318 0.00043016695
000080 be af 6f ba 9f 02 90 ba 31 02 0f bb 32 53 9d 39
       -0.0009143314 -0.0010987109 -0.0021821375 0.0003000736
000090 59 ea 32 b9 91 90 17 3b a6 b1 08 b9 2d 46 82 ba
       -0.00017062704 0.002312694 -0.0001303615 -0.0009939127
0000a0 4a a2 1c ba db 71 82 39 e0 5b fc ba f4 b0 b9 bb
       -0.00059751107 0.0002488036 -0.0019253455 -0.0056668464
0000b0 8e f5 56 38 d6 2f 85 3a e5 7d 54 ba c4 4e bd b9
       5.1250267e-05 0.0010161351 -0.0008105918 -0.00036107574
0000c0 8b 73 f3 b9 f7 62 87 3a 9a d7 9e 39 14 4d c9 ba
       -0.00046434658 0.0010329176 0.00030296744 -0.0015358054
0000d0 9a aa c4 3a 24 a1 da 3a 4d 54 30 bb f5 b6 2f 38
       0.0015004457 0.0016680104 -0.0026905716 4.1893643e-05
0000e0 49 80 a8 ba bb bd 5a bb f1 13 d9 b9 53 82 70 bb
       -0.0012855615 -0.0033377248 -0.00041404323 -0.0036698773
0000f0 5a 6e 2c ba e3 8b b0 ba 46 2e d3 ba 21 14 30 ba
       -0.0006577723 -0.0013469424 -0.0016111813 -0.00067168666
000100 6d a2 19 bb 78 78 8b bb 05 74 7c b9 6c b5 a9 bb
       -0.002344276 -0.0042563044 -0.00024075813 -0.005179098
000110 30 8e d5 b9 a2 6d 79 b9 20 c9 4e ba b6 d8 36 ba
       -0.00040732464 -0.00023787332 -0.00078882463 -0.00069750415
000120 35 39 a2 38 1f 7d 93 ba 49 08 52 bb 6c 2b 0b 3b
       7.7354176e-05 -0.0011252499 -0.0032048395 0.0021235598
000130 23 ac 7e 3a d4 69 2a 3b 5f ec a5 3a f4 a6 2b ba
       0.00097149814 0.002600302 0.0012658945 -0.000654801
000140 e6 77 3d ba 91 40 86 3b d6 03 be ba ec 53 ee b9
       -0.0007227644 0.0040970524 -0.0014496993 -0.00045457424
000150 7f ec 8e 3a 40 f2 5f bb fc a9 8e 38 92 df 92 39
       0.0010904222 -0.0034171492 6.80275e-05 0.00028013863
000160 f4 96 43 39 55 54 8b ba be 9d 97 b9 e2 0c 9a ba
       0.00018652884 -0.0010629991 -0.0002891849 -0.0011753107
000170 67 10 4f 3b 09 93 d6 ba 45 d5 1f 38 66 1b 66 3a
       0.003159547 -0.0016370724 3.8107177e-05 0.00087778864
000180 62 b9 1f 3b 74 06 19 3a 10 e0 e6 39 ac 3c 37 ba
       0.0024371971 0.00058374484 0.00044035958 -0.0006989937
000190 b2 2b 85 ba 92 48 a6 b9 d3 79 86 39 ae cf b5 39
       -0.0010160117 -0.00031716056 0.00025649238 0.00034677744
0001a0 36 e9 61 ba 1f 35 9c b9 0e 78 26 bb 15 ec dd 38
       -0.000861782 -0.00029794217 -0.0025401148 0.00010582075
0001b0 69 1d a4 ba 8b 11 5a b9 42 12 0b ba 00 81 8e ba
       -0.0012520972 -0.00020796635 -0.000530515 -0.0010872185
0001c0 44 c6 be b9 22 b7 84 bb 37 eb 07 39 24 3c 61 ba
       -0.00036387343 -0.0040501514 0.00012962228 -0.00085920305
0001d0 0c 84 5d ba 86 15 d2 b9 d1 36 4d bb 11 18 9e ba
       -0.00084501575 -0.00040070357 -0.003131319 -0.0012061616
0001e0 2e d7 b6 ba fb a4 e4 b8 34 1c 76 3a b1 6a 1b bb
       -0.0013949627 -0.00010902617 0.0009388358 -0.0023714716
0001f0 f7 39 f7 bb 5e a1 94 bb d7 04 fd 3a db 0e c6 b9
       -0.0075447517 -0.004535838 0.001930381 -0.0003777657
000200 4e d4 d1 ba 19 38 59 bb df 42 6f ba 25 1b 22 b9
       -0.0016008706 -0.003314501 -0.0009127091 -0.00015459636
000210 df 42 e4 3b 31 ba 93 bb 60 cd b9 b9 1b 2e af ba
       0.0069659795 -0.0045082797 -0.00035438966 -0.0013365181
000220 90 dd ab ba a5 05 2b ba e1 5b 91 ba a9 39 b4 ba
       -0.0013112295 -0.00065239734 -0.0011090004 -0.0013750094
000230 df 01 a1 ba e7 20 40 ba 28 fa ad 39 9c f1 09 ba
       -0.0012283883 -0.00073291216 0.00033183512 -0.0005262138
000240 52 47 59 ba 70 ae 11 3a 70 f4 ae bb 3b 33 42 b9
       -0.00082885206 0.0005557304 -0.005339198 -0.00018520367
000250 92 ad 4e ba 32 6a 83 bb b0 66 9c ba bf 95 63 bb
       -0.00078841404 -0.004010462 -0.0011932459 -0.0034726707
000260 79 4f a3 ba 55 76 2a bb 0f cf 62 ba a9 0f 82 bb
       -0.0012459598 -0.0026010473 -0.000865207 -0.003969152
000270 9c b9 24 bb d7 fd a1 bb 0e b7 c3 b9 9a ad eb 38
       -0.0025135046 -0.00494359 -0.00037329685 0.00011238009
000280 3d 56 60 b7 9c c5 0d 39 69 3c b5 39 c9 76 83 b9
       -1.3371519e-05 0.00013520423 0.0003456802 -0.0002507477
000290 70 14 86 ba 49 a2 84 38 0a 17 ab bb 6e 3b 65 bb
       -0.001022948 6.3244785e-05 -0.0052212523 -0.003497805
0002a0 98 e3 33 3a 43 5e 89 bb 15 3e 0d ba 91 a7 24 bb
       0.0006862222 -0.004192145 -0.0005387974 -0.0025124291
0002b0 c0 5b 77 3b c9 f3 7c 39 e9 fa 85 ba 7c 43 b7 bb
       0.0037743896 0.0002412341 -0.0010221872 -0.0055927616
0002c0 cc a4 cf b9 01 27 a0 bb 5a 19 81 39 66 3e c2 ba
       -0.000396049 -0.004887462 0.00024623686 -0.0014819622
0002d0 1c a0 fa 39 d9 12 09 bb 5f fb be 3b 80 5d 6d ba
       0.00047803007 -0.0020915775 0.0058283056 -0.0009054765
0002e0 0d 43 a9 bb 98 5b cc b9 51 4f 99 ba 32 c7 96 bb
       -0.005165464 -0.00038978155 -0.0011696612 -0.0046013827
0002f0 79 ea 15 ba c3 80 8f 3b 27 bb 3b 39 3e 31 54 3a
       -0.0005718838 0.0043793633 0.0001790343 0.0008094496
000300 0e 02 06 3a 8a 94 2e bb c1 9f a6 ba a5 0c 00 3a
       0.00051120005 -0.002663883 -0.0012712405 0.00048846967
000310 ea 8f a0 b9 c3 9e 4a ba 87 ab ca 3a 00 16 63 3b
       -0.00030624802 -0.0007729346 0.0015462496 0.0034650564
000320 2c 1d 9d 3b d3 da b7 b9 40 64 29 bb b0 f4 8c b9
       0.0047947373 -0.00035067517 -0.0025847107 -0.00026885187
000330 58 9a 2c 3a 46 75 64 ba d4 6c ab ba f6 c4 08 bc
       0.00065842783 -0.0008714985 -0.0013078698 -0.00834774
000340 fd 04 3b ba e6 a3 82 bb 22 5c cd b7 6b 7b dd 3b
       -0.0007134227 -0.0039868234 -2.4480807e-05 0.0067590973
000350 5f b4 08 3b 49 7a 83 bb 3f 52 90 3b da 16 4f b9
       0.0020859463 -0.0040123803 0.0044043357 -0.00019749571
000360 64 61 34 39 cc 5f ab 39 3e 65 0e bb fc 0a 66 39
       0.00017202419 0.00032687036 -0.0021727826 0.00021938601
000370 f0 59 b3 b9 67 e3 85 ba 31 25 02 bb 7a 80 1a 3a
       -0.0003420855 -0.0010214866 -0.0019858594 0.0005893778
000380 af 9e 15 b8 cd cc 46 3a e6 12 ef 37 9e 58 4d ba
       -3.5672154e-05 0.0007583618 2.849982e-05 -0.00078333344
000390 57 b6 1c 3b 88 62 42 b9 ae 56 d3 39 95 13 15 b7
       0.0023912394 -0.00018537987 0.00040309638 -8.885651e-06
0003a0 26 8c bb ba fe ce f7 ba 0d c1 01 ba 3f 53 19 bb
       -0.0014308735 -0.0018906293 -0.0004949726 -0.0023395566
0003b0 59 d2 31 ba 4f 04 b1 3a 19 24 72 ba 18 8f 42 ba
       -0.00067833584 0.0013505312 -0.00092369464 -0.00074218353
0003c0 93 9f 39 bb 4f b6 cc 3a e9 1d 20 3b e2 92 13 39
       -0.0028323873 0.0015618297 0.002443189 0.0001407373
0003d0 24 61 52 ba 41 8f a8 ba 5f 2a 19 3b 5f 07 0b ba
       -0.00080253393 -0.0012860076 0.0023371202 -0.00053035276
0003e0 b4 46 15 3a 0c 14 f1 ba f3 a4 aa b9 10 e3 1f 39
       0.00056944345 -0.0018392815 -0.00032547824 0.00015248009
0003f0 07 3a c4 ba 0d c9 94 ba b7 d9 44 3a 1d 38 00 38
       -0.0014970907 -0.0011351422 0.00075092487 3.0569838e-05
