results/ZBHCC/ZBHCC-499576.onnx (onnx, 553552 bytes, 7 tensors)

network_body.linear_encoder.seq_layers.0.weight f4 [256, 22]
00000000: 6ffd 0a3f 2e47 1cbe 136c d7bd 1a4e dd3c
00000010: f905 b13c 4b32 b0bd 32f9 433e 90fb 303e
00000020: cca5 18be 8d22 ef3c 90ed 613e 5fcc a23c
00000030: c517 adbd c717 9ebc a187 e23e 45f6 c2be
00000040: d93d 67bd 88ec 773d 9267 65be fc6e 2a3e
00000050: 7bf1 3e3e f805 3d3c b76d a2be df80 773e
00000060: e1d5 903e 3bb6 89be 036c 4f3e 8e2a 0fbe
00000070: f61d 483e 7788 09be d02d 0dbe bf3a e33e
00000080: 9fa6 9a3e 4f38 87bd fb25 2dbd 0d7a e03e
00000090: ff0e 3bbc bb91 10be 7a94 edbd 21a9 ebbc
000000a0: 624f 77bd 4af8 853e 897c 673e bc8f 973d
000000b0: 6243 b23e 8f8a 4cbd d318 2c3e 60ee 8cbc
000000c0: 5e57 abbd 9d57 8a3e c87a 633e 500e d9bd
000000d0: 2a6c 7cbe 8b8e ab3e 4f6e 1b3e 6ea4 043e
000000e0: 6d9b 8d3e 4b42 0fbe 041c 723e 8ce2 61be
000000f0: 4783 8b3e 363e ae3e e902 f73c 480e 683e
00000100: 474a 73be fbca 39be 971e 48bf edbc 323e
00000110: 6c35 db3c 3cea 27be 457f 073d 39ba 3fbe
00000120: f458 cfbd 68a3 533e a849 dbbe f602 b63c
00000130: f661 3b3e 896b 263e 4ee1 89be c6d8 32be
00000140: 30e3 c43e d825 29be a028 363d e746 b93e
00000150: 7ba9 81be fbd5 113e 129a 3e3e 6756 8bbe
00000160: 8b50 7c3e b5f4 d6be bb0b e23e a413 75be
00000170: 1f9a b6bc 6ef5 5ebe 7a5d 86bd 5304 3cbe
00000180: efaf 523d 4e7e bc3e 5315 bfbe 89b4 c6be
00000190: 4be8 0d3e 04b1 193e cf88 1f3e 8e88 9f3d
000001a0: 0a1e 423e 92a0 abbe 8066 a9bb ad22 c8be
000001b0: 6fc6 df3d d76c e1bc a074 713d e80e 263d
000001c0: d359 a7bd a66a 423e 36d4 f2bc 05bd c13e
000001d0: f09c 203e 746a 3dbd 53d6 8dbd 3085 38be
000001e0: ce24 acbd 79d6 10be 482c b33e 3a6c a83e
000001f0: 3474 cc3e d048 06bd f529 983e dbf2 83bd
00000200: f368 2e3e 7d95 f53d b55c c03d 7878 953e
00000210: fc92 c43e 39b0 c7bd c1c3 153e 41bc f1be
00000220: 6181 86be 80ab a53e 19c6 4d3e 2aa5 34be
00000230: 482f 93be 9a7d b53d fcfe 783e 59ef 4b3e
00000240: 646a b63c 35f2 653e ba4d 09bf 82b7 8fbd
00000250: 0b8f 9a3e 7011 073e 6c59 d03c b19a bc3e
00000260: 2d86 ecbd dba3 acbd 9537 423d 77e5 05be
00000270: a04b d13e 6bc4 50bd 5dbd da3e ecd7 85be
00000280: bbff 79bd aacd babd f1e6 0bbe 3f87 813e
00000290: a3e4 91bd b0e0 0c3f b596 a13d 3818 8d3e
000002a0: 1833 cfbc d8b5 8b3e 785e 883e 0059 c13e
000002b0: 1495 8a3d 3e4c edbd 8782 2fbe f343 4cbe
000002c0: 239f 04be ae28 d23e 2693 80be a5b2 83be
000002d0: e77e 973d 650e adbd f0f1 b9be a9ce 4b3e
000002e0: 832c 5ebe ff5c 91be 545b eabd b431 20bd
000002f0: 4114 16be dcfd 0a3d fef7 1cbe 7d2a 3fbd
00000300: 4714 0bbf 54e9 153e ac77 e33d c775 06be
00000310: b571 c63d 829e ec3e 3ecf cd3d 3f9c 20bd
00000320: b6a9 4abd 8bae c03e 3d5a b7bd 94cd 83be
00000330: e1b7 4a3e b74b a1bd c041 8d3d 6d9b 173e
00000340: 9df6 01bb 45d9 b93d 783e 30be 1ba9 d03d
00000350: 706a 57bd 0554 0cbe b775 26be 1074 3b3e
00000360: ddb4 343d e0c7 6dbe 52de 523e 452f 593d
00000370: 6259 79be 9a1a 153e 7e6d 263d 8b91 59bd
00000380: 26e7 303e caad 69be 7da3 65bd 3135 f0bc
00000390: 7268 243f 8a6f 003e 76d8 063e c6d2 023e
000003a0: b9f3 2d3e 23db 7fbe e835 a73d da5e 1cbc
000003b0: d9d3 833d b820 d5bd 9b50 bbbd b814 8f3e
000003c0: 8ef1 5a3e 71f1 cf3e ea3f 17be 485a adbb
000003d0: 90d9 a8bd c9da f0bd 3f3e 4f3d f70b 353e
000003e0: 1a6a ed3d cdab afbd bb7e 56bd da33 69be
000003f0: 5cd3 b0bc d809 923d 2fb8 4b3d f66e 5e3e
0.5429296 -0.15261528 -0.105186604 0.02701478 0.021609293 -0.086033426 0.19138029 0.17283463
-0.14906996 0.02919128 0.22063279 0.019872842 -0.08451799 -0.019298447 0.44244102 -0.38078514
-0.056455467 0.06052831 -0.2240279 0.166439 0.18646805 0.011537068 -0.3172433 0.24170254
0.28288177 -0.26896843 0.20256047 -0.13981077 0.19542679 -0.13430963 -0.13787007 0.44380757
0.30205247 -0.06602537 -0.04227255 0.43843117 -0.01141715 -0.14118092 -0.11600585 -0.02876717
-0.06037844 0.26165992 0.226061 0.07400462 0.34817034 -0.049936827 0.16806345 -0.01720351
-0.08366273 0.2701997 0.22214806 -0.10598433 -0.24650636 0.3350719 0.15178798 0.1295335
0.27657643 -0.13990133 0.236435 -0.22059077 0.27248594 0.34031838 0.030152755 0.22661698
-0.23758803 -0.18143837 -0.78171676 0.17454882 0.026758872 -0.16397947 0.033080358 -0.18723382
-0.10124388 0.20667803 -0.42829633 0.022218209 0.18299088 0.16251959 -0.26929706 -0.17465505
0.3845458 -0.16518342 0.044472337 0.36186907 -0.25324616 0.14241783 0.1861346 -0.27214357
0.246401 -0.41983572 0.44149575 -0.23933274 -0.022290288 -0.21773311 -0.06560798 -0.18361025
0.051437315 0.36815113 -0.37320957 -0.38809612 0.13858144 0.15008932 0.15579532 0.077897176
0.18956771 -0.33520943 -0.0051696897 -0.39088956 0.1092652 -0.02751772 0.058949113 0.04054156
-0.081714295 0.18985996 -0.029642206 0.37839523 0.15684867 -0.0462441 -0.06925645 -0.18019557
-0.084054574 -0.14144315 0.3499472 0.3289507 0.39932406 -0.032784283 0.2971951 -0.064428054
0.17032222 0.11991403 0.093926825 0.29193473 0.3839339 -0.09750409 0.14625455 -0.4721394
-0.26270583 0.32357407 0.200951 -0.1764113 -0.2874701 0.08861847 0.24316019 0.19915523
0.022267528 0.22455676 -0.53634226 -0.07017423 0.30187258 0.13190246 0.025433265 0.3683677
-0.115490295 -0.084296905 0.04741629 -0.13075815 0.4087801 -0.05096857 0.42722598 -0.26141298
-0.0610349 -0.091212586 -0.13662316 0.25298497 -0.07123687 0.55030346 0.07890073 0.2755754
-0.025292918 0.27287173 0.26634574 0.37763214 0.06766716 -0.11586808 -0.17139636 -0.19947796
-0.12951331 0.4104666 -0.25112265 -0.25722232 0.073972516 -0.08450011 -0.36317396 0.19903053
-0.21696667 -0.28391263 -0.11443201 -0.0391099 -0.14656164 0.033933505 -0.15328977 -0.04667138
-0.54327816 0.14639789 0.1110681 -0.13130866 0.09689657 0.46214682 0.10049294 -0.039211508
-0.049478255 0.37633166 -0.089527585 -0.2574278 0.19796707 -0.078757696 0.068973064 0.14805384
-0.001983083 0.09074644 -0.1721133 0.10188504 -0.05259174 -0.13703926 -0.16255842 0.18305993
0.044117797 -0.23220778 0.20592621 0.053023595 -0.24350503 0.14560929 0.040631764 -0.053117316
0.17275676 -0.22820202 -0.056064118 -0.029322239 0.6422187 0.12542549 0.13168511 0.12775716
0.16987504 -0.24985938 0.08164579 -0.009544099 0.06436891 -0.10406631 -0.09146234 0.27945495
0.21381208 0.40613893 -0.14770475 -0.0052903034 -0.08244622 -0.1176048 0.050596472 0.17680345
0.11592503 -0.0857769 -0.052366953 -0.22773686 -0.021585159 0.07130784 0.049736198 0.21722016

network_body.linear_encoder.seq_layers.0.bias f4 [256]
00000000: 205f e838 dbd0 6538 d79c 32ba 9b56 03b8
00000010: 2f73 0839 f9da c93a 03c6 f439 4c99 84ba
00000020: a7ee c8ba df27 ebba ee24 6abb 0032 9939
00000030: f6a2 96ba 8cb6 413a 4853 82ba ef6c f8b9
00000040: 7bcf 6eb6 64fb aab9 3875 fbb9 1f64 7239
00000050: 1edd 0d3b bdc6 11bb ea2a 71b9 d739 53ba
00000060: b615 fd39 5194 1e3b 926b 25b9 7794 b538
00000070: 3119 9b3a b9ce 8539 422a 4b39 4cb1 a339
00000080: e987 84bb 0dc2 27bb 6197 30bb 40e0 773b
00000090: 423d feb9 fb02 d9bb 3df9 afba 8980 81b9
000000a0: ef02 adb9 3e02 1cb9 8d32 a436 eb5d 3eba
000000b0: 627d b53a 7158 04ba da8c 443b 986a 3f39
000000c0: 565a d9b9 b0ae 09bb a0b6 5aba 9f75 9639
000000d0: 6eb0 8e38 ca7a 223b 3ba3 eab9 2732 36bb
000000e0: d010 30b9 7c6c f7ba 7e3e ffb9 9d03 cbb9
000000f0: 75c3 1cbb e31e df3a f2d3 5837 5b68 e2b9
00000100: 91fb d93b fbb2 80ba 37c6 64ba 2d02 44b9
00000110: 3d6e a83a 380f 1638 55fa ffba 8ad8 86b9
00000120: e1b0 16b9 fc7d 9b3b 1753 21b9 39b3 7fbb
00000130: 72f2 bb3a 0610 edba c3db 02ba 111a 40bb
00000140: 98c2 b739 bc5b 843a 1795 3739 8bc0 2bbb
00000150: 3ff1 3cb8 7ccf b137 bbd9 cd3a 8d7b f7b8
00000160: 3567 91b9 137d 413a c5ce 0c3a cea8 373b
00000170: 0706 a63a 14de 7bbb 9a3a 243b 41f6 b939
00000180: 6128 8abb 64c9 b33b 6ea1 cf39 e338 84b9
00000190: d5d5 6abb 2765 0039 dd4d 18b9 9c9b 8ab9
000001a0: c4ca 813a 7608 37ba d200 b838 de8a aaba
000001b0: 447c 5e39 b02e 0bba b3a2 c5b9 027a e2ba
000001c0: 8415 ebb9 9b78 8ab9 b5b0 50bb c9e2 4739
000001d0: 8a5d 6cba 2b2e af38 8fa1 a6ba 0340 69ba
000001e0: a601 9bba 6465 9bba 6d2a 31ba bd9a ec39
000001f0: 8a78 423a 7e75 daba f8b8 5738 30d9 a0ba
00000200: 1fca 82bb 7d52 123a ced3 c6b9 a630 82ba
00000210: 771c 3339 7590 dc3a 4693 26ba bce5 31ba
00000220: 0ed6 7c3b 8871 c638 cc2c 6ab8 0250 86ba
00000230: 7bb9 62b7 6cdb 643a 77f5 17ba 38ed 81b9
00000240: feb7 e1ba ea9f d639 c3dc c2b9 10f2 d3ba
00000250: 5a9e 57ba 4007 85ba 2917 e639 eac1 89b8
00000260: 828b 0ebb adc4 50b9 e147 283a 8db0 1fbb
00000270: a816 00bb 870b 36b9 296d 4bbb 2c7d 87ba
00000280: de76 acb9 7d75 c33a 0ab3 ceb9 2495 04bb
00000290: 3375 0eba 2e22 d5ba b38f ebba 76d8 a0ba
000002a0: 5977 2aba 64ea 92ba 8adb 3b3a 211b b7b9
000002b0: dc9a bf3a 89db 50ba d126 3838 2d9f 4a38
000002c0: 7bef 12ba 3f1b e73a e74b 14ba 776c 2dba
000002d0: f9a3 95bb b3d0 84ba 1960 943a 4a64 84bb
000002e0: 84cd 13ba 15ee 33ba 93e0 37bb d366 b1b8
000002f0: 31e8 44b9 19b1 a93a 2d89 883a 1056 3fbb
00000300: 9ca1 dcb7 c074 2bba cd16 f8ba 301a 15bb
00000310: 7613 d1b9 395f 813b d8f3 b0ba 0ff1 13ba
00000320: ace8 8dba f464 693a 0633 bdba 73e1 523a
00000330: 987d bcba 78de 973b 6543 76bb 4c8a b338
00000340: 2df5 b9ba 08a9 abba 292b 913a 357c 70b8
00000350: 515e 203a e6f4 0a39 0733 ce3a a75b 07bb
00000360: 5694 89ba 847f 29bb 1834 edb8 5151 473a
00000370: b4e8 4cbb e7a1 783a c2a0 8639 f909 68bb
00000380: 3779 99ba bd2b 673a 62d8 32bb 1076 0239
00000390: 6aa2 25ba 688e 3d3a d979 6bb8 1644 9eba
000003a0: c836 b9b9 5eaf 25bb ec5c b6b9 5083 21b9
000003b0: 55cc 223b d6ac cdb9 5d19 cab9 8d1e 8cbb
000003c0: 2c4a c0b9 d972 9238 8855 45ba b65b e7b9
000003d0: 38b2 8eb8 52d3 2fb9 d08f 9339 7275 83b9
000003e0: c792 34bb ac16 e0b9 47f0 4e3a 4fff afba
000003f0: 02b7 aa3a 2b25 19ba a7d3 91bb 6707 32b9
0.000110803405 5.4792366e-05 -0.0006813532 -3.131349e-05 0.0001301288 0.0015400342 0.00046686837 -0.0010116487
-0.0015329913 -0.001794096 -0.0035727578 0.00029219687 -0.0011492658 0.00073895673 -0.0009943033 -0.00047383408
-3.5585533e-06 -0.00032612227 -0.00047961785 0.00023116216 0.0021646689 -0.0022243701 -0.00022999538 -0.000805763
0.00048272096 0.002419729 -0.000157757 8.658406e-05 0.0011833069 0.00025521757 0.00019375331 0.0003122188
-0.004044522 -0.002559784 -0.0026945698 0.0037822872 -0.00048492296 -0.0066226698 -0.0013425719 -0.00024700564
-0.00032999317 -0.00014878155 4.8934658e-06 -0.00072619197 0.0013846571 -0.0005048579 0.002999118 0.00018254889
-0.0004145677 -0.0021008663 -0.0008343253 0.00028697864 6.80395e-05 0.0024792426 -0.00044753574 -0.002780089
-0.00016790931 -0.0018876935 -0.0004868395 -0.0003872187 -0.0023920212 0.0017022755 1.2923951e-05 -0.0004318383
0.0066523035 -0.0009818965 -0.0008727046 -0.00018692827 0.0012850236 3.577696e-05 -0.0019529561 -0.00025719806
-0.00014371007 0.004745243 -0.0001538511 -0.0039016737 0.0014339222 -0.001808644 -0.00049918535 -0.0029312412
0.00035049464 0.001009814 0.0001750778 -0.0026207294 -4.504737e-05 2.1196662e-05 0.0015705148 -0.00011800891
-0.0002773345 0.0007381003 0.0005371387 0.00280242 0.0012666591 -0.003843193 0.0025059343 0.00035469423
-0.0042162393 0.005486654 0.0003960239 -0.00025219386 -0.003583302 0.00012244713 -0.00014524856 -0.0002643735
0.0009902348 -0.0006982157 8.7739565e-05 -0.0013011356 0.00021217862 -0.0005309386 -0.00037695988 -0.0017278793
-0.00044838723 -0.0002641127 -0.0031843607 0.00019062603 -0.0009016624 8.35325e-05 -0.0012712943 -0.0008897783
-0.0011826053 -0.0011855778 -0.0006758336 0.00045128717 0.00074184744 -0.0016667095 5.143226e-05 -0.0012271758
-0.00399138 0.000558175 -0.0003792331 -0.0009932711 0.00017081374 0.001682772 -0.0006354343 -0.0006786247
0.0038579735 9.4625226e-05 -5.5831668e-05 -0.0010247233 -1.3513835e-05 0.0008730206 -0.000579677 -0.0002478154
-0.0017220972 0.00040936406 -0.00037167044 -0.0016170163 -0.00082251953 -0.0010149255 0.00043886274 -6.5687884e-05
-0.0021750634 -0.00019909693 0.0006419402 -0.0024366707 -0.0019544754 -0.00017361167 -0.0031040406 -0.0010336987
-0.0003289496 0.0014912334 -0.00039424776 -0.0020230496 -0.0005434334 -0.0016260797 -0.0017971903 -0.0012271542
-0.00065027695 -0.001120877 0.0007166198 -0.00034924693 0.0014618295 -0.00079672836 4.390517e-05 4.8308797e-05
-0.00056051434 0.0017632021 -0.0005657062 -0.0006615589 -0.004566666 -0.0010132998 0.0011320143 -0.0040402757
-0.0005638229 -0.0006863785 -0.002805744 -8.45917e-05 -0.00018778515 0.0012946456 0.0010416858 -0.0029195584
-2.6301299e-05 -0.00065405294 -0.0018927694 -0.0022751205 -0.00039878086 0.003948119 -0.0013500405 -0.00056435255
-0.0010826788 0.0008903288 -0.0014434762 0.0008044459 -0.0014380692 0.0046346746 -0.0037576791 8.561145e-05
-0.0014187448 -0.001309664 0.0011075485 -5.7336136e-05 0.000611757 0.00013251937 0.001573176 -0.0020653994
-0.0010496478 -0.0025863359 -0.00011310744 0.00076033646 -0.0031266632 0.00094845745 0.00025678246 -0.0035406335
-0.0011709098 0.0008818468 -0.0027289619 0.00012441748 -0.0006318452 0.0007230998 -5.6141846e-05 -0.0012074735
-0.00035326765 -0.002528153 -0.00034782977 -0.00015403074 0.002484103 -0.0003922942 -0.0003854734 -0.004276103
-0.00036676356 6.9832146e-05 -0.0007527699 -0.00044128083 -6.8042835e-05 -0.00016768023 0.00028145174 -0.0002507377
-0.0027553306 -0.000427415 0.00078940805 -0.0013427528 0.0013024511 -0.0005842025 -0.0044502798 -0.0001697816

network_body.linear_encoder.seq_layers.2.weight f4 [256, 256]
00000000: ba74 5d3c f9d1 083d cdd7 d33c 6675 b53d
00000010: af05 5abd 6be0 593d 61d9 8fbc e91f 90bd
00000020: c5b4 cdbd b473 8e3c b80c b6bd cb9d 67bd
00000030: fd41 ee3c a13e a83d ac19 283c 4df7 2b3d
00000040: 5b5a 2b3d cfd2 01be 53e8 f83c 00be 1cbe
00000050: a6ba 243c c277 0ebd 57b0 bb3c 94af 903d
00000060: 68c0 273e 4a6c a5bd 62e1 1e3c 5059 f9bd
00000070: 341a 083d 9f96 2f3d b726 a03c 3def debd
00000080: 214b a93d 91a8 35bc b6d1 243e 4530 283d
00000090: c0e8 88bc b249 6abd c1ae 3d3d 52a8 ab3d
000000a0: 9a02 febb 0919 40bd 5ddb a5bd 0bf9 f3bd
000000b0: f477 96bd 5823 843c c75a c93c 0918 963d
000000c0: 9109 b53a c591 893d 0062 613d 3f7e 80bc
000000d0: 6690 723d f091 b33d a316 53bc 772a 433c
000000e0: 2eee aa3d 8193 263c 094b d83c 56a3 ac3d
000000f0: ddf6 fbbb 12b6 15bd 385b b93d 7b1e 03be
00000100: 6910 113d 56b0 263d 2469 ae3d f365 1c3e
00000110: 5cbf b93d 1779 5f3c f6a4 40bb b440 3dbd
00000120: fed8 ddbc a2c4 3d3d 443c b1bd 7f66 123e
00000130: cc01 483d a71e bfbd c214 173d b8d1 953c
00000140: a2a4 2d3c d8ff 743d f381 53bd 9e95 90bc
00000150: 538d 4ebd 05b7 fcbc 8980 973c 7cc1 06bd
00000160: 17f2 3ebd ca5f a2bc 7a52 8abd 42f5 f4bc
00000170: 3727 8d3d d836 6f3d 8b50 59bc 5568 4ebd
00000180: 7fed 12be b539 de3d d067 cbbc 3629 8cbd
00000190: f040 7bbd 673f 1d3d 3659 0cbd 7b2e 34bc
000001a0: 80f9 983c cf50 08bd 4b15 61bd 02e5 97bb
000001b0: 5ce9 c93c 89ba 0dbd 1bb8 b93d 355c 993d
000001c0: 657b 81bd 1f65 b73b 62b9 bb3c 40b4 3f3c
000001d0: 2770 373d 6f15 e2bb 4a78 613d 9c24 103d
000001e0: 9333 853c 6924 203e d782 7bbc 633f 02bd
000001f0: 9e3c c3bd 8c7a 82bb 040a a3bd a1e5 bbbb
00000200: cb11 b4bd d15b 00bc 5d71 023d 1f87 1abe
00000210: 6fa7 14bd f457 d63c e7c8 6ebd b566 27bc
00000220: 019b a73d 321f dcbc 209c 253c ce74 c6bc
00000230: 158a b0bd 13e1 00bd dbd2 93bb cdf7 9f3d
00000240: db0d 09bc 94be 97bc f5cd c53d b472 80bc
00000250: 5ef9 623d db7f 37bc 7d2c 8bbc 69ea 153b
00000260: 444e dd3d 3a7d 55bd 42d1 adbd 4192 a3bc
00000270: 6dd0 c7bb ff65 1b3d e6b0 773d 52e2 e1bd
00000280: 1a02 5e3c 0d4a 243d 7b5c 0c3e d20c cebb
00000290: 7755 533a c348 75bc 27c7 133c b817 eabc
000002a0: 933d a2bc 954a 15bd fb34 23bd 2254 02be
000002b0: 4e46 7d3d 82a8 49bb eab1 403d 9d1c 003e
000002c0: 418e 233d c765 483c b31b a93d 6537 693d
000002d0: 81a9 09bd 442d ebba de0b c93d 60ad 1d3d
000002e0: 2ef4 02bc 8d34 ebbc b41e fcbc 58e9 02be
000002f0: f4b4 023b f7da dd3c 2ab5 7abc 6645 9dbc
00000300: 1614 c2bb 1474 8ebd 4342 f4bd 5bb4 5fbd
00000310: 457c a23b 61f3 41bd d692 bfbd f1cf 453d
00000320: cabc c9bd 7f79 be3d 187f 4bbd 9889 183c
00000330: ab91 02bd 2922 803c 8e7e fc3c 3b0f 0cbd
00000340: e53f 3cbd 8493 38bc 27ba 4fbd d6b7 bd3c
00000350: 6feb 4f3c dd29 76bb c079 193d 168c 943a
00000360: 1afe c5bc 2433 8a3d fef5 693d be46 c8bd
00000370: e72b 093d f9f1 5cbd 251d 7a3c bf7e d03d
00000380: 9250 0a3c d76f dcbd e1ff 543d fc07 363d
00000390: 9dc6 65bb 218b 08bd 092e 01be d6c3 afbc
000003a0: 4edc 2b3e 69f1 ab3c b8db 95bd 96bf d03c
000003b0: b37b 3ebd e3a3 d4bd 9b62 8abc 85d9 8a3d
000003c0: 690d c33d b990 f0bd 3a71 c73c 7aaa 26bd
000003d0: e792 11bd ca8d d5bd d31b a03b 9ec5 a5bc
000003e0: 576a 8c3c b002 a73c d32d 8d3d 1a2a a83b
000003f0: d3de ccbc 8178 053c d70e 3e3d 3ae1 a73c
0.013516599 0.03340337 0.025859738 0.088602826 -0.053228077 0.053192537 -0.017559709 -0.070373364
-0.10044245 0.017389156 -0.08889145 -0.056546967 0.0290842 0.082150705 0.010260027 0.04198389
0.041834217 -0.12678073 0.030384218 -0.15306854 0.010054266 -0.03478218 0.022911234 0.07064739
0.16381991 -0.08077295 0.00969729 -0.12175238 0.033228114 0.042868253 0.01954971 -0.10885475
0.08266283 -0.011087553 0.16095623 0.04106166 -0.016712546 -0.057199188 0.046309236 0.08381714
-0.007751775 -0.046898875 -0.08098481 -0.119127356 -0.07347098 0.016130134 0.024579419 0.07328803
0.0013812055 0.067172565 0.0550251 -0.015685199 0.05921974 0.0876807 -0.012883815 0.01191198
0.083462104 0.010167004 0.026402967 0.08429591 -0.0076893405 -0.03655059 0.09050602 -0.12804596
0.03541604 0.04069551 0.08516148 0.15273266 0.09069702 0.01363971 -0.00293952 -0.046204284
-0.027081009 0.0463301 -0.08654073 0.14296912 0.04882984 -0.09332018 0.03688503 0.018288478
0.010598334 0.059814304 -0.0516376 -0.017649468 -0.050427746 -0.03084899 0.018493908 -0.032899365
-0.046617594 -0.019821066 -0.067540124 -0.029902104 0.06892245 0.058401912 -0.013263832 -0.050392468
-0.1434841 0.108508505 -0.024829775 -0.06843798 -0.061341226 0.038390543 -0.034264766 -0.01099741
0.018673658 -0.03328019 -0.054951947 -0.004635454 0.024647407 -0.034601722 0.090683185 0.0748829
-0.06322364 0.0055967714 0.022915546 0.01170069 0.04478469 -0.0068995277 0.055046357 0.035191163
0.016259944 0.1563889 -0.015351019 -0.03179873 -0.09533046 -0.003981894 -0.07960895 -0.005734161
-0.08792456 -0.007834391 0.031846393 -0.15090607 -0.03629249 0.026164986 -0.058297064 -0.010217358
0.081838615 -0.026870344 0.010108024 -0.024225619 -0.08620087 -0.031464648 -0.00451122 0.07810936
-0.00836512 -0.018523492 0.09658424 -0.015679695 0.055413596 -0.011199917 -0.016988987 0.0022875315
0.108059436 -0.05212138 -0.084871784 -0.0199672 -0.0060978443 0.037939068 0.060471438 -0.11029495
0.013550306 0.040109683 0.13707153 -0.0062881494 0.00080617465 -0.014970961 0.00901965 -0.028575763
-0.019804752 -0.03644808 -0.039845448 -0.12727407 0.061834626 -0.0030770604 0.047044672 0.12510915
0.039930586 0.012231297 0.08257236 0.056937594 -0.033608917 -0.0017942567 0.098167166 0.03849542
-0.007992787 -0.028711582 -0.03077636 -0.12784326 0.0019944282 0.02708195 -0.015301982 -0.01919813
-0.0059228046 -0.06955734 -0.11926701 -0.05461536 0.0049586617 -0.047351245 -0.093541786 0.04829401
-0.09850462 0.09300517 -0.049681753 0.009310149 -0.0318772 0.015641289 0.030822065 -0.034194212
-0.045959372 -0.011265639 -0.050714638 0.023158949 0.012690409 -0.0037561574 0.037469625 0.0011333253
-0.024169017 0.067480356 0.057119362 -0.09779118 0.033489134 -0.0539417 0.015265738 0.10180425
0.008442061 -0.10763519 0.052001838 0.04444121 -0.003506101 -0.03333581 -0.12615217 -0.021455687
0.16783258 0.020989137 -0.07317299 0.02548198 -0.046504688 -0.103828214 -0.016892722 0.0677977
0.09524042 -0.11746354 0.024345983 -0.040689923 -0.035540488 -0.10427435 0.0048861294 -0.020235833
0.01714055 0.020387024 0.06893506 0.005131972 -0.025008595 0.008146406 0.04640087 0.020493139

network_body.linear_encoder.seq_layers.2.bias f4 [256]
00000000: 0a6f 11b9 0d4d 86ba db46 b8ba 10fb 30ba
00000010: e744 b7b8 9eae 0bba 19ea 89ba b1ec efb9
00000020: 1797 cb3a a5f8 c0ba 71a1 1439 7907 25bb
00000030: 981b 543a bc79 4cbb 91a2 cdba 81e2 c4b9
00000040: ff37 10ba d63b c3ba 3ac6 d8b9 f670 7239
00000050: da52 52bb 5f53 a4b9 cdda 20ba 0bd4 d43b
00000060: 9eb4 193b ebe4 3abb d285 ddb9 2a7e 3339
00000070: 1d27 1e3a 1fc4 2e39 0989 7fbb 04a1 c33a
00000080: cba1 493b 96d8 31b9 14c2 93bb de73 03bb
00000090: e6cc 85ba f527 823a 5233 a13a 5746 08bb
000000a0: 27a9 16ba ed6f abb9 ae79 97b9 8313 35bb
000000b0: c4a7 e9b9 60e6 203b 4a59 aaba 8e87 6c3b
000000c0: de9f 46b9 5054 8e38 e3be 37b9 8631 23bb
000000d0: 3630 7e39 8b0e 3ab9 cef0 313b 1fa8 ceba
000000e0: 00b9 76ba f16f 0d3a 9779 453a 9f7c 71b9
000000f0: 5adb 9bb9 7f45 4eb9 f656 a439 b11b 78b9
00000100: 9e52 72ba 84a1 18b7 4725 9bba e631 afb8
00000110: 3a26 0039 98e3 6abb b4d3 e6b9 c03c 69ba
00000120: 1970 f6b8 885d c1b9 0875 d639 784b 1539
00000130: 9577 b33a 482b 9d39 4e6c 06ba f07e 0aba
00000140: dd0f f9b9 aa28 6037 0d35 80b9 5c3d b6ba
00000150: d456 09ba 0ba5 80b8 da6c d4b6 db88 4ab9
00000160: e016 47b9 2767 3bba 5b07 20b9 1ee1 0fbb
00000170: 6f3c 0cba 99a0 6839 48ff 25bb 7f80 35ba
00000180: 3475 89ba 1090 e4b9 8047 2cba 56f9 25bb
00000190: 1c77 3d38 d736 02ba 9213 013b 71b4 1738
000001a0: b9de bc38 ffea 27ba 61d9 0a3a 8421 0a3b
000001b0: a54f 5939 a100 05bb 471a a03a 3079 ce36
000001c0: 6de1 b438 c596 9038 ca31 a437 6077 c339
000001d0: 1812 18bb 360a 3bb9 5211 6bb8 b663 bcb8
000001e0: f276 84ba 6421 c5b9 bfde 1abb 6309 cdba
000001f0: 6887 3638 3ff7 b7bb ad8f baba e14f 213a
00000200: 45ff a5ba 52eb 52ba a978 22ba d4cf ecba
00000210: b6bf 31ba cd3e 56b9 47d9 e239 b9a6 1f3b
00000220: d239 b7b7 284a 7eb9 fc96 10bb ff9b 08b9
00000230: 4be2 c33a a6bd abb7 b62a e8b9 bf63 55bb
00000240: d386 1eba 9bf6 453b cf9f 8f3b f8bd 6cba
00000250: e214 62b9 5242 07b9 7d22 c3ba 2fff d839
00000260: 90c9 94ba 5c25 7b38 5d20 03b9 68bd 6fba
00000270: d675 99b9 a550 d938 72ad bb3a 339b 2fbb
00000280: 5310 00b9 9f16 a1ba ff8a 923a 21db 1dba
00000290: cb6b 8f39 61ea 96ba 780c 91ba c2b0 51ba
000002a0: 812d c237 954d a9ba 266f 4fba 3391 82ba
000002b0: 0174 d0ba 5e23 36ba fb13 a939 990a 12bb
000002c0: 01a8 02b5 e4d1 9db7 66d1 a4b8 1bf1 d5b9
000002d0: f73d 31bb 55f3 3dbb ca0c 24bb 1eb9 2bb9
000002e0: 6ea5 9838 55ff 91b9 6da7 58b9 2021 8bb9
000002f0: 432f 6bba fe8f ad39 05ca 83ba 4edf aab9
00000300: fb60 05bb 7ca8 d4b9 32ab b4ba 399e 6eb9
00000310: a6bc 11ba a05d c1b9 48bc a2ba 0941 03b8
00000320: db33 ad38 d1dc 0bbb 313b 3bba 5d90 883a
00000330: 0519 15ba 7e31 e0ba 8522 03ba 88ce 2eba
00000340: 3800 b93b 3f75 fdba 05f9 24ba 41b4 6cbb
00000350: c13b 69ba 9591 8eba f3c8 2aba 364a 9438
00000360: febf c239 6fc0 0bbb 014c 1bba abc9 e0ba
00000370: 0bab 1eba 5b35 69ba e967 ff3a 0a4a d4ba
00000380: dc51 10bb faab 56ba 19f0 31bb a188 9fb9
00000390: 32e9 00ba 7327 76b9 2f03 9bba d3a0 f2ba
000003a0: 5bc6 02bb 2f75 efb9 a9c6 e4b9 0601 85b9
000003b0: 2896 50ba aa37 033a d5aa d7b8 d134 1abb
000003c0: fff8 793a 59a6 b939 6cd6 af3a f26c 90ba
000003d0: c847 35b9 22cf 2ebb 43f0 573a 9e79 b8b8
000003e0: 1d87 4fba d914 5aba 90db 02b9 cf32 cb39
000003f0: 2be6 bf39 16d7 feb8 477d a53a bf50 a2b9
-0.00013869643 -0.0010246352 -0.0014059203 -0.00067512784 -8.738954e-05 -0.0005328449 -0.0010522037 -0.0004576198
0.0015532699 -0.0014722539 0.00014174521 -0.0025181456 0.000809127 -0.003120049 -0.0015688707 -0.00037552792
-0.0005501508 -0.0014895152 -0.0004134642 0.00023121 -0.003209284 -0.00031342634 -0.00061361195 0.006495004
0.0023453603 -0.0028517793 -0.0004225211 0.0001711777 0.000603305 0.00016666994 -0.0038991591 0.0014925306
0.0030766602 -0.0001696072 -0.00450922 -0.0020058076 -0.0010208159 0.0009930121 0.001229862 -0.002079388
-0.00057472516 -0.00032699053 -0.00028891623 -0.0027630038 -0.00044566218 0.0024551377 -0.0012996581 0.003609154
-0.00018942307 6.786792e-05 -0.00017523351 -0.0024901344 0.00024241288 -0.0001774376 0.0027151587 -0.0015766657
-0.00094117224 0.0005395404 0.0007533072 -0.00023029976 -0.00029727333 -0.0001967158 0.00031345309 -0.00023661439
-0.00092438783 -9.097512e-06 -0.0011836671 -8.3539446e-05 0.00012221272 -0.0035841223 -0.0004402675 -0.0008897297
-0.00011751074 -0.00036881515 0.00040904456 0.00014237862 0.0013692254 0.0002997762 -0.0005127833 -0.00052831974
-0.000475048 1.3360908e-05 -0.00024453588 -0.0013903785 -0.00052390737 -6.134257e-05 -6.3307643e-06 -0.00019315204
-0.0001898664 -0.0007148855 -0.00015261529 -0.0021954249 -0.00053495815 0.00022185071 -0.0025329161 -0.00069237495
-0.00104872 -0.00043594884 -0.00065719336 -0.0025325618 4.517204e-05 -0.0004967278 0.0019695503 3.6169255e-05
9.006024e-05 -0.00064055616 0.0005296674 0.0021077106 0.00020724403 -0.0020294564 0.0012214863 6.1533865e-06
8.625058e-05 6.894538e-05 1.9573508e-05 0.0003728224 -0.0023204144 -0.00017837514 -5.6044497e-05 -8.983111e-05
-0.0010106249 -0.00037599646 -0.0023631302 -0.0015643056 4.351829e-05 -0.005614191 -0.0014233493 0.00061535655
-0.0012664577 -0.000804593 -0.00061977893 -0.0018067309 -0.00067805813 -0.00020432025 0.00043267963 0.002436085
-2.1842225e-05 -0.00024250953 -0.002206265 -0.00013028084 0.001494476 -2.04731e-05 -0.0004428231 -0.0032560674
-0.0006047312 0.0030206803 0.0043830643 -0.0009030993 -0.00021560819 -0.0001289931 -0.0014887598 0.00041388857
-0.0011351574 5.9877857e-05 -0.0001250519 -0.000914535 -0.0002927023 0.000103623875 0.0014318659 -0.0026795387
-0.00012213112 -0.0012290067 0.001118034 -0.00060217275 0.00027355397 -0.0011513942 -0.0011066338 -0.0007999056
2.3147792e-05 -0.0012916798 -0.0007912986 -0.0009961486 -0.0015903712 -0.0006948019 0.00032249079 -0.0022284149
-4.867325e-07 -1.8813596e-05 -7.859133e-05 -0.00040806163 -0.002704499 -0.0028984149 -0.0025032037 -0.00016376792
7.2787385e-05 -0.00027846792 -0.00020661736 -0.00026536826 -0.0008971581 0.00033104414 -0.0010054713 -0.00032591302
-0.0020351994 -0.00040561322 -0.001378393 -0.00022756391 -0.0005559422 -0.00036881585 -0.0012415731 -3.1293403e-05
8.258942e-05 -0.0021341334 -0.0007142304 0.0010419 -0.0005687627 -0.0017104594 -0.0005002397 -0.0006668349
0.005645778 -0.001933731 -0.00062932103 -0.0036118182 -0.00088971487 -0.0010877127 -0.0006514929 7.071013e-05
0.0003714561 -0.0021324416 -0.0005924106 -0.0017149945 -0.0006052709 -0.0008896195 0.0019485924 -0.0016196382
-0.0022021448 -0.00081890787 -0.0027151166 -0.0003042864 -0.00049175613 -0.00023475084 -0.001182651 -0.0018511064
-0.0019954655 -0.0004567294 -0.00043635562 -0.000253685 -0.00079569453 0.0005005548 -0.00010283819 -0.0023530016
0.00095356995 0.00035409888 0.0013415343 -0.0011018796 -0.00017288246 -0.0026673754 0.0008237401 -8.796457e-05
-0.0007916557 -0.00083191466 -0.0001247956 0.00038757033 0.00036601847 -0.00012151727 0.0012625837 -0.00030959208

network_body.linear_encoder.seq_layers.4.weight f4 [256, 256]
00000000: 4e16 99bd 3a87 553c 8357 38bd 58f0 0fbd
00000010: 5242 a33d 498a 8ebd d13c f03c 326a 983c
00000020: 775a 8cbd 8e6a 163e c734 d0bd 4962 7b3c
00000030: 7781 3abc 0b66 ba3c f062 0ebd 4089 ed3d
00000040: ef61 66bd 44ea 3e3d 6d1a 5fbc b08a 6dbc
00000050: e001 efbd 6f25 8abd 5df4 a4bc 199f 0e3d
00000060: 2e7e 413c 922b d6bd b8f4 97bd 725f 3ebd
00000070: 350e 933d 10c8 82bd c803 ab3a 08ad c03d
00000080: e052 d03d a76a 2f3e 6239 c1bc 1a53 36bb
00000090: f727 26be 5f99 033c f857 b43c 5de5 09bd
000000a0: be2c f63d 5350 943d 5e0e 273d 78df 2d3d
000000b0: f272 e3bd 7dd3 213d 3649 383c 4b68 793d
000000c0: bd56 e33c cea8 973c 1663 163e 4753 763c
000000d0: 46e4 113c 02c6 de3c d5c1 85bb fc61 88bc
000000e0: effe 5dbc 36dd c93c 6c7c e2bc 1f51 bc3b
000000f0: 92fa 3d3d 5aa8 9b3c 0314 d1bb be51 0f3e
00000100: c600 5f3d fa7e 8cbd 9cde 3f3d 3697 e53d
00000110: fabd 30bc af48 90bd 8b40 853c 56f5 e23d
00000120: c740 1d3d ba19 61bd 085b 3fbd 6e97 afbd
00000130: 62aa 5f3d 78f9 583d 86f5 0f3d 2bce c2bd
00000140: 3fe4 22bd 0769 e03c 599b 9bbd e607 763d
00000150: f90b 32be 6021 073d 9e76 753c a5e8 20bd
00000160: c237 0b3a 8cf0 b7bc 2453 fbbc 3cbd 9abd
00000170: 3300 09be fd40 91bd c711 d7bc 67b1 0cbd
00000180: aab6 953d 8f61 40bc ff06 df3d e23e 55be
00000190: 5a7d d43d d2bb 45bd c440 2ebd 8b5c a6bb
000001a0: 6c22 0d3d 2eec a3bd 2d11 8b3d 9c7a 9f3d
000001b0: a538 04bd 667b d6bd 2765 02be a43e bdbc
000001c0: 258d 70bc 7a68 5f3d 4db9 683d a190 423d
000001d0: 1f66 383c d416 3ebd 9049 57bd e43d a83d
000001e0: 5325 ad3d aafa 0b3d e340 c4bc 8ed9 a4bd
000001f0: 674d a93c 298d 973d 959e 12bc 77a9 39bd
00000200: 991e e23d 6650 49bd 8491 45bd 23fb ac3d
00000210: 2bd1 c33c 327e 923d 12a2 51bc f6c6 d93d
00000220: 17f0 633d 6ec3 1c3d 2138 f9bb 08f4 943c
00000230: 4ebd cb3c f685 f73c 16f8 43be 4944 15bd
00000240: 1ff9 8b3d 6f63 bb3d 1bb0 4e3d fddc 1b3e
00000250: 7ff8 6a3d d90b 953d 6d1d 4b3c ac86 9a3b
00000260: 3906 8c3d caa4 8fbd 2c1c 35bd a35a 28bc
00000270: 7e74 c43d 95c0 433d a5ae 233d baa5 803c
00000280: ae8f 993c 618a cbbc b76a a7bc 4327 7bbc
00000290: 2618 39bd f735 a1bd 0b2a 93bd 4eee e93c
000002a0: 1db6 04bd 3ed6 183d 0a59 0abb 6370 d63a
000002b0: 3672 8d3d f12e b1bd 4902 033e 7a46 a43d
000002c0: 16e1 883c 811e 00bc 2269 e03c 5ed1 37bd
000002d0: 2cb1 1d3d 1d7c 063b b28f adbd 4044 673d
000002e0: a539 4cbd 7701 d23b 23aa dbbd 5d4c 873d
000002f0: 697b cd3d 16f2 b93d d333 943d c9c7 8abd
00000300: 982e 013d 8dbd 4e3d 6259 9b3d 2e9c 78bc
00000310: c33e 83bd 856b 0d3e 7053 1d3e 2e40 8bbd
00000320: 21ca 7e3d f93b a13d 8f8b a23d 3347 8f3b
00000330: f206 983d 5430 bebd 619f 613c f4f1 6ebd
00000340: cb51 6d3d 0e98 4fbd 7b5b 35bd f6b7 533d
00000350: b4a5 8c3b 6f05 223e 1d4d 9dbc c48e d4bd
00000360: 3843 e9ba 1780 c93d 21c5 c8bd 0abd ea3c
00000370: 83d0 f63c a7e8 16be a69a c6bd 552b 7bbd
00000380: ed1f e63c ae97 aa3c 6a2e 073d 3ef5 263d
00000390: ae49 8e3d 3f03 e2bb c8d9 de3b 7646 213d
000003a0: 4ca4 683d 310b 3bbd 67b7 313d 75e9 d93b
000003b0: c512 513d 8c50 1e3c 7f0a 843d 8da8 2b3d
000003c0: 9a41 f33b 9dc6 a93d 0d0b a83b 374e 8ebd
000003d0: 3355 233d 4277 b4bd 65e2 e23c 7bd6 483d
000003e0: e920 8bbd 25fc 09bd d648 4bbc 601b 143d
000003f0: 4f5d 873c 2cb1 b23c 7022 0ebe 9930 283c
-0.074749574 0.013032729 -0.045005333 -0.03514132 0.07971634 -0.069599696 0.029325875 0.018605325
-0.06853192 0.14689085 -0.101663165 0.015343257 -0.011383406 0.022753736 -0.034762323 0.11598444
-0.05624574 0.04661013 -0.01361714 -0.014498398 -0.116702795 -0.06745421 -0.020136053 0.034819696
0.011809869 -0.10457529 -0.07419723 -0.046477742 0.07180444 -0.06385815 0.0013047392 0.09408003
0.10172057 0.17130528 -0.023586933 -0.0027820528 -0.16226183 0.008032172 0.022014603 -0.033666003
0.12020253 0.07241883 0.040785186 0.042449445 -0.111059085 0.03950833 0.011247924 0.060890477
0.027751321 0.01851311 0.14686236 0.015034503 0.008904522 0.027194027 -0.0040819445 -0.016648285
-0.01354955 0.024641614 -0.02764722 0.005746975 0.04638154 0.019001175 -0.0063805594 0.13996026
0.054444097 -0.06860156 0.046843156 0.11210482 -0.010787481 -0.07045113 0.016266128 0.1108195
0.038391855 -0.054956175 -0.046717674 -0.08573805 0.05460585 0.052972287 0.03514626 -0.0951198
-0.039768454 0.027393831 -0.075979896 0.060066126 -0.1738738 0.032990813 0.014981894 -0.039284367
0.0005310738 -0.022453569 -0.030679293 -0.07555625 -0.13378982 -0.07092474 -0.026253594 -0.03434887
0.07310231 -0.01174201 0.10890006 -0.20824769 0.103754714 -0.048274823 -0.042542234 -0.00507695
0.034456655 -0.08004032 0.067903854 0.07787058 -0.032280583 -0.10472755 -0.12733899 -0.023101158
-0.014682089 0.054542996 0.05681734 0.04750121 0.011254816 -0.04640849 -0.05256039 0.0821493
0.08454385 0.0341746 -0.023956722 -0.08049308 0.020666791 0.07399971 -0.008948942 -0.04532763
0.11040992 -0.04914894 -0.048234478 0.08446338 0.02390345 0.07152976 -0.012794988 0.10633652
0.05564889 0.038272314 -0.007605568 0.01818277 0.024870541 0.030215245 -0.19137606 -0.036442075
0.068346255 0.09149825 0.050460916 0.15221019 0.05736589 0.072776504 0.012397152 0.004715761
0.068371244 -0.07013853 -0.04421632 -0.010275516 0.095925316 0.047791082 0.039961476 0.015704025
0.01874527 -0.024846258 -0.020436628 -0.015329185 -0.045189045 -0.07871621 -0.071857534 0.028556015
-0.03240024 0.037313692 -0.00211102 0.0016360398 0.0690655 -0.086515315 0.1279384 0.08021255
0.016708892 -0.007819773 0.027393881 -0.044877402 0.038499042 0.0020520755 -0.08474673 0.056461573
-0.04985966 0.006408866 -0.107258104 0.06606362 0.10033304 0.09079377 0.07236447 -0.06776387
0.031538576 0.05047374 0.07585408 -0.015173955 -0.06408455 0.13810547 0.1536386 -0.06799351
0.062204484 0.07872767 0.07936775 0.0043725013 0.074232 -0.092865616 0.013770909 -0.058336213
0.057939332 -0.05068212 -0.044276696 0.05168911 0.0042922143 0.15822385 -0.01920181 -0.10378793
-0.0017796522 0.09838884 -0.09803224 0.028654594 0.030128723 -0.14737187 -0.096974656 -0.06132062
0.028091395 0.02082428 0.03300325 0.040761225 0.06947647 -0.0068973596 0.006800864 0.039373837
0.05679731 -0.04566497 0.043387797 0.0066501447 0.05104329 0.009662759 0.064473145 0.04190879
0.007423592 0.082898356 0.0051282705 -0.06948512 0.039876174 -0.08811809 0.027695844 0.04903267
-0.067933865 -0.03368773 -0.012407502 0.03615892 0.016523985 0.021812998 -0.13880324 0.010265493

network_body.linear_encoder.seq_layers.4.bias f4 [256]
00000000: e14d 4438 c9c6 4fba 29ea d238 5a5c fdb9
00000010: c384 7239 bd65 b23a da18 b7ba 5bab 61b9
00000020: fc93 55ba 2212 773b a663 543a 1df1 df39
00000030: 729d 0bba b0a6 caba 5853 14ba fada 94b9
00000040: ee8f 9fb9 13f1 0a39 4e56 a5b9 f595 6ebb
00000050: 365a b83a aeff 8cba f72e b038 cce3 04bb
00000060: 4861 1bba 2045 bdb7 edaa 8a38 7ec6 a1b7
00000070: ba1b b1b9 3a8e aab9 0a00 46ba d7a4 7539
00000080: 5d6b 22b7 025d b3b9 09eb 98ba eb09 29b8
00000090: 40cf cfb8 2dd3 273a 8a12 e638 addf 4eb9
000000a0: 889a a5b9 e73c b738 0d44 cbb8 7ed2 59bb
000000b0: 77dc 04b8 46df 2eb9 a1a0 d8b9 2473 aeb8
000000c0: 5c3d 19ba 91e6 a73a 7ee6 2e39 db03 3fba
000000d0: f2a4 533a 45d6 1e3b 61e9 1abb 2ad6 e338
000000e0: 9aa2 58ba 7f98 f4ba 29ce 123a 75b2 a1ba
000000f0: 37d4 b8b8 4853 0aba d358 1cba 1c10 78b9
00000100: aa62 80ba 3f9e 19bb e5b1 8a36 82fa 36bb
00000110: efb2 95b9 e5f7 253a 3591 d7b9 862e 46ba
00000120: 9a74 bf38 f42e 68ba 2edf a4ba 5ebf 9e3a
00000130: 3cb0 833a 65c2 f33a 0155 5f39 0ec8 adb9
00000140: 8beb bab8 3073 443b 3b64 29ba 253e abb9
00000150: b65f 0338 1b3d 13bb 443b 2bb9 5572 aeb8
00000160: 1b7d bd38 41f4 9ab9 8b9e 71b8 14c4 15ba
00000170: 653a 803b 0969 a0ba 440d f8b7 7218 153a
00000180: 5108 8cb9 5d15 97ba ad60 2239 efc3 b5b9
00000190: df02 02ba d753 2fb9 cd36 4a39 1572 5a39
000001a0: 5096 9fb9 aa7f e0b8 83fb 05bb 85a0 ca38
000001b0: a9a0 d6b9 e166 6fb9 c462 97b9 083d f4b9
000001c0: 094a e8b9 8e0e 33bb aa6e 3dba 9a2f aab9
000001d0: 1348 b9b9 91ba bab6 4319 d738 156d 01ba
000001e0: 798f 96ba b812 17b9 c8cf 4639 0f60 f7ba
000001f0: d04e 85bb f199 29bb b238 a43a 05a1 afb8
00000200: 32e6 32ba 80bd 0bbb 7577 41ba c9eb 1939
00000210: ae77 b33b f59c 42bb 8d8d f6b8 e5ce 35ba
00000220: 8cd9 33ba f208 a238 a1a1 02ba 4c44 19ba
00000230: e590 48ba 7729 acb9 c082 343a d42d a6b9
00000240: ded3 ceb9 10fd 1bb8 b046 1cbb b45f 8736
00000250: 24a9 a7b9 46c5 79ba 2c65 28ba 4eed 76ba
00000260: dadb e7b9 a93f dfba ff45 e0b9 d509 b4ba
00000270: 5689 3cba 08fe 3bbb 3ce3 c6b8 fd94 b038
00000280: 4175 d4b7 a20a c138 19d0 5539 4d67 003a
00000290: 4cb6 fbb9 0407 60b8 a943 05bb e99b f1ba
000002a0: 8d44 3f38 7954 41bb fa69 50b9 67d7 35ba
000002b0: 228c 7a3b e058 f637 b1b0 6cb9 8601 1ebb
000002c0: 4571 00b9 00f3 41bb 7ed7 3e39 ccdd 69ba
000002d0: 2867 7239 1a63 beb9 123d 653b 0be6 d3b9
000002e0: 1fa4 7bbb d211 c339 74db 57ba 4a44 3fbb
000002f0: d50b e1b9 21f5 053b 1e4b 4939 186e cf39
00000300: a9a8 3f39 81cf 0ebb 08e7 0fba d46c 123a
00000310: f928 d337 7428 ddb9 d2e5 e13a c98f 253b
00000320: 84ae 683b f41d 1b38 2d60 9ab9 867e 30b9
00000330: a909 0238 5666 5e3a ced9 88ba e6d1 9abb
00000340: 3c26 adb9 ae4f f2ba d369 8738 8514 7e3b
00000350: a9eb 053b 412d e4b9 255c 1b3b dfcc 50b6
00000360: 6415 5b39 413e 8c39 abf9 95ba bc48 2739
00000370: d685 c6b9 254b 1dba 38a7 8cba 42e5 da3a
00000380: ef5e 3db6 0e1d 5739 4581 4639 2bc1 d3b9
00000390: 5fdf 57b9 17ec 9538 d6f2 4d39 3d52 9eb8
000003a0: 0284 5cba 8b62 bfba 8f94 86b9 0018 9fba
000003b0: f3d6 a8b9 2105 033b 6be1 f5b9 f3dd ddb9
000003c0: 2b11 04bb 0b2c af3a a7ab ae3a d2ee 173b
000003d0: 540d 8fb9 5732 ebb9 f389 f33a f70c 1ab9
000003e0: 7200 6039 429f 5aba 00c2 23b8 556f 49b9
000003f0: 3f7c 3cba b251 4cba 23f0 21b9 473d 8138
4.6802572e-05 -0.00079260446 0.00010057196 -0.00048324728 0.00023128376 0.0013610643 -0.0013969198 -0.00021521507
-0.00081473566 0.0037700017 0.0008102007 0.00042713518 -0.00053258904 -0.0015461054 -0.0005658171 -0.0002839191
-0.0003043408 0.00013250513 -0.00031535554 -0.00364053 0.0014064971 -0.0010757351 8.401082e-05 -0.002027738
-0.0005927277 -2.2562745e-05 6.61219e-05 -1.9285126e-05 -0.0003378073 -0.00032530894 -0.00075531064 0.00023426428
-9.68095e-06 -0.00034210837 -0.0011666726 -4.0301977e-05 -9.9091325e-05 0.0006402012 0.00010970708 -0.00019729017
-0.00031586387 8.737464e-05 -9.69247e-05 -0.0033237035 -3.1676576e-05 -0.00016677109 -0.00041318408 -8.318413e-05
-0.000584563 0.0012809803 0.00016679798 -0.0007286646 0.000807359 0.0024236601 -0.002363764 0.00010864095
-0.00082639756 -0.001866117 0.0005600178 -0.001233651 -8.813332e-05 -0.0005276692 -0.00059641636 -0.00023657124
-0.0009795029 -0.002344027 4.13343e-06 -0.002792031 -0.0002855281 0.00063311897 -0.00041116183 -0.0007560033
9.1293085e-05 -0.0008857094 -0.001257872 0.0012111475 0.0010047029 0.0018597363 0.00021298604 -0.00033146184
-8.9130444e-05 0.0029975884 -0.0006461774 -0.00032661963 3.132197e-05 -0.0022466842 -0.00016329909 -8.3182626e-05
9.035525e-05 -0.00029555152 -5.7606532e-05 -0.0005713117 0.003913211 -0.0012238334 -2.9570081e-05 0.00056875416
-0.00026709077 -0.0011526752 0.00015485538 -0.00034668992 -0.0004959534 -0.00016720533 0.00019284636 0.00020832599
-0.00030438835 -0.000107049316 -0.0020444102 9.66201e-05 -0.00040936962 -0.00022831142 -0.0002887455 -0.00046584778
-0.0004430565 -0.0027321908 -0.0007226268 -0.00032460393 -0.0003533965 -5.564951e-06 0.00010256704 -0.0004937214
-0.001148685 -0.00014407455 0.00018960156 -0.0018873232 -0.004068233 -0.002587911 0.0012529104 -8.3746425e-05
-0.0006824463 -0.0021322668 -0.0007380166 0.00014679054 0.0054769134 -0.0029695604 -0.0001175656 -0.0006935432
-0.0006860725 7.726428e-05 -0.0004983191 -0.0005846664 -0.00076509855 -0.0003283729 0.00068859383 -0.00031696132
-0.00039449235 -3.7190563e-05 -0.0023845844 4.034455e-06 -0.00031978742 -0.0009527992 -0.0006423767 -0.00094195164
-0.00044223556 -0.0017032522 -0.0004277676 -0.001373584 -0.00071920955 -0.002868535 -9.4837014e-05 8.420085e-05
-2.532697e-05 9.204938e-05 0.00020390785 0.00048982055 -0.00048010272 -5.3412296e-05 -0.0020334518 -0.0018433306
4.560179e-05 -0.0029499813 -0.00019875905 -0.00069366995 0.0038230498 2.936687e-05 -0.00022572537 -0.0024109795
-0.00012249227 -0.0029594302 0.00018200089 -0.0008921295 0.00023117347 -0.0003631346 0.0034979028 -0.00040416452
-0.0038397384 0.00037206576 -0.00082343 -0.002918499 -0.0004292416 0.0020440298 0.00019196837 0.00039564143
0.0001827801 -0.0021791162 -0.00054894434 0.00055856747 2.517224e-05 -0.00042182545 0.001723463 0.0025262705
0.003550441 3.6982776e-05 -0.00029444825 -0.00016831802 3.1003412e-05 0.0008483877 -0.0010440887 -0.004724729
-0.00033025618 -0.0018486881 6.457013e-05 0.0038769555 0.0020434654 -0.00043521266 0.0023706045 -3.1113666e-06
0.00020893436 0.00026749264 -0.0011442205 0.00015953457 -0.00037865218 -0.0006000272 -0.0010730987 0.0016700404
-2.8218453e-06 0.00020514822 0.00018930908 -0.00040388978 -0.0002058721 7.148849e-05 0.00019640787 -7.549345e-05
-0.00084120047 -0.0014601512 -0.00025669156 -0.001213789 -0.00032203607 0.001999207 -0.0004689799 -0.0004231777
-0.0020151834 0.0013364566 0.0013326303 0.002318312 -0.00027285016 -0.000448602 0.0018580541 -0.00014691414
0.0002136247 -0.00083397713 -3.9042905e-05 -0.00019210328 -0.0007190145 -0.0007794156 -0.00015443614 6.162613e-05

action_model._continuous_distribution.mu.weight f4 [1, 256]
00000000: 8296 3b3b 98c8 abbc dfc0 313c 97ea 18bc
00000010: 79e3 3e3c 418f b53b 834b 3bb8 b777 ca3c
00000020: b43b 4c3a ee6e 8939 bbe6 b53b 296a 5c3c
00000030: b85e 6a3a 3223 48bc 2627 d9bb c84f 54bc
00000040: 4d1a b6bb 3509 f03b fd5b e73a 7ce8 a5b8
00000050: 7c60 063b 4583 c4bc dc4f ac3b f805 77bc
00000060: c024 ffbb fc1b d43c a274 943b dbb8 3e3c
00000070: d91f 33bc d085 98bc 2e28 4eb8 b30a 1a3c
00000080: 2370 0f3c e9de 88bc 6883 13ba f88f 913b
00000090: 1632 37bc 938d fd3b 44e6 173c e386 27bb
000000a0: 9cf8 0ebc d417 b13c cc35 d4bb ee81 24bb
000000b0: c306 6b3c f464 a33a a63b 13bc ff31 483b
000000c0: ab61 f2bb 08ec b23c e6d1 343c b241 63bb
000000d0: 212e d53c 87ec 3d3c fb3e 6fbc a90d cf3a
000000e0: 0489 bfbc b228 54bc 41ae 133c 3fd4 aebc
000000f0: 0b71 963b 412b 6dbb 8cad 35bc 0cf1 0e3b
00000100: 624a ce38 b11d b5bb 0f59 633b 6a36 57bc
00000110: 9c3b fabb 40a3 833c 04d3 603c c1cd 5fbc
00000120: 303d 573c df43 633a 3099 59bc d050 883c
00000130: add7 013c bd67 423c b200 923b 7b0e bfbc
00000140: 4f33 a13b 0569 103b 69ac e3bb b583 29bb
00000150: 47cf a03c 7bd6 dfbb cb66 1c3b 5a55 783b
00000160: 44b2 353c d873 213b 2461 343c e9db dbbb
00000170: 7cfc e33c 0f45 94ba f03c cb3c 7a4d 6c3c
00000180: a037 543c 5f7a e7bb 25ad 1f3c 714c 91bc
00000190: 621c 853a 9b86 cfbc a3dc 0d3c e4de 4a3c
000001a0: e5a4 b43a 82d2 613c dbc2 c4bc 2582 943c
000001b0: 231f 9b3a 9218 933c fa48 6fbc e671 3abb
000001c0: 76ae 5b3b 7402 02bc f002 5bbc 8a0c ec3a
000001d0: 894f 91bc 5f61 063c a5f5 2dbc bb3e 8d3c
000001e0: ab92 b9bc 8312 bd3c 6fb2 863c a39d 16bc
000001f0: 2495 acba 98fc cbbc b467 cf3a 2243 663b
00000200: 9aff d7ba c004 bdbb f95f ddbc 4308 3e3c
00000210: 8a1b ce3c 2511 bebb 2fc4 4b3c ee00 46bb
00000220: a999 4abb 46da f8bb b336 a23c 419a 78bc
00000230: 7bf7 93bb 8c2c cabc 1687 4b3c 6f98 98bc
00000240: e129 0abc 81fb 953c 284a d6bb 7ffe e03b
00000250: 2ab9 283c 13fd d2bc f7e8 f6ba aac8 d1bc
00000260: 9feb 113b ee00 c0bb 0269 adbb 6ecc 65bc
00000270: 86de 3fbc 9f79 43bc 1f6f 543c c933 e03b
00000280: 5702 293c 6e61 b73b 17ac 723c 16e1 9f3c
00000290: dbfc 40bb b018 063b 942c 55bc e1d7 80bc
000002a0: 2211 313b 62f6 47bb 0b74 19bc 1c06 b0ba
000002b0: 7332 223b 6740 b1b9 c0a6 46bc 68c1 d0bb
000002c0: 79a2 dd3b 24fe 78ba d1d0 453c a1a8 4c3c
000002d0: 6d9e 743c f16f f5bc 6da6 713c c2e1 74bb
000002e0: 503d b3bc c5f2 d53a 82b3 13bc ad7f acbc
000002f0: 11a9 2ebc 026a 533c 4849 633c 8452 2a3c
00000300: 9f8a 673c 796c d5ba 3aca b8bc ce33 4f3c
00000310: 56ea 5e3b b074 a6bb 8469 103c 9bb9 7d3b
00000320: 516a 4d3b eac7 7f3c c756 e2bb 2827 133c
00000330: 3fdc 833c 162f 003c 4f2a 143a 0351 8eb9
00000340: 9677 6cbc 265f 22bd f3ef 633b d099 623c
00000350: 15f2 313b 3d84 35bc 32da d43c c768 103c
00000360: 51dd b03b f83d a63c 8830 8fb8 854f 103c
00000370: 54eb b9bb d415 58bb feee 8a3a 3d3f 9cbc
00000380: 2133 9c3c 1444 d1ba 9811 5c3b f20c 70bc
00000390: 8df7 cf3b c7dd 1c3c 8222 4c3c 77ad 5f3c
000003a0: 939d 22bc 410a 68bc fbf9 f5bc 4962 9238
000003b0: 2f9d a1bb 9a04 eb3b d121 55bb 82d0 ac3b
000003c0: 05b0 4abc 387e 323c 0c8c 143c 3dc4 d43b
000003d0: 818a 643b 060d 06bc 7859 8e3c 7245 773b
000003e0: 8d31 e43b efa4 68bc 898c ed3b 1b0d a03c
000003f0: c33a fbba d1c7 b3ba 2abd 943c 6be5 7f3b
0.0028623645 -0.020969674 0.010849207 -0.009333274 0.011650913 0.005540759 -4.46546e-05 0.024715288
0.0007790879 0.00026213325 0.005551187 0.013453045 0.0008940506 -0.0122154225 -0.0066269813 -0.012958474
-0.0055573345 0.0073253163 0.0017651316 -7.911117e-05 0.0020504287 -0.023988375 0.0052585434 -0.015077107
-0.0077863634 0.02589225 0.0045305053 0.011640753 -0.010932886 -0.018618494 -4.9151648e-05 0.009401965
0.008754763 -0.016707854 -0.0005627186 0.0044422112 -0.011181375 0.007737824 0.009271208 -0.0025562576
-0.008726265 0.021617807 -0.0064761396 -0.0025101858 0.014344874 0.0012466 -0.008986389 0.0030547378
-0.007396897 0.021841064 0.011036372 -0.0034676609 0.026022973 0.011592037 -0.014602418 0.0015796918
-0.023380764 -0.012949156 0.009013713 -0.021341441 0.0045911125 -0.0036189111 -0.01108874 0.0021811156
9.8367e-05 -0.005527221 0.0034690534 -0.013135532 -0.0076365005 0.016069055 0.013722185 -0.013659895
0.013137147 0.00086694764 -0.013281152 0.016640097 0.007924956 0.011865553 0.0044556493 -0.023322335
0.0049194465 0.0022035253 -0.006948043 -0.0025865857 0.019630088 -0.006830988 0.002386498 0.003789267
0.011089865 0.0024635699 0.011009488 -0.006709565 0.027830355 -0.0011312085 0.02480933 0.014422769
0.012952715 -0.0070641483 0.009745871 -0.017736645 0.0010155553 -0.02533274 0.008658561 0.012382243
0.0013782053 0.013783099 -0.024018696 0.018128464 0.0011834841 0.017956052 -0.014604801 -0.0028449236
0.0033520735 -0.007935155 -0.0133674 0.0018009108 -0.01773812 0.008201926 -0.010617648 0.017241826
-0.022652945 0.023080116 0.016442506 -0.009192857 -0.0013167006 -0.02490072 0.0015823753 0.003513523
-0.0016479373 -0.0057683885 -0.027023302 0.011598649 0.025159616 -0.0058003836 0.0124369105 -0.0030212956
-0.0030914342 -0.0075943796 0.019801473 -0.015173496 -0.004515586 -0.024679445 0.012422344 -0.018627374
-0.008432836 0.018308403 -0.006539602 0.006866276 0.010298053 -0.02575544 -0.001883774 -0.02560838
0.0022265685 -0.005859486 -0.005292059 -0.014025791 -0.011710769 -0.011930852 0.012965946 0.006842111
0.010315499 0.0055963313 0.014811537 0.019516509 -0.0029447589 0.0020461492 -0.013011117 -0.01572794
0.0027018269 -0.0030511846 -0.009366046 -0.0013429555 0.0024749308 -0.00033808054 -0.012124717 -0.006370712
0.006763753 -0.0009498319 0.0120737115 0.012491376 0.01493035 -0.029960604 0.014749152 -0.0037366007
-0.021879822 0.0016322961 -0.009014966 -0.021056974 -0.010660426 0.012903692 0.013872452 0.01039565
0.014132171 -0.0016282938 -0.022557367 0.012646629 0.0034014187 -0.005079828 0.008814219 0.0038715366
0.0031343887 0.015611628 -0.0069073173 0.008981504 0.016096232 0.007823726 0.00056520564 -0.0002714471
-0.014432808 -0.039641522 0.0034780472 0.013830617 0.0027152349 -0.011078891 0.02598295 0.008814043
0.0053974767 0.02029322 -6.827811e-05 0.008808021 -0.0056738053 -0.0032971995 0.001059979 -0.019073123
0.019067349 -0.0015965723 0.0033579823 -0.014651524 0.006346649 0.00957436 0.012459399 0.013652197
-0.009925264 -0.014162601 -0.030026427 6.9801295e-05 -0.004932068 0.0071721794 -0.0032521377 0.0052738795
-0.012371068 0.010894351 0.009066593 0.00649312 0.0034872594 -0.008181816 0.017376646 0.0037730602
0.0069639147 -0.0141994795 0.007249419 0.0195375 -0.0019167293 -0.0013716166 0.018156607 0.0039046656
