Assets/NeuralModels/ZBHCC.onnx (onnx, 553552 bytes, 7 tensors)

network_body.linear_encoder.seq_layers.0.weight f4 [256, 22]
0	0x3f0aba8d	0.54190904
1	0xbe1ce142	-0.15320304
2	0xbdd76c13	-0.105186604
3	0x3cdd4e1a	0.02701478
4	0x3cb105f9	0.021609293
5	0xbdb0324b	-0.086033426
6	0x3e43421f	0.19068192
7	0x3e304a85	0.17215927
8	0xbe16d54d	-0.14729805
9	0x3cebdec9	0.028792756
10	0x3e6143c3	0.21998505
11	0x3c9f76a3	0.01946575
12	0xbda38232	-0.07983817
13	0xbca2e2b6	-0.019883495
14	0x3ee14b0f	0.44002578
15	0xbec68f24	-0.38781083
16	0xbd728876	-0.05921217
17	0x3d77117a	0.0603194
18	0xbe63f040	-0.22259617
19	0x3e28cfe5	0.16485555
20	0x3e3fc23f	0.18726443
21	0x3c0c8d15	0.008578558
22	0xbea363c4	-0.31912053
23	0x3e7531fe	0.23944852
24	0x3e90d5e1	0.28288177
25	0xbe89b63b	-0.26896843
26	0x3e4f6c03	0.20256047
27	0xbe0f2a8e	-0.13981077
28	0x3e451550	0.19246411
29	0xbe0bbb9e	-0.13645789
30	0xbe122e2d	-0.14275427
31	0x3ee1f6b3	0.4413353
32	0x3e99b803	0.30023202
33	0xbd8bd025	-0.0682681
34	0xbd40571d	-0.046958078
35	0x3edf53ff	0.4361877
36	0xbc51c9f1	-0.012804494
37	0xbe0cbc6c	-0.13743752
38	0xbdeca6fa	-0.11555286
39	0xbcffdb2a	-0.031232435
40	0xbd848112	-0.06469931
41	0x3e850162	0.25977618
42	0x3e63a268	0.22229922
43	0x3d98f72d	0.0746902
44	0x3eb2e399	0.34939268
45	0xbd49dac8	-0.04928091
46	0x3e2c18d3	0.16806345
47	0xbc8cee60	-0.01720351
48	0xbdab575e	-0.08366273
49	0x3e8a579d	0.2701997
50	0x3e63ac2f	0.22233652
51	0xbdd7ec5b	-0.10543128
52	0xbe7ed214	-0.24884826
53	0x3eab7ff0	0.33496046
54	0x3e1ad5fa	0.15120688
55	0x3e05247e	0.13002202
56	0x3e8bd530	0.27311087
57	0xbe0f39b2	-0.13986853
58	0x3e72fa7c	0.23728365
59	0xbe5bb0c7	-0.21454154
60	0x3e8cdc7b	0.27511963
61	0x3eae9247	0.34095976
62	0x3ceb735f	0.028741537
63	0x3e69fb10	0.22849679
64	0xbe743756	-0.23849234
65	0xbe372fd5	-0.1788934
66	0xbf4839af	-0.7821302
67	0x3e329cf3	0.17442684
68	0x3cdb356c	0.026758872
69	0xbe27ea3c	-0.16397947
70	0x3d077f45	0.033080358
71	0xbe3fba39	-0.18723382
72	0xbdce660d	-0.100780584
73	0x3e5366df	0.20644711
74	0xbeda87aa	-0.42681628
75	0x3cb2b57d	0.021815056
76	0x3e3ad49e	0.1824517
77	0x3e2632a4	0.16230255
78	0xbe89c402	-0.26907355
79	0xbe32d087	-0.1746236
80	0x3ec43bb0	0.38326788
81	0xbe2cb241	-0.16864873
82	0x3d301aa5	0.04299416
83	0x3eb87b87	0.36031744
84	0xbe8032ec	-0.2503885
85	0x3e11c9d1	0.14237143
86	0x3e3eac1c	0.18620342
87	0xbe8bb213	-0.27284297
88	0x3e7e1f56	0.24816641
89	0xbed704a0	-0.41995716
90	0x3ee20bbb	0.44149575
91	0xbe7513a4	-0.23933274
92	0xbcb69a1f	-0.022290288
93	0xbe5ef56e	-0.21773311
94	0xbd9073fd	-0.07053373
95	0xbe3c6d5d	-0.18401094
96	0x3d519cb8	0.05117485
97	0x3ebc27f9	0.36749247
98	0xbebf1b30	-0.3732543
99	0xbec68ac2	-0.3877774
100	0x3e0816ce	0.1328995
101	0x3e1a4213	0.15064268
102	0x3e20986d	0.15683146
103	0x3da5c7a0	0.08094716
104	0x3e42187e	0.18954656
105	0xbeaae03d	-0.33374205
106	0xb94ceff3	-0.00019544344
107	0xbec98503	-0.39359292
108	0x3dd99987	0.10624986
109	0xbcefe0ff	-0.029282091
110	0x3d5fe157	0.05465826
111	0x3d201ce5	0.039090056
112	0xbda759d3	-0.081714295
113	0x3e426aa6	0.18985996
114	0xbcf2d436	-0.029642206
115	0x3ec1bd05	0.37839523
116	0x3e200c68	0.15629733
117	0xbd40cf19	-0.047072504
118	0xbd94c0eb	-0.07263359
119	0xbe3a357f	-0.1818447
120	0xbdb3d7c7	-0.08781391
121	0xbe12128a	-0.14264885
122	0x3eb3033a	0.349634
123	0x3ea7f31a	0.3280266
124	0x3ecb48d9	0.39704016
125	0xbd1c608c	-0.03817801
126	0x3e96c99c	0.2945069
127	0xbd85c393	-0.065314434
128	0x3e31afe0	0.17352247
129	0x3df3ad51	0.11898292
130	0x3dc24199	0.09485168
131	0x3e9604b6	0.2930047
132	0x3ec40428	0.3828442
133	0xbdc9947f	-0.098427765
134	0x3e15c3c1	0.14625455
135	0xbef1bc41	-0.4721394
136	0xbe868161	-0.26270583
137	0x3ea5ab80	0.32357407
138	0x3e4b7839	0.1987008
139	0xbe35c073	-0.17749195
140	0xbe947a43	-0.28999528
141	0x3db38ba8	0.08766872
142	0x3e77fc31	0.24217297
143	0x3e4b0fc9	0.1983024
144	0x3c9ed00a	0.01938631
145	0x3e64d09a	0.223452
146	0xbf09652f	-0.5367002
147	0xbd8af650	-0.06785262
148	0x3e9a4438	0.30130172
149	0x3e06a5e0	0.13149214
150	0x3cb88e79	0.022528874
151	0x3ebcafa5	0.36852756
152	0xbdedd3ac	-0.11612639
153	0xbdaa80b4	-0.083253294
154	0x3d3e766a	0.046499647
155	0xbe0732f7	-0.13203035
156	0x3ed14ba0	0.4087801
157	0xbd50c46b	-0.05096857
158	0x3edabd5d	0.42722598
159	0xbe85d7ec	-0.26141298
160	0xbd7cf89b	-0.061760526
161	0xbdbef104	-0.09323314
162	0xbe0d145f	-0.13777302
163	0x3e80be47	0.2514517
164	0xbd95c1cf	-0.07312357
165	0x3f0c75a8	0.5486703
166	0x3da558f5	0.08073608
167	0x3e8c84b4	0.27444994
168	0xbcdc83ee	-0.026918378
169	0x3e88eec7	0.26744673
170	0x3e872331	0.26394036
171	0x3ec087a7	0.37603495
172	0x3d8be008	0.0682984
173	0xbdf33615	-0.1187555
174	0xbe2e1d6f	-0.17003416
175	0xbe4eaf4f	-0.20184062
176	0xbe05bf38	-0.13061225
177	0x3ed2f091	0.41199163
178	0xbe809326	-0.25112265
179	0xbe83b2a5	-0.25722232
180	0x3d977ee7	0.073972516
181	0xbdad0e65	-0.08450011
182	0xbeb8a234	-0.3606125
183	0x3e4f6dda	0.20256749
184	0xbe5c820c	-0.21533984
185	0xbe907307	-0.2821276
186	0xbdece924	-0.115679055
187	0xbd1a6b37	-0.037699904
188	0xbe1582ff	-0.14600752
189	0x3d14bef7	0.03631493
190	0xbe1c2639	-0.15248956
191	0xbd48c5e2	-0.04901684
192	0xbf0b2263	-0.54349345
193	0x3e17a949	0.14810671
194	0x3df021a3	0.11725166
195	0xbe03e7f2	-0.12881449
196	0x3dcc8326	0.09985952
197	0x3eed2ed4	0.4632479
198	0x3dd5f4ce	0.104470834
199	0xbd10c32b	-0.035342377
200	0xbd4aa9b6	-0.049478255
201	0x3ec0ae8b	0.37633166
202	0xbdb75a3d	-0.089527585
203	0xbe83cd94	-0.2574278
204	0x3e4c553a	0.19954386
205	0xbd9a0594	-0.07520595
206	0x3d8d99b8	0.06914085
207	0x3e1b3a6e	0.15159008
208	0x3a98c964	0.0011656699
209	0x3dc16efc	0.09444997
210	0xbe2e5b08	-0.17026913
211	0x3dd845b3	0.10560169
212	0xbd40b075	-0.047043283
213	0xbe006a53	-0.1254056
214	0xbe202369	-0.15638508
215	0x3e3d5e22	0.1849294
216	0x3d32b9f5	0.043634374
217	0xbe6aa7a0	-0.22915506
218	0x3e554918	0.20828664
219	0x3d72a0bf	0.05923533
220	0xbe75471e	-0.2395291
221	0x3e18c127	0.14917432
222	0x3d266d7e	0.040631764
223	0xbd59918b	-0.053117316
224	0x3e30e726	0.17275676
225	0xbe69adca	-0.22820202
226	0xbd4955e6	-0.049154185
227	0xbccae613	-0.024767911
228	0x3f25714e	0.64626014
229	0x3e0514dc	0.12996238
230	0x3e0b52df	0.13605832
231	0x3e07c46b	0.13258521
232	0x3e33a936	0.17545018
233	0xbe7b55a5	-0.2454439
234	0x3db75eea	0.0895365
235	0xba0bef7f	-0.0005338117
236	0x3d8d77fc	0.06907651
237	0xbdcf6ed1	-0.101285584
238	0xbdad8b7a	-0.08473869
239	0x3e918437	0.28421184
240	0x3e5d3eda	0.21606007
241	0x3ed403c3	0.4140912
242	0xbe18a6e3	-0.14907412
243	0xbbe936d6	-0.0071171327
244	0xbda8d990	-0.08244622
245	0xbdf0dac9	-0.1176048
246	0x3d4f3e3f	0.050596472
247	0x3e350bf7	0.17680345
248	0x3de793ae	0.113074645
249	0xbdb50743	-0.08839276
250	0xbd6cea11	-0.05784041
251	0xbe6bb6f0	-0.23019004
252	0xbcb81a46	-0.022473466
253	0x3d8e2418	0.06940478
254	0x3d348ad0	0.044077694
255	0x3e5c10aa	0.21490732

network_body.linear_encoder.seq_layers.0.bias f4 [256]
0	0xb9fa0058	-0.00047683972
1	0xbb10208b	-0.0021992053
2	0xb7d7ba2d	-2.5716692e-05
3	0xb920c405	-0.00015331812
4	0x377c4376	1.50360775e-05
5	0x38b97a4d	8.844268e-05
6	0xb9ef72d7	-0.00045671195
7	0xbb15a3ab	-0.002283315
8	0xb70b0347	-8.285809e-06
9	0x3b07f614	0.002074604
10	0xb713c895	-8.808584e-06
11	0xbac95066	-0.0015359044
12	0xb957ce61	-0.0002058088
13	0xb9059e7d	-0.0001274291
14	0x3814d945	3.5488298e-05
15	0x3a2b6938	0.0006538811
16	0xb9ca0bdd	-0.0003853728
17	0x37e4b59e	2.726429e-05
18	0xb8a1aa92	-7.7088494e-05
19	0x38c5b8c4	9.428107e-05
20	0x3a943b75	0.0011309223
21	0xb9ffdf61	-0.0004880382
22	0xb9dbd115	-0.00041926713
23	0xb924ec3e	-0.00015728266
24	0xb9931310	-0.00028052228
25	0x38574b01	5.1329847e-05
26	0xbb17f093	-0.0023184165
27	0xb996f8ba	-0.00028795545
28	0x39b10c64	0.00033769303
29	0x3a6e5ef0	0.0009093126
30	0x38590ea2	5.175046e-05
31	0xb895bd1f	-7.1401e-05
32	0x391f9810	0.0001522007
33	0x39bed018	0.00036394666
34	0xb9c681d1	-0.00037862224
35	0xbac3232a	-0.0014887799
36	0xb95f3f67	-0.00021290556
37	0x3ad52fa2	0.0016264806
38	0xb99c2eff	-0.00029789653
39	0xba260c1e	-0.0006334203
40	0xb9f6f2c0	-0.0004710164
41	0xbad6bfe3	-0.0016384091
42	0xba03f977	-0.00050344266
43	0xb9d9fa8e	-0.00041576143
44	0xb87ad389	-5.9801652e-05
45	0xb7f735c6	-2.9469735e-05
46	0x3a0cc29b	0.00053695746
47	0xb9075f57	-0.0001291012
48	0xba942c2c	-0.0011304668
49	0xbb07fef6	-0.0020751334
50	0xb98a8948	-0.00026423694
51	0xb9051f89	-0.00012695616
52	0xb9c405ee	-0.0003738845
53	0x3a2176a3	0.0006159341
54	0xbb2ee07a	-0.0026684091
55	0xbb2ee52d	-0.0026686892
56	0xb99ad036	-0.00029528298
57	0x3a781da1	0.0009464864
58	0xba9cc696	-0.0011961039
59	0x3885ce9a	6.380417e-05
60	0xb9e9b4d8	-0.00044575962
61	0x388bddf6	6.66938e-05
62	0xbb0cc480	-0.0021479428
63	0xba8ca752	-0.0010731018
64	0x39ebc2ea	0.00044967915
65	0xba5e88df	-0.00084890233
66	0xb92be712	-0.00016393911
67	0x3a381392	0.0007021959
68	0x3ac69e7a	0.0015153431
69	0x3988f37a	0.00026121346
70	0xb95be0c5	-0.000209692
71	0xb9fae8e1	-0.00047857224
72	0x393499e0	0.0001722346
73	0x3ae136b1	0.0017182437
74	0xbabda71a	-0.0014469356
75	0xb9402b89	-0.00018326765
76	0xba5ff6d6	-0.00085435563
77	0xba5987dc	-0.00082981377
78	0x3927fffa	0.0001602172
79	0x39b2034c	0.00033953262
80	0xba1a851d	-0.0005894469
81	0xb909c4e6	-0.00013138689
82	0xba05a83d	-0.0005098617
83	0xb7cda8bd	-2.451648e-05
84	0x39686fb6	0.0002216686
85	0xb9474d05	-0.00019006811
86	0xba059ee4	-0.0005097224
87	0x39ce04dd	0.00039295005
88	0xba6ac4a4	-0.00089556933
89	0xb933b235	-0.00017137158
90	0xb93648b8	-0.00017383962
91	0xba7e8976	-0.00097098143
92	0x3a394ff0	0.00070691016
93	0xb9e8e6a8	-0.0004442234
94	0x38a38259	7.796725e-05
95	0x39abb1c4	0.00032748107
96	0x377cfee0	1.5079713e-05
97	0xb998f719	-0.000291758
98	0xba9ab944	-0.0011804481
99	0xb9416dbc	-0.00018446794
100	0xbab60ceb	-0.0013889348
101	0x3a980f51	0.0011601244
102	0xb9bc027b	-0.00035860002
103	0xb96aeb80	-0.0002240371
104	0xb9f927ed	-0.00047522728
105	0xba01658a	-0.000493609
106	0x385a7166	5.208086e-05
107	0xb9d32229	-0.00040270507
108	0xba41a361	-0.0007386711
109	0xb613e22e	-2.203636e-06
110	0xba4833d8	-0.000763712
111	0x39da7d49	0.00041673545
112	0xbae794ee	-0.0017668286
113	0xb93b6175	-0.00017870015
114	0x37d6fbf3	2.5628111e-05
115	0xb903e2f9	-0.00012577687
116	0xba869d91	-0.0010270347
117	0xb9d91f7b	-0.0004141292
118	0x38b85473	8.7895336e-05
119	0x3b0eb5fe	0.0021775956
120	0xb94adfa6	-0.00019347537
121	0xba426f38	-0.00074170856
122	0xb94b65e0	-0.0001939754
123	0xb9f0451e	-0.00045827864
124	0xb9945fb9	-0.0002830008
125	0xba52c05b	-0.00080395275
126	0xba3fc07e	-0.00073147553
127	0xbae131ca	-0.0017180976
128	0x393688a3	0.00017407774
129	0xbacfb5f8	-0.0015847078
130	0xb9a4b4ce	-0.00031415228
131	0xbab54229	-0.0013828921
132	0x39ab7bb7	0.00032707836
133	0xba2c4109	-0.000657097
134	0xb9489b9b	-0.00019131454
135	0xb7699c62	-1.3924293e-05
136	0xb893c36d	-7.045907e-05
137	0x39eb4e9a	0.00044881256
138	0x394cc337	0.00019527679
139	0xba0b55a7	-0.00053151924
140	0xba152360	-0.000568917
141	0x3702d464	7.798055e-06
142	0xb9cc0bae	-0.00038918614
143	0xba394e1e	-0.00070688303
144	0xb9c8eb7e	-0.00038322428
145	0x3a30a2e7	0.00067381415
146	0xba396d3e	-0.00070734683
147	0xba337807	-0.00068461936
148	0xbaffa165	-0.0019503055
149	0xbaba40e2	-0.001421001
150	0x3a28bb1a	0.0006436572
151	0xb95dcc5e	-0.00021152335
152	0x3a1402d0	0.0005646171
153	0x39fa3740	0.0004772488
154	0xb89fdd3f	-7.622921e-05
155	0xb93cef3c	-0.00018018199
156	0x391bac19	0.00014846063
157	0xb9deb506	-0.00042478013
158	0xb922b1b9	-0.00015515731
159	0xba4dc365	-0.00078492454
160	0x375bc6b8	1.3099685e-05
161	0xb9441a6c	-0.0001870186
162	0xb83472c5	-4.302223e-05
163	0xb800888b	-3.0644744e-05
164	0xb9f25acc	-0.00046225486
165	0xba0c0f2a	-0.0005342836
166	0x3a44564c	0.0007489666
167	0xb96fcd63	-0.00022869329
168	0x39220c26	0.0001545405
169	0xba888b57	-0.0010417503
170	0xb8a66b76	-7.935513e-05
171	0x3a9aaa85	0.0011800086
172	0xb978a7f4	-0.0002371369
173	0xbac4bde7	-0.0015010209
174	0xbac028ae	-0.0014660561
175	0xb947f795	-0.0001907035
176	0xb7cb4f3a	-2.4236379e-05
177	0x3a0b4868	0.00053132186
178	0xba2348ba	-0.00062287936
179	0xb7cb6b58	-2.4249472e-05
180	0xb9da04a0	-0.00041583646
181	0x3a049705	0.0005057904
182	0x394524c3	0.00018801079
183	0xb958587b	-0.00020632327
184	0xba189588	-0.0005820622
185	0xb7b9825c	-2.2114422e-05
186	0x3a37db09	0.0007013535
187	0xb9b26851	-0.00034028527
188	0xba22e9be	-0.000621464
189	0xb9c5e2ae	-0.00037743658
190	0x390b9ac4	0.00013313728
191	0xb913dd0c	-0.00014101359
192	0xb91e55e0	-0.00015100045
193	0xb9f240bb	-0.00046206065
194	0xba2b7d55	-0.0006541808
195	0xb97db17f	-0.00024194083
196	0xb909dd32	-0.0001314774
197	0x38bd8a49	9.03798e-05
198	0xba158b65	-0.00057046703
199	0xba491a84	-0.00076714926
200	0x34e72bee	4.3059066e-07
201	0x3a5eebda	0.00085037726
202	0x38c470c4	9.3670125e-05
203	0x3681193a	3.8474363e-06
204	0x39e33464	0.00043335848
205	0x39f6fc6a	0.0004710884
206	0xb7ab4443	-2.0416575e-05
207	0x39df79a7	0.00042624513
208	0xb9d32e2e	-0.00040279463
209	0xb9907362	-0.00027551787
210	0xbb4daa2f	-0.0031381955
211	0x3940f2e9	0.00018401038
212	0x38993950	7.306284e-05
213	0xbb1f4370	-0.002430167
214	0x3906fb31	0.00012872812
215	0xb89319e3	-7.014328e-05
216	0x39e8964c	0.00044362468
217	0x39fb6555	0.0004794995
218	0xb8413271	-4.6061763e-05
219	0xb927472a	-0.00015952872
220	0x3aab8396	0.001308548
221	0x3815651d	3.5618537e-05
222	0xba0645ea	-0.00051221123
223	0xb99f25f7	-0.0003035513
224	0xba50fd97	-0.0007972358
225	0xba9a5d14	-0.0011777007
226	0xb9ab30b8	-0.0003265196
227	0xb95e8682	-0.00021221678
228	0xb88c6b96	-6.69576e-05
229	0xbaba13da	-0.001419659
230	0xb9dc6039	-0.0004203336
231	0xb9295710	-0.00016149529
232	0xb9d5d528	-0.0004078534
233	0xba4d7e59	-0.00078389567
234	0xb9c4e0ee	-0.0003755162
235	0xb9e2ea2f	-0.0004328056
236	0xb852caa8	-5.025664e-05
237	0xbb1c11ea	-0.0023814389
238	0x3a6a6909	0.0008942043
239	0x3987f589	0.00025932144
240	0xb9fde4fa	-0.0004842652
241	0xb921d6a5	-0.00015434118
242	0x397a002d	0.00023841923
243	0xbadc330e	-0.0016799883
244	0xba138ade	-0.0005628298
245	0x3a8fc2c8	0.0010968084
246	0xba52eea0	-0.0008046422
247	0xb693dbd5	-4.406533e-06
248	0xb900d197	-0.0001228511
249	0xb8d1e97d	-0.00010009387
250	0xb8000a63	-3.052725e-05
251	0xba988019	-0.0011634856
252	0xb9df2aac	-0.00042565668
253	0xb79119b4	-1.7297316e-05
254	0xb9b0db91	-0.00033732926
255	0x3857fd67	5.1495994e-05

network_body.linear_encoder.seq_layers.2.weight f4 [256, 256]
0	0xbd4756d8	-0.048666805
1	0x3dc8f492	0.09812273
2	0xbd33b076	-0.04386946
3	0x3dcc2cd1	0.099694856
4	0x3cc14a06	0.023594867
5	0xbc9382e1	-0.018006744
6	0xbdaaa7ef	-0.08332812
7	0x3bfb5c6c	0.0076709297
8	0xbc4d9cf2	-0.012549626
9	0x3d7a1c10	0.06106192
10	0xbd2940ef	-0.04132169
11	0xbdf71464	-0.12064436
12	0x3de5efa7	0.11227351
13	0xbae0538b	-0.0017114741
14	0xbd4580d5	-0.048218567
15	0x3da4b30c	0.08041963
16	0xbd6f2ee8	-0.058394343
17	0x3de3e769	0.11128122
18	0xbd2c07ee	-0.04199975
19	0xbdf95581	-0.12174512
20	0xbc653dec	-0.013991814
21	0x3b49e532	0.0030806777
22	0xbdc5886c	-0.09645161
23	0xbd0c0b24	-0.034190312
24	0xbe0a5a84	-0.13511091
25	0x3d9800d9	0.07422037
26	0x3dd3b975	0.103381075
27	0xbd2bd238	-0.041948527
28	0x3c6b983d	0.014379558
29	0xbbd54703	-0.0065087094
30	0x3d93d9ef	0.07219302
31	0xbccfdb4b	-0.025373122
32	0x3de0fde7	0.10985928
33	0x3d4716e4	0.048605815
34	0x3c6c32ca	0.014416406
35	0xb7d004aa	-2.4797704e-05
36	0xbb69f12e	-0.0035696733
37	0xbd717c83	-0.058956634
38	0xbcfa48fa	-0.030552376
39	0xbd294f40	-0.041335344
40	0xbcc58b02	-0.024114136
41	0xbd0c5933	-0.034264755
42	0x3d6874be	0.05675196
43	0xbc716bff	-0.014735221
44	0x3dd7a4a9	0.10529453
45	0x3ab8c244	0.0014095982
46	0xbc73fd16	-0.014891883
47	0xbcf4eb85	-0.02989746
48	0xbcb8ed50	-0.022574097
49	0xbe064674	-0.13112813
50	0xbcead2b0	-0.028664917
51	0xbc0149fe	-0.007891176
52	0xbd526d0b	-0.051373523
53	0x3d4d0764	0.050055876
54	0xbce9ac1d	-0.028524453
55	0xbd730cd5	-0.05933841
56	0xbd9702f4	-0.0737361
57	0x3c7d6979	0.015467041
58	0x3c0a0c4c	0.008425783
59	0xbc7632d2	-0.015026765
60	0xbd7ea6b8	-0.062170714
61	0x3caf17c8	0.021373644
62	0x3c1a859c	0.009431269
63	0x3bf780a9	0.0075531793
64	0xbd063ecb	-0.032774728
65	0x3c8316fd	0.016002173
66	0x3cca576d	0.024699891
67	0xbd07121f	-0.032976266
68	0xbd4f5c3a	-0.050625063
69	0x3c17a993	0.009256738
70	0xbcd63ac5	-0.02615107
71	0x3c8d7b9b	0.017270854
72	0x3db84d45	0.08999113
73	0x3b64b301	0.0034896734
74	0xbcbd542f	-0.02311143
75	0x3e0ff7ba	0.14059344
76	0xbceeb88f	-0.029140739
77	0xbd28a921	-0.04117692
78	0x3deedc81	0.116631515
79	0xbc80b16a	-0.015709598
80	0x3c9a30e9	0.01882215
81	0xbb69ccd4	-0.0035675066
82	0x3bce9b6e	0.0063051498
83	0x3d590d8b	0.05299143
84	0x3dd3717b	0.10324379
85	0xbd662caa	-0.05619494
86	0xbcb8388f	-0.022487907
87	0x3cfd172f	0.030894844
88	0x3b8fbf25	0.0043868
89	0xbc9d1ff9	-0.019180285
90	0x3c8a346c	0.0168707
91	0x3dcb63d9	0.09931154
92	0x3daf780c	0.08567819
93	0x3bcd8163	0.0062715276
94	0x3b0e4aaa	0.0021711984
95	0xbc4f2d51	-0.012645082
96	0x3b8ae1e5	0.0042383545
97	0xbd18d97b	-0.03731678
98	0x3b9e05a8	0.0048224516
99	0x3c872a68	0.016499713
100	0xbd296b7a	-0.041362263
101	0xbc5f40d1	-0.013626293
102	0xbbc07379	-0.0058731404
103	0xbd304445	-0.043033857
104	0xbd78a2d2	-0.060702153
105	0xbe2626f9	-0.16225804
106	0xbd4fd629	-0.05074135
107	0xbceee358	-0.02916114
108	0xbdec352d	-0.1153358
109	0xbd360bc5	-0.044444818
110	0xbb679292	-0.0035335165
111	0xbd160ac6	-0.036631368
112	0x3d8e160a	0.06937797
113	0x3c3e6c74	0.011622537
114	0x3d8b0772	0.067885295
115	0x3a240602	0.0006256999
116	0x3d84b553	0.06479897
117	0x3dae71ea	0.08517821
118	0xbc8e5076	-0.017372351
119	0xbcecefaa	-0.028922874
120	0xbb04c4e5	-0.002025896
121	0x3dab9115	0.083772816
122	0x3d48ac18	0.048992246
123	0xbac9d61a	-0.001539889
124	0x3cd01c84	0.025404222
125	0x3d3832fd	0.0449705
126	0x3d184a4e	0.037180237
127	0x3c041066	0.00806055
128	0xbcc2d8b6	-0.023784976
129	0xbd57443a	-0.0525553
130	0x3ad6d867	0.0016391397
131	0x3dbaecd0	0.091272
132	0xbafaebe0	-0.0019143783
133	0x3d643731	0.055716697
134	0xbd1f12ae	-0.038836174
135	0x3d4f90c5	0.050675172
136	0x3c4ebf64	0.012618873
137	0xbd419fec	-0.047271654
138	0xbd34e611	-0.04416472
139	0xbcd8e644	-0.026476987
140	0x3c2bc0a1	0.010482938
141	0xb92f5904	-0.00016722461
142	0xbc1bb537	-0.009503654
143	0x3d5b110c	0.053483054
144	0xbd35df41	-0.044402365
145	0xbbdfe2b4	-0.006832445
146	0x3db9f535	0.09079973
147	0xbd89015b	-0.06689712
148	0x3da37890	0.0798198
149	0xbc9c90a5	-0.01911194
150	0x3cad4da8	0.021155193
151	0x3d5cbfd4	0.05389388
152	0xbd6766c0	-0.056494474
153	0x3cadee4e	0.021231797
154	0xbd739a7c	-0.0594735
155	0xbcf18bf2	-0.029485676
156	0x3dba626c	0.09100804
157	0xbd23010a	-0.039795913
158	0x3d163695	0.036673147
159	0x3d8ebd93	0.06969752
160	0xbce55360	-0.027993858
161	0x3c6ccacb	0.0144526465
162	0x3cebe502	0.028795723
163	0x3d49b2b6	0.049242698
164	0xbde118c1	-0.109910496
165	0xbd96c92c	-0.07362589
166	0x3da58c80	0.08083439
167	0xbdb20069	-0.086914845
168	0x3d17956a	0.037007727
169	0x3c85e567	0.01634474
170	0x3c01d862	0.007925125
171	0x3b089d4d	0.0020845712
172	0xbd02d8a2	-0.03194488
173	0xbe17b37e	-0.14814565
174	0xbdb45ba6	-0.08806543
175	0x3cfbb397	0.030725284
176	0xbb65e632	-0.0035079834
177	0x3d9997d5	0.07499663
178	0xbd130585	-0.035893936
179	0xbd45a3df	-0.048251983
180	0x3d8955b7	0.06705802
181	0x3d07b1e5	0.033128638
182	0x3d99bdfd	0.075069405
183	0x3d8802f4	0.06641188
184	0x3de08ded	0.1096457
185	0xbd91b1f0	-0.07114017
186	0x3df06a68	0.117390454
187	0xbd225f26	-0.039641522
188	0xbd868826	-0.06568937
189	0x3d14d6d4	0.03633769
190	0xbd14c72a	-0.03632275
191	0xbd542630	-0.05179423
192	0x3c9e435e	0.019319233
193	0xbd13ca09	-0.036081348
194	0xbdaedaf9	-0.085378595
195	0xbe2afed9	-0.16698779
196	0x3d0b4dfd	0.034009922
197	0x3db71925	0.08940343
198	0xbd1b1a96	-0.03786715
199	0x3d621393	0.05519445
200	0x3c29e250	0.0103688985
201	0x3d8c509c	0.068513125
202	0xbe0bf3b7	-0.13667189
203	0x3d23d9e4	0.04000272
204	0x3db2f9fb	0.08739086
205	0xbdb9c12a	-0.09070046
206	0x3cbc2b80	0.022969961
207	0xbc3b371d	-0.011426714
208	0x3ced3abd	0.028958673
209	0x3d108b5f	0.035289165
210	0x3b36a4ea	0.0027869293
211	0xbd0da098	-0.034576982
212	0x3bb1027e	0.0054019084
213	0x3cdb71ef	0.026787726
214	0xbddb45d7	-0.1070668
215	0xbd88920b	-0.066684805
216	0xbbfb2fe6	-0.007665622
217	0xbc9328be	-0.017963763
218	0x3cb394f7	0.021921618
219	0xbbe702bc	-0.0070498865
220	0xbc2488e1	-0.0100424
221	0x3e1603b3	0.14649849
222	0x3d068476	0.03284117
223	0x3e095b27	0.13413678
224	0xbe0ec73f	-0.13943194
225	0xbcf566b9	-0.029956209
226	0xbd4b8c2c	-0.049694225
227	0x3d65e862	0.05612982
228	0x3db37f2c	0.087644905
229	0xbd973437	-0.07383006
230	0xbc6ff322	-0.01464537
231	0xbe28504e	-0.16436884
232	0xbda7322c	-0.081638664
233	0xbd925fb6	-0.07147162
234	0x3ca7fb94	0.020505704
235	0x3a69a5bf	0.0008912943
236	0xbd968ad3	-0.07350697
237	0xbcaab963	-0.020840352
238	0xbd0bffa3	-0.03417934
239	0xbc423aa6	-0.011854803
240	0xbc52ec33	-0.012873697
241	0x3d58aeb2	0.052900977
242	0x3c9d6549	0.019213336
243	0xbbc52c44	-0.0060172398
244	0x3c5d8e25	0.013522659
245	0xbd303dc8	-0.04302767
246	0xbd0270bf	-0.031845804
247	0x3ce133fc	0.027490608
248	0xbddfafc4	-0.109221965
249	0x3adb3552	0.0016724265
250	0x3d27b2b8	0.040941924
251	0xbb41dfbe	-0.0029582824
252	0xbae52957	-0.0017483634
253	0x3bbe5ceb	0.0058094165
254	0xbdafc8b6	-0.085832044
255	0x3da9a435	0.08283273

network_body.linear_encoder.seq_layers.2.bias f4 [256]
0	0xb97e112a	-0.00024229722
1	0x3adebb5a	0.0016993091
2	0xb9161303	-0.00014312197
3	0x3a86f7ec	0.0010297275
4	0xb90700fb	-0.00012874969
5	0x3943afe6	0.00018662176
6	0xb8d3d958	-0.000101017475
7	0xba046425	-0.0005050323
8	0xba9c90ef	-0.0011945049
9	0xb5f4b56c	-1.8232217e-06
10	0xb9fc880e	-0.00048166554
11	0xb9e05f8f	-0.00042795806
12	0xba3b009a	-0.00071335735
13	0xb8744b72	-5.8244397e-05
14	0x3aae4676	0.0013296145
15	0xb9ae1160	-0.00033200812
16	0xb971d9b8	-0.00023064658
17	0xb8cf5bb7	-9.8876124e-05
18	0xb913b8f3	-0.00014087911
19	0x3971a2d1	0.00023044205
20	0xb9873706	-0.00025790202
21	0xb900cee1	-0.000122841
22	0x39b949e3	0.00035341
23	0x39a2accb	0.0003102779
24	0xbabed69e	-0.001455981
25	0xb98d3a35	-0.00026936983
26	0xba25a3f2	-0.000631868
27	0xb977623c	-0.00023592351
28	0xba42d14a	-0.0007431699
29	0x357e9907	9.484506e-07
30	0xb9d20ac7	-0.0004006235
31	0x37480cf3	1.1923944e-05
32	0x38f6b2a2	0.00011763467
33	0xb88afb1c	-6.6271255e-05
34	0x38a8e294	8.053068e-05
35	0xb9481a3a	-0.00019083256
36	0xb9ba7678	-0.0003556495
37	0xb8c0a0b1	-9.1852045e-05
38	0xb8a2eb5a	-7.7685996e-05
39	0xba13c614	-0.0005637121
40	0xba261497	-0.00063354656
41	0xb99238d5	-0.00027889633
42	0x37b554bf	2.1616344e-05
43	0x3b24a578	0.002512304
44	0xb8e22887	-0.000107840686
45	0xb9c86b9b	-0.00038227145
46	0xba16308c	-0.000572928
47	0xb962c223	-0.00021625361
48	0xba2c16ca	-0.0006564675
49	0xb992cbdc	-0.00027999177
50	0xb8b10fd2	-8.4429645e-05
51	0xb918f3aa	-0.00014586622
52	0xb965c6d3	-0.0002191321
53	0xb9efe01b	-0.00045752604
54	0xb8a7976f	-7.991387e-05
55	0xb95eb2be	-0.00021238156
56	0xb900245c	-0.00012220576
57	0xbac4726d	-0.0014987715
58	0x39569cd0	0.00020467048
59	0xb9a350b4	-0.0003114991
60	0xb9753873	-0.0002338605
61	0xb9d1f18b	-0.0004004355
62	0xb8890b41	-6.534765e-05
63	0xb90159cf	-0.00012335855
64	0xbaa1facd	-0.001235807
65	0xb968fc76	-0.00022219293
66	0x39bcffbc	0.0003604869
67	0xb95c5b6f	-0.00021014897
68	0xba9831b8	-0.0011611497
69	0xba79943e	-0.0009520686
70	0xb907bc8c	-0.00012944842
71	0x37917d68	1.7343744e-05
72	0xb930d26e	-0.00016863059
73	0x39641f55	0.00021755447
74	0xba268df4	-0.000635355
75	0xb8f0fa5f	-0.00011490727
76	0xba10c6b6	-0.00055227743
77	0x393e4ecc	0.00018149166
78	0x39a1fd95	0.00030897246
79	0xbaa4cd46	-0.0012573383
80	0x38cfc563	9.907295e-05
81	0x393167dd	0.00016918727
82	0x380aea12	3.311976e-05
83	0xb80110b0	-3.0771538e-05
84	0x38ffa20e	0.000121895326
85	0x399197a5	0.0002776954
86	0xba95805e	-0.0011406054
87	0xb8b86f98	-8.79459e-05
88	0xba211b7b	-0.00061457575
89	0x37545bf6	1.2657596e-05
90	0xb98fe1b6	-0.00027443253
91	0x38c991df	9.6115975e-05
92	0xb9b1f69b	-0.00033943806
93	0xb9a75162	-0.00031913357
94	0xba47c8ff	-0.00076211983
95	0x3a9bb2b3	0.0011878818
96	0x3805e8b6	3.19264e-05
97	0xb9b89e78	-0.00035213283
98	0xb9817bda	-0.00024697074
99	0xb91be2a8	-0.00014866388
100	0x39279101	0.00015980379
101	0xb91af4dc	-0.00014777802
102	0x3b0299fb	0.0019928205
103	0x379c3383	1.8620636e-05
104	0xb6db34a4	-6.532837e-06
105	0x39e955c0	0.00044505112
106	0xb88bc1ff	-6.664171e-05
107	0x39badedb	0.00035642725
108	0xb7c511e2	-2.3492557e-05
109	0xba255d2a	-0.0006308133
110	0x3817a53f	3.6155103e-05
111	0xba59ea10	-0.0008312771
112	0xb85436e9	-5.0595878e-05
113	0xb9cdd58c	-0.00039259752
114	0xbae0089c	-0.001709241
115	0xb9348608	-0.00017216068
116	0x3b26581f	0.0025382114
117	0xb6bf1a40	-5.6952995e-06
118	0xba072cf0	-0.00051565375
119	0xb7ec02ba	-2.8134662e-05
120	0xb8ee3a9f	-0.000113596434
121	0xb96382a2	-0.00021697071
122	0x370c95ae	8.3795e-06
123	0xba9941ed	-0.0011692621
124	0xb92c2fed	-0.00016421052
125	0xba5d27d1	-0.0008436414
126	0xb88940b5	-6.544722e-05
127	0xbab4f979	-0.0013807259
128	0xb9a40247	-0.00031282214
129	0xb84975ec	-4.8031958e-05
130	0xb981e933	-0.00024778544
131	0x39dbad00	0.0004189983
132	0xb91e710b	-0.00015110166
133	0xba63608d	-0.000867375
134	0xb9f35b77	-0.00046416718
135	0xb86f34f7	-5.7031368e-05
136	0x39e1ef4b	0.0004309363
137	0x39fcfb56	0.00048252445
138	0xb9288d4b	-0.00016074364
139	0xba544bee	-0.00080984726
140	0xb9df6f46	-0.0004261678
141	0x39240348	0.00015641481
142	0x3a47a5fd	0.0007615982
143	0xba23dd7f	-0.0006250962
144	0xba9b5f28	-0.001185392
145	0xb8c08ab8	-9.181112e-05
146	0x396bb978	0.00022480439
147	0xb897a429	-7.230818e-05
148	0xba51df79	-0.00080060173
149	0x3947ae70	0.00019043102
150	0xba439389	-0.0007460644
151	0x38d13fd7	9.977788e-05
152	0xba29ba87	-0.0006474633
153	0xb9bb98d0	-0.00035781274
154	0xba34108f	-0.00068689225
155	0xb9d11cd5	-0.00039885068
156	0x39374894	0.00017479277
157	0xb90f2ac0	-0.00013653468
158	0xb680c9d1	-3.838192e-06
159	0x37eef882	2.8487531e-05
160	0x39690c40	0.00022225175
161	0x3a14c7e9	0.0005675541
162	0xbb1c48f3	-0.0023847192
163	0xb96626d7	-0.00021948978
164	0x39039a82	0.00012550692
165	0xb997b1a4	-0.00028933317
166	0x39859724	0.00025480345
167	0xbb090bd2	-0.0020911586
168	0xb99bd42d	-0.00029721987
169	0xba2c1354	-0.00065641594
170	0xba42d97e	-0.00074329216
171	0x39fa7d35	0.00047777002
172	0xbaa1b84e	-0.0012338252
173	0xb885a004	-6.3717394e-05
174	0xba3d2f2d	-0.00072168076
175	0xb941f61f	-0.00018497602
176	0xb87ba1f3	-5.999389e-05
177	0x3a144c5d	0.0005657131
178	0xb8beb559	-9.093685e-05
179	0x37fe3064	3.0301693e-05
180	0xbaae9544	-0.0013319631
181	0xb84239be	-4.630698e-05
182	0xb9a75648	-0.00031917007
183	0xba64728c	-0.00087145786
184	0x3a567c07	0.00081819337
185	0x397587d6	0.00023415624
186	0xb9e5a2b5	-0.0004379951
187	0x380e5b8b	3.3940694e-05
188	0xb92b46a0	-0.0001633414
189	0xba1cee6f	-0.0005986457
190	0xba1422f9	-0.0005650963
191	0x3b2576ab	0.0025247734
192	0xb7a0e30b	-1.9179211e-05
193	0xba718866	-0.00092137454
194	0x3847d496	4.7643283e-05
195	0xb8e03051	-0.00010690152
196	0x399d5476	0.00030008302
197	0x38347b83	4.3030373e-05
198	0x39aaa3d8	0.00032547
199	0xba2ae068	-0.00065184245
200	0xba9f8c52	-0.0012172556
201	0xb88d298e	-6.731144e-05
202	0xb7ae6b61	-2.0792419e-05
203	0xb9c13274	-0.0003684942
204	0xb9d609dc	-0.00040824607
205	0x3b0b707b	0.002127676
206	0xb9484f36	-0.00019102995
207	0xb8d7e136	-0.00010293948
208	0xb74fcbb7	-1.23855925e-05
209	0x3951982f	0.00019988486
210	0xb9ff7ce9	-0.00048730455
211	0x38e855c2	0.00011078596
212	0xb9a1e85c	-0.00030881434
213	0xba6bb7b2	-0.00089919113
214	0xb90ed980	-0.000136232
215	0xb9ef1697	-0.00045602463
216	0xba3184e3	-0.0006771816
217	0x389c06e9	7.439947e-05
218	0xb8c5428e	-9.406089e-05
219	0xb9c27f49	-0.00037097398
220	0xb9bb9d89	-0.00035784792
221	0xba8763ab	-0.0010329386
222	0x39f0ef36	0.00045954593
223	0xba13aa58	-0.0005632988
224	0xba478315	-0.00076107803
225	0xb5f0c5b8	-1.7938937e-06
226	0xb99da660	-0.00030069333
227	0x371575b5	8.908498e-06
228	0xb93bcfd7	-0.00017911136
229	0xbadf9be1	-0.0017060005
230	0xb880b459	-6.137108e-05
231	0xb93ecf98	-0.00018197147
232	0xb969e176	-0.00022304602
233	0xb9434666	-0.00018622875
234	0xb98d4d49	-0.00026951198
235	0x3958f569	0.00020690788
236	0xb9dfd153	-0.00042689833
237	0xb98ac4cd	-0.0002646804
238	0xb8f141be	-0.00011504021
239	0x3a4a7f41	0.0007724651
240	0x3907d75e	0.00012954834
241	0xb9662f33	-0.00021952092
242	0x39898c9b	0.00026235436
243	0xb9867ca9	-0.0002565135
244	0xb7b9189d	-2.206518e-05
245	0xb995931f	-0.00028529108
246	0xb9c499c6	-0.00037498603
247	0xb93806cc	-0.0001755014
248	0xbb003a29	-0.0019565916
249	0x38a0861c	7.654374e-05
250	0xbac485e2	-0.0014993513
251	0xb89dcad7	-7.524125e-05
252	0xb9b33660	-0.00034182053
253	0xb8bf1f3e	-9.113409e-05
254	0xba4f9f6c	-0.0007920179
255	0x38b43c61	8.594315e-05

network_body.linear_encoder.seq_layers.4.weight f4 [256, 256]
0	0x3c758fef	0.01498793
1	0xbde969e9	-0.11397154
2	0x3d63dc68	0.055630118
3	0xbd5300d2	-0.051514454
4	0x3d6cba8e	0.0577951
5	0x3cd9814f	0.026550917
6	0x3b4d0950	0.0031286068
7	0x3df82cb3	0.12117901
8	0x3ad215c4	0.0016028215
9	0xba85bc23	-0.0010203164
10	0x3cedde52	0.029036675
11	0x3d9213dc	0.07132694
12	0x3c13ec73	0.009028542
13	0xbd766060	-0.060150504
14	0xbd0294fa	-0.031880356
15	0xbd822bd1	-0.063560136
16	0xbcee3ffa	-0.02908324
17	0x3d0e32aa	0.034716286
18	0x3c503cf1	0.012709842
19	0xbb077259	-0.0020667522
20	0x3bcca461	0.0062451814
21	0xbe0c3e78	-0.13695705
22	0x3cb2e7e7	0.021839095
23	0xbd9c6fa7	-0.076384835
24	0xbd2e4592	-0.042546816
25	0x3e08f24f	0.13373683
26	0x3cd64076	0.026153784
27	0x3d6e156c	0.0581259
28	0xbd64ba03	-0.055841457
29	0xbdc749b5	-0.097308554
30	0xbc50a6a9	-0.012735047
31	0x3d3e5431	0.04646701
32	0x3d3f0140	0.04663205
33	0xbdb8f020	-0.09030175
34	0xbbcdb1d9	-0.0062773046
35	0x3cbf361d	0.023341233
36	0xbd7db745	-0.061942358
37	0x3cfd6131	0.030930134
38	0x3d390d6c	0.045178816
39	0xbc389aa0	-0.011267334
40	0xbd3844c6	-0.044987462
41	0x3de53da1	0.111933954
42	0xbd083fd6	-0.033264004
43	0xbc349dd3	-0.011023956
44	0x3d91fd11	0.07128347
45	0x3b7b927b	0.003838687
46	0xbd37aa55	-0.044840176
47	0x3c52ca33	0.012865591
48	0xbd21c083	-0.039490234
49	0x3de43442	0.1114278
50	0x3d5a60e7	0.05331507
51	0xbcdba687	-0.026812805
52	0x3e052822	0.1300359
53	0x3d6b9f7f	0.057525154
54	0xbd994f53	-0.07485833
55	0x3c698b36	0.014254382
56	0xbdff4fcc	-0.12466392
57	0xbd891cb9	-0.066949315
58	0x3d39acef	0.045330938
59	0xbdd60ae1	-0.10451294
60	0x3cdf4d23	0.027258461
61	0xbcd22032	-0.025650118
62	0xbd584fd1	-0.052810494
63	0x3c1cc86d	0.00956927
64	0x3b9f7655	0.004866401
65	0xbd019cd2	-0.031643696
66	0x3c442811	0.011972443
67	0xbd813cd0	-0.06310427
68	0xbd1be8f7	-0.03806397
69	0x3da6866c	0.08131108
70	0x3daa61c0	0.083194256
71	0xbd8b3ab3	-0.06798305
72	0x3d86a3e2	0.06574227
73	0x3ab19f15	0.0013551438
74	0xbd867261	-0.06564785
75	0x3da87942	0.08226253
76	0x3d1f8b02	0.038950928
77	0x3d78868a	0.06067518
78	0x3cbe66ed	0.023242438
79	0xbded1f5d	-0.11578248
80	0x3cd4ad4a	0.025961537
81	0x3c43f664	0.0119606
82	0xbd0f93cb	-0.035053056
83	0xbc6adfbb	-0.014335568
84	0x3dd98fa8	0.106231034
85	0xbd011d47	-0.03152206
86	0x3cd55b92	0.02604464
87	0x3c9f645c	0.019457035
88	0x3d5e1d2f	0.05422705
89	0x3c1c309a	0.009533072
90	0x3d6d723a	0.057970263
91	0xbd111a7a	-0.03542564
92	0x3e0d51ba	0.13800707
93	0xbc2e8669	-0.010652163
94	0x3e013871	0.12619187
95	0x3d95cab5	0.07314054
96	0x3d83145b	0.06400367
97	0xbd1355bc	-0.035970435
98	0x3d3df8cc	0.04637985
99	0xbdbd0d9d	-0.09231112
100	0x3be7da34	0.0070755724
101	0xbe063baa	-0.13108698
102	0x3d3b542e	0.045734577
103	0x3d78f80a	0.060783423
104	0x3b373e0c	0.0027960567
105	0x3d91ffe2	0.07128884
106	0xbdfe2df8	-0.124111116
107	0x3dc062d3	0.09393849
108	0x3c38ba7d	0.011274931
109	0x3dc178a5	0.09446839
110	0xbd9dca44	-0.07704595
111	0xbc7a3860	-0.01527223
112	0x3cb88fb4	0.02252946
113	0xbd1d58a4	-0.038414612
114	0xbd8c5675	-0.06852428
115	0x3c14d530	0.009084031
116	0xbdbadb3e	-0.091238484
117	0x3d2bf4fc	0.041981682
118	0xbd505d37	-0.050870147
119	0x3dbf32ec	0.093358845
120	0xbddb521a	-0.10709019
121	0x3df71ad6	0.120656654
122	0x3d9eafe6	0.07748394
123	0xbd398311	-0.04529101
124	0xbba9ba1e	-0.0051796576
125	0xbdfbf751	-0.12303031
126	0x3bebd994	0.007197568
127	0x3c9b3ce6	0.018949937
128	0xbc209048	-0.009800024
129	0xbceeb08c	-0.029136918
130	0xbe0b4512	-0.13600567
131	0x3d7a4637	0.06110212
132	0x3de9703e	0.113983616
133	0xbd1296f5	-0.035788495
134	0x3d831d02	0.06402017
135	0xbc9fc013	-0.019500768
136	0xbcc00671	-0.023440572
137	0xbd003731	-0.031302635
138	0x3de9ddcf	0.1141926
139	0xbda71311	-0.081579335
140	0xbd3a6d8f	-0.04551464
141	0xbdfdb74e	-0.12388478
142	0x3d82a441	0.06378985
143	0xbdc0bf0f	-0.094114415
144	0xbd3bda72	-0.045862623
145	0x3dc3bd1f	0.09557556
146	0xbd000571	-0.03125519
147	0x3d1a93b1	0.037738506
148	0x3d79081a	0.060798742
149	0xbe06b16a	-0.13153616
150	0xbc4edcd7	-0.0126258945
151	0xbe037e2a	-0.12841097
152	0x3c405920	0.011739999
153	0xbd020c84	-0.031750217
154	0xbce4712a	-0.027885992
155	0xbd975758	-0.073897064
156	0xbd709b47	-0.058741834
157	0xbd84c7e6	-0.0648344
158	0x3d8eb5aa	0.069682434
159	0x3d073239	0.03300688
160	0x3d732277	0.05935904
161	0x3cf26506	0.029589187
162	0x3d9639e7	0.07335263
163	0x3dce9163	0.10086324
164	0xbc89acef	-0.016806094
165	0x3c4af2a8	0.012386955
166	0xbd89baa1	-0.0672505
167	0xbd9dcfdd	-0.077056624
168	0x3c5125f3	0.012765395
169	0xbca1d9f3	-0.019757247
170	0xbd4245a3	-0.047429692
171	0xbb6ed210	-0.0036441125
172	0x3c37b411	0.011212365
173	0xbb5ad138	-0.0033388864
174	0xbd6d82b7	-0.057985988
175	0xbd1dbfa5	-0.038512845
176	0x3d0a0b88	0.033702403
177	0xbacfbf26	-0.0015849813
178	0x3d818c19	0.0632555
179	0x3dce9c85	0.100884475
180	0x3d92dbe4	0.07170847
181	0xbe198984	-0.14993864
182	0x3d9bd33c	0.07608649
183	0xbc934d87	-0.017981304
184	0xbde30756	-0.110853836
185	0x3c3b9e90	0.011451378
186	0xbd3d0d75	-0.04615541
187	0xbdd7af66	-0.105315015
188	0xbd674cb3	-0.05646963
189	0x3d87508f	0.06607162
190	0x3d9444f5	0.07239715
191	0x3d5903cf	0.052982148
192	0x3d92e8c3	0.07173302
193	0xbc450e53	-0.012027341
194	0xbdf25368	-0.11832315
195	0x3d65438a	0.055972613
196	0x3c897298	0.016778275
197	0xbcd4552c	-0.02591952
198	0x3d3434f2	0.043995805
199	0x3c8a4d69	0.016882615
200	0x3c925865	0.017864415
201	0x3da3da34	0.08000603
202	0xbd116009	-0.035491977
203	0x3d442c97	0.047894087
204	0x3dc90897	0.098160915
205	0x3d30c6b6	0.043158256
206	0xbb817598	-0.003950786
207	0xbab3897a	-0.0013697587
208	0xbd974b80	-0.07387447
209	0xbe4e6d89	-0.20158972
210	0x3c830503	0.0159936
211	0x3d88517b	0.06656166
212	0x3c73362e	0.01484446
213	0xbd618586	-0.05505898
214	0x3e053e36	0.13012013
215	0x3d33d86b	0.043907564
216	0x3cb882f7	0.022523386
217	0x3dca2e9c	0.09872171
218	0xbb8fe038	-0.0043907426
219	0x3d2e8417	0.04260644
220	0xbd013246	-0.031542085
221	0xbc9b01bb	-0.018921724
222	0x3ca32052	0.019912872
223	0xbdc51cb9	-0.09624619
224	0x3dc6f5f0	0.097148776
225	0xbb92114a	-0.0044576274
226	0x3c4eab91	0.012614147
227	0xbda09f58	-0.078428924
228	0x3d0a726a	0.03380052
229	0x3d4f6c06	0.05064013
230	0x3d7ae325	0.06125178
231	0x3d8f30da	0.069917396
232	0xbd66b678	-0.05632636
233	0xbd991479	-0.07474608
234	0xbe1e19a7	-0.15439473
235	0xbb772880	-0.003771335
236	0xbcdbe453	-0.026842272
237	0x3d197c3a	0.037471987
238	0xbc8f42d7	-0.017487926
239	0x3d35bf44	0.04437186
240	0xbd769e95	-0.06020983
241	0x3d60cb6e	0.054881506
242	0x3d4d7f7f	0.050170418
243	0x3d088db8	0.03333828
244	0x3cb1636e	0.021653857
245	0xbd42648d	-0.047459174
246	0x3db43d97	0.0880081
247	0x3cabc24d	0.020966673
248	0x3d0b66b8	0.034033507
249	0xbd9aec5c	-0.07564613
250	0x3d078b0d	0.033091594
251	0x3de7d135	0.113192
252	0xbc51d7bf	-0.0128077855
253	0xbc80d3f0	-0.01572606
254	0x3dcf8e19	0.10134525
255	0x3cace5b7	0.02110563

network_body.linear_encoder.seq_layers.4.bias f4 [256]
0	0xbace6f2c	-0.0015749685
1	0xba871b9e	-0.0010307913
2	0xb9b19748	-0.00033872784
3	0xb95e5cd5	-0.00021206152
4	0xb994a1e2	-0.00028349372
5	0xb9aa24cf	-0.0003245235
6	0x390b20da	0.00013268311
7	0xb8b303d1	-8.536096e-05
8	0xb82ed301	-4.1681345e-05
9	0xba81e22d	-0.0009909325
10	0xb9391f3c	-0.0001765461
11	0xb89e7009	-7.554895e-05
12	0xba32e3a6	-0.00068240834
13	0xb85b851d	-5.233764e-05
14	0xb90656ce	-0.00012811573
15	0x3a51271b	0.00079785445
16	0xb9873f08	-0.00025796168
17	0x37c11eef	2.3021797e-05
18	0xb9b8c54f	-0.0003524222
19	0x3ab3064a	0.001365849
20	0xb6498f26	-3.0034657e-06
21	0xb8c4341a	-9.355713e-05
22	0xb93cec57	-0.0001801712
23	0xb968bf95	-0.00022196614
24	0x3aa5a687	0.001263813
25	0xb825a8f0	-3.94964e-05
26	0xb978e420	-0.00023736106
27	0xb99cc8e0	-0.00029904302
28	0xb92dd7f7	-0.00016579019
29	0x38dc3b27	0.000105014355
30	0xb8efc18d	-0.0001143246
31	0xb99273b8	-0.00027933507
32	0xb915f6c7	-0.00014301679
33	0xb976b507	-0.00023527826
34	0xba70d0b0	-0.00091863703
35	0xb9e4be8c	-0.00043629517
36	0xb917dafc	-0.0001448206
37	0x3acdd4cf	0.0015703681
38	0xb6f2c2fe	-7.234862e-06
39	0xb9b393c2	-0.0003425163
40	0xb8978610	-7.225212e-05
41	0xb9d4fc69	-0.0004062385
42	0x39d32ac8	0.0004027693
43	0xb9e870c1	-0.00044334496
44	0xb98506f8	-0.0002537293
45	0xb8d09de6	-9.947624e-05
46	0xb99f66ee	-0.00030403532
47	0xb990bf9c	-0.0002760858
48	0x35e1c571	1.6821269e-06
49	0xb8fed3b1	-0.000121510944
50	0xba875050	-0.0010323618
51	0xb90d6971	-0.00013486088
52	0xb903db0c	-0.00012574735
53	0xb9049bca	-0.00012646537
54	0xb92c6b46	-0.0001644316
55	0xb9848af4	-0.0002528053
56	0xb9e409a1	-0.00043494723
57	0xb8a17fb4	-7.700865e-05
58	0xb861ba12	-5.381747e-05
59	0x3aa5178c	0.0012595518
60	0xb925039d	-0.00015736972
61	0xba0852e5	-0.00052003405
62	0xb8967603	-7.174539e-05
63	0xbab123c9	-0.0013514693
64	0xb897db6a	-7.24111e-05
65	0xb922df02	-0.00015532601
66	0xb83e284c	-4.533706e-05
67	0xb8f260a4	-0.0001155746
68	0xb9273435	-0.0001594581
69	0xb943c6cf	-0.00018670711
70	0xb8b7976d	-8.754325e-05
71	0xb9412776	-0.00018420615
72	0x37914221	1.731614e-05
73	0x39604d73	0.00021391157
74	0xba339696	-0.0006850747
75	0xb786dd28	-1.6077029e-05
76	0xb712056d	-8.703541e-06
77	0xba2c8ae0	-0.0006581973
78	0xb90a4167	-0.0001318507
79	0xba76eda1	-0.0009419565
80	0xb968f750	-0.00022217375
81	0xb8a66ada	-7.9353995e-05
82	0x3931f49e	0.00016971162
83	0xb9669c03	-0.00021992628
84	0xb99c2a0a	-0.0002978596
85	0x3b2577bb	0.0025248367
86	0xb82627a0	-3.9614388e-05
87	0xb97d80b9	-0.00024175913
88	0xbad50072	-0.0016250743
89	0x3a932739	0.0011226899
90	0xbb3e410d	-0.0029030473
91	0xb90dff96	-0.00013542021
92	0xb9c74acd	-0.0003801197
93	0x39bb6f01	0.00035750124
94	0x39f552a7	0.00046791622
95	0xb80e3e0c	-3.3913224e-05
96	0xb8984418	-7.260608e-05
97	0xb9e310e9	-0.00043309413
98	0x3a18a9d4	0.0005823646
99	0xb974ce1d	-0.00023346437
100	0xbab06c7e	-0.0013460068
101	0x3a056dd9	0.0005089916
102	0x39041323	0.0001259563
103	0x38901c6a	6.8717476e-05
104	0xb9b75c6e	-0.00034973345
105	0xb97337c7	-0.00023195065
106	0xba5a3f8d	-0.000832551
107	0xba07fa74	-0.0005187162
108	0x3799dc74	1.8341678e-05
109	0xb8879382	-6.464777e-05
110	0xb8b4ff85	-8.630663e-05
111	0xba2e939d	-0.00066595693
112	0xb8a89fe3	-8.0406455e-05
113	0xb7c4c97b	-2.3458842e-05
114	0xb88da85b	-6.7547626e-05
115	0xb8b48714	-8.608229e-05
116	0xb85fe7ca	-5.3383214e-05
117	0xb7133dd4	-8.776278e-06
118	0xb973c617	-0.0002324808
119	0x38a6f21e	7.960595e-05
120	0xb6dbaa87	-6.5465606e-06
121	0x3a3bbf32	0.0007161974
122	0xb9db3a71	-0.00041814477
123	0xb983375a	-0.00025027507
124	0xb97a2dc3	-0.00023858905
125	0xb8ad3c6f	-8.2605395e-05
126	0xb91739d3	-0.00014422023
127	0x36b96d77	5.526173e-06
128	0xb9194614	-0.00014617323
129	0xb9c336a6	-0.00037234015
130	0xb8b5b1a3	-8.66384e-05
131	0x3a02bb5c	0.0004987025
132	0x3a487642	0.00076470163
133	0xb716b362	-8.9824625e-06
134	0xb8f39586	-0.00011614994
135	0xb9241513	-0.0001564811
136	0xb92c776a	-0.00016447683
137	0xb830b502	-4.2130247e-05
138	0xb9a03648	-0.0003055802
139	0xb8955257	-7.120211e-05
140	0x3907c9a7	0.00012949725
141	0xb89c1baf	-7.443816e-05
142	0xb98f9d8d	-0.0002739247
143	0x38f17069	0.000115127135
144	0xb80004fd	-3.0522224e-05
145	0x394ca27d	0.00019515488
146	0xb9cfe899	-0.00039655415
147	0xb8eea637	-0.00011379684
148	0xb98a4172	-0.00026370172
149	0xba4935c5	-0.0007675554
150	0x394998d6	0.0001922579
151	0x36211142	2.4000915e-06
152	0xb9924c49	-0.00027904127
153	0xb8efa1aa	-0.0001142652
154	0xb921e64a	-0.00015439946
155	0xb91e347d	-0.00015087608
156	0xb8f70d0e	-0.000117803094
157	0x39d4b603	0.000405714
158	0xb88f77dc	-6.841097e-05
159	0x38200267	3.814921e-05
160	0xb6badc9d	-5.5689147e-06
161	0xb96d7afa	-0.00022647894
162	0xb83f37d3	-4.558994e-05
163	0x389f3345	7.5912605e-05
164	0xb9dbbc49	-0.00041911218
165	0x39196724	0.0001462964
166	0xb88d1e86	-6.7290894e-05
167	0xb9ba7427	-0.00035563225
168	0xb8d293fa	-0.00010041143
169	0xb9b6de35	-0.00034879302
170	0xb8351218	-4.3170614e-05
171	0xba31065b	-0.0006752961
172	0xb8fd7234	-0.00012085252
173	0xb8bcbb3d	-8.9994144e-05
174	0x39a2ec46	0.00031075085
175	0xbacedbe7	-0.0015782089
176	0xb8f8cfcd	-0.000118642674
177	0xb9923dac	-0.0002789324
178	0xb78fec8a	-1.7157075e-05
179	0x3a54f55e	0.0008123721
180	0xb82b3788	-4.0821295e-05
181	0xb84f945a	-4.949081e-05
182	0xb9616aa7	-0.00021497403
183	0xba93b7f9	-0.0011270038
184	0xb9adab78	-0.00033124886
185	0xb918879a	-0.00014546365
186	0xb9c598e8	-0.00037688692
187	0xb9d28811	-0.000401557
188	0xb885ac7a	-6.3740605e-05
189	0xb946fa49	-0.0001897599
190	0xb88ae7f9	-6.623561e-05
191	0x3723237b	9.723818e-06
192	0x391f5c5e	0.00015197831
193	0xb8ea09ed	-0.00011159838
194	0xb9c1e340	-0.00036981143
195	0xb80ae8a9	-3.3118446e-05
196	0xb92ff69c	-0.0001678117
197	0x3a339973	0.0006851174
198	0xb736a762	-1.0887017e-05
199	0x3a22db1c	0.00062124594
200	0xbb20818a	-0.0024491274
201	0xba1cd57a	-0.0005982738
202	0x39af7fbb	0.00033473768
203	0xb9f4663c	-0.00046615477
204	0x3931becb	0.00016951111
205	0x38d7b26f	0.00010285235
206	0xb996f3e7	-0.0002879195
207	0xba3197ff	-0.00067746633
208	0xba144135	-0.00056554686
209	0x3a336778	0.0006843726
210	0xb7c6c30c	-2.3694265e-05
211	0x3706382e	8.000103e-06
212	0xba8401b7	-0.0010071312
213	0x36bd2099	5.636434e-06
214	0xba251e12	-0.00062987313
215	0x392506e6	0.00015738196
216	0xbb1cd7ab	-0.002393226
217	0x39563f86	0.00020432295
218	0xb83123db	-4.223348e-05
219	0xb9bc1ece	-0.00035881106
220	0xb99828ae	-0.00029022008
221	0xb9e7801b	-0.000441552
222	0xb8fff264	-0.00012204496
223	0xba11129e	-0.0005534085
224	0xb936023e	-0.00017357708
225	0xb9639ce8	-0.00021706859
226	0xb962bcd8	-0.0002162339
227	0xbb270a74	-0.0025488408
228	0xba9d5a6b	-0.0012005096
229	0xba46c4f0	-0.00075824466
230	0x39da56e6	0.00041644945
231	0xb8ee0804	-0.000113502174
232	0xb97bb8a1	-0.00024006005
233	0xb7f22152	-2.8864164e-05
234	0xb7e06e09	-2.675412e-05
235	0x37bbb752	2.2377502e-05
236	0xb976ce30	-0.00023537199
237	0xb9a2cf95	-0.00031053709
238	0x3a3db911	0.0007237355
239	0xb8375d97	-4.3717762e-05
240	0xb9ceec2c	-0.00039467344
241	0xb9542b6d	-0.00020234073
242	0x380c2be4	3.3419477e-05
243	0xb8f049e0	-0.00011457852
244	0xb9359bd6	-0.00017319559
245	0xb8d6397d	-0.00010215023
246	0xb8db5c73	-0.00010459954
247	0x38cc62f4	9.7459095e-05
248	0xb943d846	-0.00018677217
249	0x3981423e	0.00024654152
250	0x396d8727	0.0002265243
251	0xb9b17a15	-0.0003385103
252	0x37b23ed2	2.1248507e-05
253	0xb8cb0194	-9.680088e-05
254	0xb76baa3d	-1.4046728e-05
255	0xb8519108	-4.9964554e-05

action_model._continuous_distribution.mu.weight f4 [1, 256]
0	0xbbfd64c6	-0.0077329604
1	0x3c27104b	0.010196756
2	0x3c08c7f6	0.008348456
3	0xbb54eb7c	-0.0032488992
4	0xbae2d96e	-0.0017307231
5	0x3c748037	0.014923147
6	0xbc9632f4	-0.018334843
7	0xbc2f34e6	-0.010693764
8	0x3ba19d12	0.0049320543
9	0x3802e20c	3.1204938e-05
10	0xbca12283	-0.019669777
11	0x3b93e2ef	0.0045131366
12	0x39f2dbad	0.00046321508
13	0x3ba453cd	0.0050148726
14	0xbd03bd9c	-0.032163247
15	0x388661b0	6.4078136e-05
16	0xbc284336	-0.010269931
17	0x3c9a63dd	0.018846447
18	0xbbe7de1f	-0.0070760394
19	0xbc6d1196	-0.014469525
20	0x3c2edf05	0.010673289
21	0x3c91e638	0.017809972
22	0x3b272368	0.0025503282
23	0xbb1cbed2	-0.0023917449
24	0x3c2ba7b0	0.0104769915
25	0xbb27140a	-0.0025494122
26	0x3b8ade61	0.0042379354
27	0x3b269428	0.0025417898
28	0x3b0fac42	0.0021922742
29	0xbc144f00	-0.009052038
30	0x3cb066ad	0.021533335
31	0x3c1216f1	0.0089166025
32	0xbb9eb1e6	-0.0048429845
33	0x3abad433	0.0014253914
34	0x3c80e854	0.015735783
35	0x3bdcf1ef	0.006742708
36	0xbc334eee	-0.010944111
37	0xbbec665d	-0.007214351
38	0x3c309df7	0.010779849
39	0x3a6cef8f	0.00090383826
40	0x3d0cf25c	0.03441082
41	0xbb93cda8	-0.0045106
42	0xbc9b4e19	-0.018958138
43	0xbb8f3bb4	-0.004371131
44	0x3b2e3230	0.0026580207
45	0x3bd14b4c	0.00638715
46	0xbb9c22d7	-0.0047648954
47	0xbaadbc56	-0.0013254981
48	0x3c8455fb	0.01615428
49	0xbb9b2a96	-0.0047353012
50	0x3c8a6224	0.0168925
51	0x3c16da39	0.009207302
52	0x3cab7a36	0.020932298
53	0x3c75dad0	0.015005782
54	0x3b014798	0.001972651
55	0xbbcfae15	-0.006337891
56	0xbc4d49f7	-0.012529842
57	0xbc099a1b	-0.008398558
58	0x3b72419a	0.003696537
59	0xba90432d	-0.0011006348
60	0x3ca30290	0.019898683
61	0x3a7d22a5	0.00096563465
62	0x3c51b245	0.01279885
63	0x3c2e725d	0.0106473835
64	0xbc320b08	-0.010866888
65	0x3c6c2191	0.0144123
66	0x3b9a8eef	0.004716746
67	0x3b863480	0.004095614
68	0xbc0b8267	-0.008514977
69	0xbb1a1d88	-0.0023516137
70	0xbc0933e7	-0.008374191
71	0x3af5efcf	0.0018763485
72	0x3c675939	0.014120393
73	0x3c1f6df8	0.009730808
74	0xbbf5c671	-0.0075004627
75	0x3bfb6164	0.007671522
76	0xbbc858e6	-0.006114113
77	0xb8a6a36a	-7.945935e-05
78	0xbc68af03	-0.014201882
79	0x3c19683c	0.00936323
80	0x3c957c16	0.018247645
81	0x3c900f59	0.017585443
82	0x3c8fab91	0.017537864
83	0xbb395f85	-0.0028285694
84	0xbadc8e99	-0.0016827165
85	0xbbd43809	-0.0064764065
86	0x3c55811c	0.01303127
87	0x3c1fb82c	0.0097485
88	0x3b1560db	0.0022793326
89	0x3be16a38	0.0068791173
90	0xb913269b	-0.00014033394
91	0xbb9a298a	-0.004704659
92	0xbac58113	-0.0015068374
93	0xbc8cdc37	-0.01719485
94	0x3b873591	0.0041262587
95	0x3bc99e68	0.0061529167
96	0x3b82d90d	0.0039931596
97	0xbc8c0a2b	-0.017094692
98	0x3bf80c9d	0.007569863
99	0xbb0e5f5e	-0.0021724324
100	0x3bd95b85	0.0066332244
101	0xbbccc957	-0.0062495875
102	0xbb496c15	-0.0030734588
103	0x3c0f198d	0.008734119
104	0x3a7c5653	0.00096259004
105	0xbc9bc0d6	-0.01901285
106	0x3b96d681	0.0046032076
107	0xba6d16f9	-0.0009044256
108	0x3c918139	0.017761813
109	0x3b80fa38	0.0039360784
110	0xbc0e4302	-0.008682968
111	0x3b4234ad	0.0029633448
112	0xbc13e6e2	-0.009027215
113	0x3c19ac7c	0.009379502
114	0xbc82907f	-0.015938042
115	0xbc60ba8d	-0.013716352
116	0x3bcbe042	0.006221802
117	0xbca7b93f	-0.020474074
118	0xbc041075	-0.008060564
119	0xbb4a6555	-0.0030883153
120	0x3c85b684	0.016322382
121	0xbc537393	-0.012905973
122	0x3bb7f47f	0.005613863
123	0x3b0882dc	0.0020829951
124	0xbb292242	-0.0025807773
125	0xbba43649	-0.005011354
126	0xbbff519b	-0.0077917106
127	0x3c1a5e96	0.009421965
128	0x3b8e658b	0.004345601
129	0xbc339adf	-0.010962217
130	0xbb202330	-0.0024435036
131	0x3bb542bb	0.0055316365
132	0xbc5d14aa	-0.013493696
133	0x3cad5992	0.021160875
134	0x3bcc734d	0.006239331
135	0x3c0b6a87	0.008509285
136	0x3b51d273	0.0032016307
137	0x3bbd67ce	0.0057801967
138	0xbccf22f1	-0.025285216
139	0x3b8b0f9b	0.0042438037
140	0x3c87ebc5	0.016591916
141	0xbc459aca	-0.01206083
142	0x3bfe4b83	0.0077604665
143	0xbc11d834	-0.0089016445
144	0x3c18cf7f	0.009326815
145	0x3c01b2c2	0.007916154
146	0x3bbafee5	0.0057066553
147	0xbcb19ef7	-0.021682246
148	0x3ccd7a05	0.025082598
149	0xbc89ab28	-0.016805246
150	0xbc5491cc	-0.012974214
151	0x3c58c5e5	0.0132307755
152	0xbb1085f1	-0.0022052492
153	0xbbb09389	-0.0053886813
154	0xbc0547df	-0.008134811
155	0xbc65ecc1	-0.014033497
156	0xbb7966db	-0.0038055691
157	0x3b9e94d0	0.004839517
158	0xbc3b275e	-0.01142296
159	0xbaf5dc15	-0.0018757606
160	0x3cc89573	0.024485325
161	0xbbd52d4f	-0.0065056453
162	0x3b55a3d0	0.003259886
163	0x3ca7d4b4	0.020487167
164	0xbaa11f6e	-0.0012292692
165	0x3c289089	0.010288366
166	0xbc28ac32	-0.010294961
167	0x3c4644c7	0.012101359
168	0x3b0f0602	0.002182365
169	0xbaebf504	-0.0018002097
170	0xbcced6f4	-0.025248982
171	0x3b1c8a15	0.0023886014
172	0xbbd7a5be	-0.0065810373
173	0x3be33dd7	0.006934862
174	0xbc094e1e	-0.008380441
175	0x3bfe6750	0.0077637807
176	0xbc22cb7e	-0.009936212
177	0xba29b654	-0.00064740074
178	0x3c15f118	0.0091517195
179	0xbc36b837	-0.011152319
180	0x3ca0ffbe	0.019653197
181	0x3badc387	0.0053028497
182	0xbc60cd1d	-0.013720778
183	0x3b9fdc22	0.004878537
184	0xbae65136	-0.001757181
185	0xbcba932f	-0.02277526
186	0xbbddb118	-0.006765496
187	0x3ca863ed	0.02055546
188	0xbc6f7e74	-0.014617551
189	0xbb1ae879	-0.00236371
190	0xbc71b503	-0.014752629
191	0x3cf873e7	0.030328704
192	0xb9fe3d19	-0.00048492177
193	0xbc4cee4a	-0.012507984
194	0x3b6e4670	0.0036357902
195	0x3bbbccc6	0.005731198
196	0xbbabb3ec	-0.005239954
197	0xbc40491c	-0.011736181
198	0x3c276524	0.010216985
199	0xbcbb9677	-0.022898896
200	0xb9909f0f	-0.00027584328
201	0xbc67338e	-0.014111413
202	0xbca71602	-0.020396236
203	0xbbb9c9bb	-0.0056698
204	0xbc0caa5b	-0.008585538
205	0xbac713f5	-0.0015188443
206	0xbbfd8375	-0.007736618
207	0xbbdca8cc	-0.0067339893
208	0x3bfab3b0	0.007650815
209	0xbc3d5c84	-0.011557702
210	0x3c9f757c	0.0194652
211	0xbc25cac9	-0.0101191485
212	0xba375db6	-0.000699486
213	0xbc686054	-0.014183123
214	0x3bc5eeae	0.0060404157
215	0xbbd8c45b	-0.0066152043
216	0xbb06e484	-0.0020582983
217	0xbb899264	-0.0041983593
218	0x3c128026	0.008941686
219	0xbbc82cd3	-0.006108859
220	0x3c915c74	0.01774428
221	0x3a2dd9df	0.00066318916
222	0xbb9e4cd1	-0.0048309346
223	0x3ca9ae39	0.020712959
224	0x3b0bd825	0.002133855
225	0xbb37a54c	-0.0028022109
226	0xbb427833	-0.0029673695
227	0xb980f552	-0.0002459684
228	0x3c1396e7	0.009008146
229	0x3c282a8e	0.010264052
230	0x3c065b0d	0.008200419
231	0x3b4735b9	0.0030397011
232	0xbb3b89ea	-0.0028616139
233	0x3bb80169	0.0056154025
234	0x3bf04872	0.007332855
235	0x3c984187	0.018585933
236	0x3bce3d55	0.0062939324
237	0xbad52faf	-0.0016264821
238	0x3b8140fe	0.0039445153
239	0x3bc45d9c	0.0059926044
240	0xbbc544b9	-0.0060201553
241	0xbb240ed2	-0.0025033248
242	0x3ca620be	0.020279285
243	0xbc2cfb25	-0.010557924
244	0x3b03bf9f	0.0020103229
245	0xbbc17e8c	-0.005904978
246	0xbb5c61a3	-0.0033627532
247	0xbc881cea	-0.01661535
248	0x3cbb93fc	0.022897713
249	0xbc56b8ce	-0.013105584
250	0xbc912c23	-0.017721241
251	0x3bf60ce9	0.007508863
252	0x3c9dd095	0.019264499
253	0xbbce78a8	-0.0063010044
254	0x3c3bb6a8	0.011457123
255	0x3c320ccb	0.010867308
