results/ZBHCC.onnx (onnx, 553552 bytes, 7 tensors)

network_body.linear_encoder.seq_layers.0.weight f4 [256, 22]
0.54360205 -0.15267442 -0.105186604 0.02701478 0.021609293 -0.086033426 0.1841417 0.17282276
-0.1519175 0.029137772 0.22040491 0.019628912 -0.076777324 -0.019262748 0.44781792 -0.36910352
-0.05337273 0.06515356 -0.2201917 0.16248712 0.18841623 0.01834743 -0.3174544 0.2413618
0.28288177 -0.26896843 0.20256047 -0.13981077 0.20198648 -0.13471514 -0.13619886 0.44372815
0.3044989 -0.066349074 -0.048139654 0.43837002 -0.018521132 -0.15450571 -0.119289204 -0.03439955
-0.06757549 0.26621556 0.22152118 0.06570108 0.3477018 -0.050173778 0.16806345 -0.01720351
-0.08366273 0.2701997 0.22789599 -0.106622115 -0.24412869 0.33468074 0.1503584 0.12915714
0.27071118 -0.14016114 0.232884 -0.23015994 0.27010125 0.33466077 0.027528672 0.2270327
-0.24015991 -0.18570781 -0.7799717 0.17550446 0.026758872 -0.16397947 0.033080358 -0.18723382
-0.103086844 0.20689651 -0.43086293 0.021862343 0.18638209 0.1630291 -0.2664025 -0.17448387
0.38906947 -0.15569362 0.049013507 0.36659512 -0.2482064 0.14245732 0.18209526 -0.26648903
0.24494539 -0.42217332 0.44149575 -0.23933274 -0.022290288 -0.21773311 -0.063538305 -0.18609029
0.047301486 0.36674553 -0.36734402 -0.38669038 0.13629967 0.14875457 0.15634267 0.06918768
0.18817616 -0.33109054 -0.0077178245 -0.39080542 0.10347269 -0.02920974 0.06386301 0.041778184
-0.081714295 0.18985996 -0.029642206 0.37839523 0.14706261 -0.04549794 -0.075111054 -0.17997624
-0.07649653 -0.1408144 0.35957617 0.32955432 0.40853235 -0.011738449 0.30096185 -0.05114155
0.17172442 0.123069555 0.09275985 0.29967776 0.3871393 -0.09646369 0.14625455 -0.4721394
-0.26270583 0.32357407 0.20290115 -0.17546983 -0.2855144 0.089289784 0.2429513 0.199921
0.024330055 0.22586162 -0.53554916 -0.07529541 0.3002052 0.13108195 0.024731234 0.37146688
-0.11502008 -0.086812355 0.04746067 -0.132128 0.4087801 -0.05096857 0.42722598 -0.26141298
-0.07098996 -0.09176027 -0.14112496 0.2523113 -0.07266175 0.5495443 0.085581414 0.27475598
-0.023190346 0.28170764 0.2659417 0.38198614 0.07054019 -0.11895881 -0.16818745 -0.19468617
-0.12682925 0.41065496 -0.25112265 -0.25722232 0.073972516 -0.08450011 -0.36725348 0.20042467
-0.21712469 -0.28365257 -0.107695326 -0.039285004 -0.14031962 0.033225432 -0.14488688 -0.028729884
-0.5404119 0.15450794 0.11403751 -0.13063155 0.092130214 0.47007337 0.096898176 -0.04037921
-0.049478255 0.37633166 -0.089527585 -0.2574278 0.20468381 -0.08037164 0.06980035 0.14655
-0.0069671045 0.088979796 -0.18092507 0.10076983 -0.059890036 -0.15212166 -0.16771226 0.17456561
0.035304744 -0.2300613 0.20221548 0.04392033 -0.2461483 0.14323542 0.040631764 -0.053117316
0.17275676 -0.22820202 -0.05583883 -0.034929182 0.6420347 0.12209026 0.12864913 0.124005154
0.1618136 -0.25034973 0.08338533 -0.019764304 0.0661822 -0.10406347 -0.09040178 0.27798745
0.20512134 0.41039857 -0.14789818 -0.0050298604 -0.08244622 -0.1176048 0.050596472 0.17680345
0.12328565 -0.08490911 -0.049237777 -0.22724505 -0.02111368 0.07185256 0.041469246 0.21746849
00000000: 8129 0b3f af56 1cbe 136c d7bd 1a4e dd3c
00000010: f905 b13c 4b32 b0bd a48f 3c3e 73f8 303e
00000020: 4390 1bbe 56b2 ee3c d3b1 613e d0cc a03c
00000030: 6e3d 9dbd e9cc 9dbc 6448 e53e 23fb bcbe
00000040: 5d9d 5abd 3b6f 853d ef79 61be 0663 263e
00000050: 2ff0 403e 594d 963c 6289 a2be 8c27 773e
00000060: e1d5 903e 3bb6 89be 036c 4f3e 8e2a 0fbe
00000070: 8bd5 4e3e c4f2 09be b777 0bbe 5630 e33e
00000080: 48e7 9b3e 06e2 87bd 162e 45bd 0972 e03e
00000090: a1b9 97bc bf36 1ebe e64d f4bd 8be6 0cbd
000000a0: 0565 8abd 684d 883e 73d6 623e 4a8e 863d
000000b0: f805 b23e 0583 4dbd d318 2c3e 60ee 8cbc
000000c0: 5e57 abbd 9d57 8a3e 915d 693e b25c dabd
000000d0: dffc 79be 465b ab3e 8df7 193e c541 043e
000000e0: a89a 8a3e 6786 0fbe 2579 6e3e 0caf 6bbe
000000f0: b64a 8a3e a858 ab3e cf83 e13c 437b 683e
00000100: 7bec 75be 302a 3ebe 3aac 47bf 71b7 333e
00000110: 6c35 db3c 3cea 27be 457f 073d 39ba 3fbe
00000120: 321f d3bd aedc 533e 119a dcbe a818 b33c
00000130: f2da 3e3e 1af1 263e e965 88be e6ab 32be
00000140: 1d34 c73e 266e 1fbe 63c2 483d 5bb2 bb3e
00000150: d229 7ebe 55e0 113e 2e77 3a3e 4071 88be
00000160: f7d2 7a3e 1a27 d8be bb0b e23e a413 75be
00000170: 1f9a b6bc 6ef5 5ebe 5f20 82bd 748e 3ebe
00000180: 34bf 413d 12c6 bb3e 8414 bcbe 48fc c5be
00000190: 2492 0b3e 1e53 183e 4b18 203e 45b2 8d3d
000001a0: 40b1 403e b384 a9be cee5 fcbb a617 c8be
000001b0: 7de9 d33d 4449 efbc 9cca 823d 9a1f 2b3d
000001c0: d359 a7bd a66a 423e 36d4 f2bc 05bd c13e
000001d0: 9597 163e 0c5c 3abd d3d3 99bd b14b 38be
000001e0: 36aa 9cbd a631 10be 5e1a b83e 58bb a83e
000001f0: 272b d13e a052 40bc ac17 9a3e cd79 51bd
00000200: 87d8 2f3e e40b fc3d e0f8 bd3d 5d6f 993e
00000210: 1f37 c63e c18e c5bd c1c3 153e 41bc f1be
00000220: 6181 86be 80ab a53e 52c5 4f3e 5dae 33be
00000230: f22e 92be 90dd b63d 3ac8 783e 17b8 4c3e
00000240: d34f c73c 4548 673e c019 09bf 7b34 9abd
00000250: 7fb4 993e 593a 063e 2899 ca3c e830 be3e
00000260: a68f ebbd adca b1bd 1f66 423d 904c 07be
00000270: a04b d13e 6bc4 50bd 5dbd da3e ecd7 85be
00000280: 2f63 91bd cfec bbbd 1083 10be f22e 813e
00000290: afcf 94bd efae 0c3f 4f45 af3d d1ac 8c3e
000002a0: aef9 bdbc fc3b 903e 8329 883e b093 c33e
000002b0: 6077 903d ada0 f3bd 5539 2cbe d05b 47be
000002c0: 87df 01be 5e41 d23e 2693 80be a5b2 83be
000002d0: e77e 973d 650e adbd a608 bcbe 203c 4d3e
000002e0: ef55 5ebe e93a 91be 5e8f dcbd 50e9 20bd
000002f0: f2af 0fbe 6417 083d 3a5d 14be ef5a ebbc
00000300: 6f58 0abf 5437 1e3e 7f8c e93d 47c4 05be
00000310: c4ae bc3d 75ad f03e 8d72 c63d ac64 25bd
00000320: b6a9 4abd 8bae c03e 3d5a b7bd 94cd 83be
00000330: a298 513e e399 a4bd 7cf3 8e3d 3411 163e
00000340: 4f4c e4bb 0a3b b63d 6c44 39be 6a60 ce3d
00000350: 414f 75bd c8c5 1bbe c3bc 2bbe 54c1 323e
00000360: b59b 103d 3095 6bbe 9311 4f3e cee5 333d
00000370: 4d0e 7cbe 4eac 123e 7e6d 263d 8b91 59bd
00000380: 26e7 303e caad 69be 42b7 64bd e711 0fbd
00000390: 635c 243f 750a fa3d 99bc 033e 6af6 fd3d
000003a0: 77b2 253e d72d 80be eec5 aa3d c0e8 a1bc
000003b0: 898a 873d 3b1f d5bd 9224 b9bd 5f54 8e3e
000003c0: 540b 523e c31f d23e 9f72 17be 87d1 a4bb
000003d0: 90d9 a8bd c9da f0bd 3f3e 4f3d f70b 353e
000003e0: 307d fc3d d4e4 adbd 8dad 49bd edb2 68be
000003f0: 99f6 acbc 6f27 933d a8db 293d 0fb0 5e3e

network_body.linear_encoder.seq_layers.0.bias f4 [256]
5.1505227e-05 -0.00028593387 -0.00091830303 0.0009239506 -0.0022063558 0.0027762835 0.0015072441 -0.0023817255
-0.0013450391 -0.0029616386 -0.005946069 0.0005526147 -0.0016423342 0.0011633056 -0.0033109274 -0.0010318635
0.00063430844 -0.00020510101 0.00029748146 -0.00010009988 0.0017568095 0.001903647 0.0004995876 0.00016498196
0.003514898 0.0036429316 -8.436362e-05 -0.00022528114 0.0020154417 0.002927295 0.0009118237 -0.00015600766
-0.0025989045 -0.003383104 -0.0057223886 0.00669254 -0.0010011999 -0.008221396 -0.002997006 -0.0005964107
-0.0018671767 0.00023083421 6.571763e-05 -0.00052738877 0.0033426175 -0.000175966 0.002111219 0.0005565798
-0.00053323957 -0.0033890747 -0.0012333913 -0.00027691404 -0.0011006771 0.0021087527 -0.0009874642 -0.0030567185
-0.00045612326 0.0011737117 -0.0011363295 -0.0014059177 -0.0030240177 0.0027002133 0.008564137 0.0002951268
0.007203926 -0.0009629863 -0.0019084068 -0.0010394988 0.0024594066 -0.00019411008 -0.0053410167 -0.00066163845
-0.00040746498 0.0026348552 9.55026e-05 -0.006823865 0.0027182808 -0.004287138 0.0007447317 -0.0046877954
0.0012812796 0.0014888195 0.00058948057 -0.0027290208 -0.0006012995 -0.00019661814 -2.9547431e-05 -0.0018755429
-0.00063627405 0.0005551803 0.0031319747 0.0053424104 -0.0017666896 -0.0023301553 0.0035512086 -0.00065496744
-0.0046339626 0.004535233 -0.00029034316 -0.00012281619 -0.0017291703 0.00024279715 1.1733677e-05 -0.0005486208
-0.0009846474 -0.001276027 9.197247e-05 -0.0031761404 0.0007441009 -0.0012733208 -0.00138494 -0.0032074992
-0.0006395131 -0.00092322327 -0.0058254525 0.0034811443 -0.0018909021 0.0014530059 -0.003210521 -0.0025464115
-0.0024937983 -0.0018275599 -0.0024195104 0.00073233066 0.0021282888 -0.0039211167 -1.8479102e-05 -0.0026009441
-0.007819348 0.0018573754 -0.0016222355 -0.0035139997 0.0012004563 0.0012830235 -0.0039275265 4.727927e-05
0.0051429165 0.00039597202 0.00017833084 -0.0010284269 0.00011581879 -0.0009786219 -0.0009515471 0.0015171409
-0.0037941358 0.0013672033 0.0027362946 -0.004194733 -0.002148838 -0.0027498917 0.0023099496 -0.0007756235
-0.0036480827 -0.00090661715 0.001651979 -0.0054073767 -0.004228264 -0.0015604829 -0.006836491 -0.0045659193
2.7714492e-05 0.0022257988 -0.0009736382 -0.0031669736 -0.0018623803 -6.1258535e-05 -0.005247974 -0.0033072918
-0.0033532507 -0.0019044848 0.0010925339 -0.0011183019 0.0036556649 -0.0022581741 0.00025380723 9.73966e-05
-0.0014370197 0.003142645 -8.573847e-05 -0.001051423 -0.0036291278 4.8283782e-05 0.0033812665 -0.007048794
-0.0008600181 -0.0016409843 -0.007119799 0.00023993521 0.00018128037 0.0013531599 -0.0016906513 -0.0063488637
0.0011285796 -0.0014858397 -0.004181925 -0.00017832252 -0.00053872436 0.0074675013 0.0028426668 -0.0018499136
-0.0046719005 -0.00037819633 -0.0022048901 0.00067796273 -0.00489704 0.006392307 -0.004147499 -0.00050670735
-0.003388898 -0.0032694733 0.0026497622 -0.0018963786 0.0038622338 0.00014434781 0.0029423605 -0.00080837053
-0.0029243643 -0.004598175 -0.000564346 0.001371838 -0.0012124442 0.00018388474 0.00074810634 -0.006410164
-0.002376149 9.079419e-05 -0.0057229395 -5.3483942e-05 5.2601506e-05 0.0010012616 -0.0002496426 -0.00231562
-0.0014142415 -0.00069985806 -0.000805208 -0.00026310782 0.00247941 -0.0017798455 -0.0021879282 -0.002720179
-0.0016233906 0.00025373694 -0.00314422 0.00063578296 -0.0048618396 0.00014897458 0.0011344666 -0.00015875873
-0.008780064 -0.0011926667 0.0007205755 -0.0030678299 0.0034709042 -0.0014010621 -0.0071811047 -0.0003743737
00000000: 5107 5838 65e9 95b9 46ba 70ba 4635 723a
00000010: 8298 10bb 4ff2 353b b88e c53a b916 1cbb
00000020: 064c b0ba 0d18 42bb 3ed7 c2bb 58dd 103a
00000030: 9743 d7ba 0f7a 983a 25fc 58bb 983f 87ba
00000040: b847 263a 6210 57b9 49f7 9b39 b7ec d1b8
00000050: bf44 e63a cb83 f93a c2f6 023a 02ff 2c39
00000060: 345a 663b 40be 6e3b 60ec b0b8 7239 6cb9
00000070: 8015 043b dcd7 3f3b 7407 6f3a fd95 23b9
00000080: 6252 2abb 11b7 5dbb e082 bbbb 184d db3b
00000090: b23a 83ba 09b3 06bc 6b69 44bb 7258 1cba
000000a0: 0ebc f4ba 160c 7239 e2d1 8938 7640 0aba
000000b0: d10f 5b3b 8383 38b9 615c 0a3b 70e7 113a
000000c0: 1ac9 0bba 3d1b 5ebb bfa9 a1ba c62e 91b9
000000d0: 9844 90ba 0033 0a3b cd6d 81ba 3a53 48bb
000000e0: d423 efb9 3bd7 993a e4f0 94ba c546 b8ba
000000f0: 992e 46bb 10f6 303b 9850 0c3c 40bb 9a39
00000100: e90e ec3b eb70 7cba 8223 faba cb3f 88ba
00000110: ff2d 213b 078a 4bb9 b203 afbb ce71 2dba
00000120: 06a1 d5b9 89ad 2c3b 9148 c838 bb9a dfbb
00000130: 2f25 323b 1f7b 8cbb 193a 433a 149c 99bb
00000140: 9cf0 a73a 7e24 c33a 5f87 1a3a 5fd9 32bb
00000150: 87a0 1dba 482b 4eb9 a0dc f7b7 c7d4 f5ba
00000160: a1cb 26ba 8589 113a d141 4d3b 630f af3b
00000170: 4490 e7ba 85b5 18bb 65bb 683b 1fb2 2bba
00000180: 7fd8 97bb 4b9c 943b 3339 98b9 38c8 00b9
00000190: 54a5 e2ba 5d97 7e39 c2db 4437 52d1 0fba
000001a0: 490f 81ba 5c40 a7ba 58e1 c038 cb26 50bb
000001b0: c40f 433a 8ee5 a6ba e086 b5ba e834 52bb
000001c0: ffa4 27ba 7704 72ba 70e3 bebb e923 643b
000001d0: 25d8 f7ba ca72 be3a 9b67 52bb b2e1 26bb
000001e0: fe6e 23bb bc8a efba a690 1ebb e1f9 3f3a
000001f0: c37a 0b3b b67c 80bb 9203 9bb7 9a74 2abb
00000200: b91c 00bc 2d73 f33a 31a1 d4ba 224b 66bb
00000210: a158 9d3a 202b a83a 7bb2 80bb bb4d 4638
00000220: e985 a83b 779a cf39 52fe 3a39 48cc 86ba
00000230: bde3 f238 1a45 80ba 3f71 79ba cdda c63a
00000240: 09a7 78bb bb33 b33a 6853 333b f973 89bb
00000250: 85d3 0cbb 8737 34bb 8662 173b 3653 4bba
00000260: ac14 6fbb 0caa 6dba 3887 d83a 5d30 b1bb
00000270: 408d 8abb 1e89 ccba a504 e0bb b59d 95bb
00000280: 6b7c e837 b5de 113b c13b 7fba 008d 4fbb
00000290: 1d1b f4ba ed77 80b8 32f7 abbb 26bf 58bb
000002a0: 36c2 5bbb e89f f9ba 5b33 8f3a fc93 92ba
000002b0: e193 6f3b e0fd 13bb 6e11 8539 6741 cc38
000002c0: 615a bcba d5f4 4d3b 7ece b3b8 e7cf 89ba
000002d0: a9d6 6dbb 5184 4a38 3d98 5d3b 92f9 e6bb
000002e0: d672 61ba 4c16 d7ba 344d e9bb 1e97 7b39
000002f0: 1416 3e39 835c b13a d898 ddba 210a d0bb
00000300: d9ec 933a 82c0 c2ba 8808 89bb 16fc 3ab9
00000310: 2e39 0dba f1b1 f43b 094c 3a3b cd78 f2ba
00000320: be16 99bb a748 c6b9 eb7f 10bb 4fb9 313a
00000330: 5977 a0bb 8f76 d13b bee7 87bb 8ed4 04ba
00000340: 4618 5ebb a944 56bb a2a7 2d3b e88f f8ba
00000350: 881d 7d3b 125c 1739 9ed4 403b d4e8 53ba
00000360: b1a6 3fbb 4aac 96bb 9ef0 13ba 3fcf b33a
00000370: e0ea 9eba 2fd1 4039 911c 443a 5a0c d2bb
00000380: 2ab9 1bbb c268 be38 7f87 bbbb f253 60b8
00000390: 70a0 5c38 c43c 833a 76e2 82b9 a8c1 17bb
000003a0: 125e b9ba ae76 37ba 9814 53ba bcf1 89b9
000003b0: 997d 223b b449 e9ba 5863 0fbb 0845 32bb
000003c0: f3c7 d4ba ff07 8539 420f 4ebb acaa 263a
000003d0: 1150 9fbb 0f36 1c39 62b2 943a 7978 26b9
000003e0: 42da 0fbc 4153 9cba 01e5 3c3a a50d 49bb
000003f0: 1c78 633b d8a3 b7ba 794f ebbb 9647 c4b9

network_body.linear_encoder.seq_layers.2.weight f4 [256, 256]
0.013837758 0.033139043 0.025262222 0.088021316 -0.05373898 0.052202053 -0.017967593 -0.07098662
-0.1016653 0.017325144 -0.089681715 -0.056328226 0.028859448 0.08247857 0.010796171 0.04150754
0.04121858 -0.1277057 0.031163815 -0.15306322 0.013791582 -0.032437164 0.022809455 0.070579715
0.16152993 -0.08020189 0.008775373 -0.121335655 0.033919323 0.042064946 0.019442637 -0.10634595
0.08114668 -0.008308288 0.16044267 0.0385366 -0.019219497 -0.05767446 0.045666482 0.08328284
-0.008653779 -0.04720351 -0.08268329 -0.1185406 -0.073527 0.015879942 0.024145298 0.073185325
0.0008390219 0.06616242 0.056364648 -0.015349698 0.057928506 0.089769326 -0.013277156 0.01196636
0.083102494 0.011067463 0.02507864 0.083787575 -0.0088509675 -0.03732267 0.09122862 -0.12860319
0.036627308 0.038611703 0.08474056 0.15073012 0.09239329 0.014554337 -0.003999899 -0.04671809
-0.027945055 0.048178047 -0.087673634 0.14375302 0.051494088 -0.09374459 0.032884516 0.016678005
0.0102956025 0.060173914 -0.05203895 -0.017542947 -0.050670397 -0.031645034 0.017945549 -0.030160854
-0.04724141 -0.020676063 -0.06479257 -0.02912474 0.07085784 0.058786936 -0.015933964 -0.05021552
-0.14470781 0.108163245 -0.025780752 -0.06595893 -0.05843479 0.03681548 -0.03405852 -0.011573604
0.016624734 -0.03353577 -0.055281527 -0.0047807307 0.02404456 -0.037581343 0.09010163 0.07424841
-0.06368164 0.004420352 0.022150466 0.0124813095 0.044162054 -0.009905668 0.05450893 0.035350777
0.01570584 0.15581605 -0.016124753 -0.030914903 -0.09515186 -0.004260018 -0.079623125 -0.0059725745
-0.08921329 -0.008529314 0.032843973 -0.15027437 -0.036142617 0.028202169 -0.060046155 -0.009271195
0.081250645 -0.025962792 0.009326208 -0.024123494 -0.086212724 -0.033335738 -0.0052582663 0.07758526
-0.0066830544 -0.015821587 0.09727193 -0.013942274 0.05682654 -0.011773658 -0.016140793 0.0044080066
0.10938209 -0.052709047 -0.08370333 -0.020478275 -0.0068644076 0.037351344 0.060234074 -0.11074579
0.01640462 0.039290756 0.13624527 -0.00677676 0.0005511102 -0.015371115 0.010131414 -0.028834678
-0.021608274 -0.034406886 -0.04000585 -0.12713408 0.06282521 -0.003397303 0.046346348 0.12570931
0.040018477 0.012326992 0.08433785 0.056367464 -0.032133393 -0.0018311441 0.09623005 0.037826195
-0.007571792 -0.0300595 -0.03059789 -0.12953572 0.001477716 0.028105764 -0.0151180355 -0.019125668
-0.007306906 -0.07101821 -0.11983644 -0.053748313 0.0047902716 -0.04786304 -0.09371301 0.049198013
-0.09872554 0.09571525 -0.05009641 0.010538522 -0.029975472 0.014429045 0.03114996 -0.033093605
-0.0455841 -0.01011718 -0.050803326 0.022928119 0.01602654 -0.0037245 0.037256893 0.0031663969
-0.025442744 0.06743198 0.056164064 -0.09619193 0.031967822 -0.05425388 0.015781904 0.101249844
0.009276664 -0.10680077 0.051436033 0.04408833 -0.0037383751 -0.033571124 -0.12643674 -0.021748036
0.16922748 0.020195616 -0.07480213 0.025371317 -0.047822557 -0.103697814 -0.018188825 0.067750745
0.09479087 -0.11743858 0.025366014 -0.041185662 -0.03433766 -0.106857896 0.0054803514 -0.020785931
0.017852949 0.02014349 0.06809585 0.0050131693 -0.028674101 0.0064093564 0.046048168 0.021859713
00000000: c4b7 623c cebc 073d b8f2 ce3c 8544 b43d
00000010: 681d 5cbd d2d1 553d c630 93bc 6f61 91bd
00000020: e635 d0bd 76ed 8d3c 0cab b7bd 6db8 66bd
00000030: a66a ec3c 86ea a83d 6ce2 303c cf03 2a3d
00000040: d0d4 283d 48c5 02be 424b ff3c 9bbc 1cbe
00000050: 16f6 613c d5dc 04bd e5da ba3c 198c 903d
00000060: 1a68 253e e340 a4bd 95c6 0f3c d47e f8bd
00000070: fdee 0a3d 4b4c 2c3d 2a46 9f3c e8cb d9bd
00000080: 3b30 a63d 7c1f 08bc 154b 243e 8ed8 1d3d
00000090: 3572 9dbc 0e3c 6cbd c70c 3b3d 3290 aa3d
000000a0: 94c8 0dbc 7858 41bd db55 a9bd 6ac5 f2bd
000000b0: 5395 96bd a716 823c 5ccc c53c 30e2 953d
000000c0: cef1 5b3a 2a80 873d 9ede 663d 4d7d 7bbc
000000d0: 7146 6d3d fbd8 b73d 6e88 59bc 8d0e 443c
000000e0: a431 aa3d 4e54 353c b871 cd3c d298 ab3d
000000f0: a603 11bc a8df 18bd 12d6 ba3d 8eb0 03be
00000100: 8406 163d 4e27 1e3d 758c ad3d ff58 1a3e
00000110: b138 bd3d 5075 6e3c 9611 83bb 785b 3fbd
00000120: 07ed e4bc 5856 453d 3c8e b3bd fe33 133e
00000130: 77eb 523d 2afd bfbd eab1 063d 50a0 883c
00000140: e3ae 283c ec78 763d cb26 55bd 3ab6 8fbc
00000150: c38b 4fbd 399e 01bd 8b02 933c e513 f7bc
00000160: 3580 41bd d960 a9bc f8b1 84bd 0297 eebc
00000170: ea1d 913d 92ca 703d f287 82bc caae 4dbd
00000180: 492e 14be b184 dd3d 2832 d3bc 7a15 87bd
00000190: 5159 6fbd d4cb 163d f280 0bbd 379f 3dbc
000001a0: 9830 883c ce5c 09bd e26e 62bd ada7 9cbb
000001b0: 19f9 c43c e5ee 19bd 3487 b83d 8d0f 983d
000001c0: 856b 82bd 9ad8 903b e574 b53c 687e 4c3c
000001d0: 45e3 343d 624b 22bc c144 5f3d facb 103d
000001e0: 89a9 803c 3e8e 1f3e 0f18 84bc 4041 fdbc
000001f0: fade c2bd 9f97 8bbb 7311 a3bd 96b5 c3bb
00000200: 75b5 b6bd 89be 0bbc 6787 063d 86e1 19be
00000210: 480a 14bd 3c08 e73c f5f2 75bd 36e6 17bc
00000220: bd66 a63d ecaf d4bc f4cc 183c a29e c5bc
00000230: 4c90 b0bd 0e8b 08bd 894d acbb 05e5 9e3d
00000240: 86fd dabb 469c 81bc 8136 c73d 236e 64bc
00000250: f2c2 683d 4de6 40bc b239 84bc 0a71 903b
00000260: b803 e03d 71e5 57bd a76c abbd 0ec2 a7bc
00000270: d3ee e0bb b9fd 183d 01b8 763d b0ce e2bd
00000280: fb62 863c 58ef 203d e183 0b3e 950f debb
00000290: 6178 103a 21d7 7bbc 3bfe 253c b436 ecbc
000002a0: d603 b1bc 3cee 0cbd 2ddd 23bd 702f 02be
000002b0: 81aa 803d 49a5 5ebb abd5 3d3d f1b9 003e
000002c0: 6aea 233d 27f7 493c 53b9 ac3d 92e1 663d
000002d0: 4e9e 03bd 0003 f0ba 4314 c53d a4ef 1a3d
000002e0: cc1c f8bb 573f f6bc 6da8 fabc 03a5 04be
000002f0: ecaf c13a 0f3e e63c a3b1 77bc 6fad 9cbc
00000300: c56e efbb ff71 91bd cf6c f5bd 3127 5cbd
00000310: b6f7 9c3b 090c 44bd 9bec bfbd db83 493d
00000320: 9e30 cabd 5b06 c43d e531 4dbd c4a9 2c3c
00000330: 1f8f f5bc cd67 6c3c 332e ff3c 298d 07bd
00000340: 65b6 3abd 87c2 25bc 2617 50bd c0d3 bb3c
00000350: 174a 833c be16 74bb af9a 183d 5383 4f3b
00000360: 4d6d d0bc c719 8a3d 4a0c 663d 4600 c5bd
00000370: b1f0 023d 5139 5ebd 0d49 813c 145c cf3d
00000380: 26fd 173c 5dba dabd 97ae 523d f795 343d
00000390: 87ff 74bb e081 09bd a278 01be f028 b2bc
000003a0: f849 2d3e 4771 a53c dc31 99bd 82d7 cf3c
000003b0: 96e1 43bd 855f d4bd bb00 95bc e7c0 8a3d
000003c0: b721 c23d a383 f0bd 63cc cf3c 4cb2 28bd
000003d0: a5a5 0cbd 50d8 dabd 8594 b33b 4247 aabc
000003e0: 5940 923c f603 a53c d675 8b3d 8345 a43b
000003f0: f3e5 eabc 9405 d23b 019d 3c3d 2413 b33c

network_body.linear_encoder.seq_layers.2.bias f4 [256]
-0.0005677808 -0.0014735018 -0.0031121473 -0.0018418995 -0.00015295658 -0.0013982105 -0.0022277602 -0.00064451824
0.0020078698 -0.002447024 -0.0021188413 -0.0047239815 0.0005189574 -0.0037260936 -0.002834673 -0.0017992748
-0.0013779103 -0.0005169796 -0.0009891565 0.00020545846 -0.0046946197 -0.0011702956 -0.00017102918 0.0065252366
0.0021092216 -0.0027645074 -0.00068505446 -0.00026481584 0.0015119477 0.00038210404 -0.0039744666 0.0007993851
0.0040412503 -0.0007198573 -0.005497905 -0.002777463 -0.0014211609 -0.0011097199 0.0020014641 -0.003198789
-0.0017573443 -0.0011338257 -0.0005857365 -0.004432456 -0.00095084053 0.0012097181 -0.0025756704 0.0048195943
-0.0022773887 0.00055763504 -0.000675719 -0.0011068732 0.00036155974 -0.0004113341 0.0018307102 -0.0019146453
0.0007099868 0.0011461811 0.0037715884 0.00045494403 -0.0008518034 -0.0008029114 0.0015670395 0.0014481249
-0.0013899435 -0.0010460347 -0.0025680284 -0.0007763839 0.00025007615 -0.0035787951 -0.0009355259 -0.00069605437
-0.00013034992 -0.0003398572 0.0015519296 0.00018918926 -0.00052892463 0.0010415744 0.0008754309 -0.0008321955
-0.001165349 -0.00083781447 -0.00023073051 -0.0017694144 -0.0010117228 0.00038901507 -0.00013248721 -0.00016282649
-0.0011365656 -0.00018814125 -0.00088424503 -0.0039039976 -0.0014405436 0.00043626188 -0.0031467883 -6.882823e-05
-0.0030359444 -0.0011336827 -0.0022758157 -0.0048538893 0.0014467891 -0.0009202251 0.0032077502 0.00043078398
0.0010374786 -0.0015338664 0.0004981625 0.00044787792 0.0012766694 -0.0031376625 0.0020759993 -0.00030409038
-0.00088427897 -0.0001647533 0.0007099679 -0.0002472969 -0.0034821972 -0.0015626452 -0.000114064045 0.0015298103
-0.00088316505 -0.0010910699 -0.0027698772 -0.0026405344 -0.00091566436 -0.007516727 -0.0016648992 0.0012761058
-0.0021127742 -0.002761652 0.00052760233 -0.003245559 -0.0005258782 -0.0003551513 0.00091928156 0.003931453
0.0006929894 -0.0014084999 -0.005415793 -0.0007412365 -0.0026377402 -0.0010000474 0.00014529584 -0.0009364029
-0.0016737563 0.004420234 0.003303753 -0.0016671757 -0.00046004858 -0.00084021484 -0.004561486 0.0013188053
0.0011069265 -0.00017398759 -9.65046e-05 -0.0026893585 -0.0042744223 8.594411e-05 0.0016278187 -0.002815399
3.012661e-05 -0.0026176507 0.00078325666 -0.0012429947 7.2853814e-05 -0.00203298 -0.0014919343 -0.0015252612
0.00011736999 -0.0044648214 -0.0013221179 -0.0036283012 -0.00027372738 -0.0015200058 0.00048027284 -0.0014792942
-0.0026091132 -0.0002633104 -0.00068236404 0.0055280626 -0.0024028833 -0.0042244294 -0.0038495935 7.447224e-05
-0.0006134352 -0.00087792013 -0.0005736046 -0.0006513859 -0.0031194082 0.0009133512 -0.0026107095 -0.00031690003
-0.0057932907 -0.00074792217 0.00013908434 -0.0007873017 -0.0010357972 -0.0005863628 -0.0036415372 -0.00027192917
-0.00038172357 -0.004387188 0.00030143035 0.0009060133 -0.0009870124 -0.0040675523 -0.0014969414 -0.0023656758
0.003113532 -0.0019968145 -0.00056724256 -0.0072439574 -0.00012137424 -0.0040014344 -0.0010986979 0.00011627563
0.0009330809 -0.0051042796 -0.0010478789 -0.0019338441 -0.0015914562 -0.0011206837 0.00075103634 -0.0036960093
-0.0033995053 -0.0016414174 -0.0060432837 -0.00073887635 -0.0027787224 -0.0009869143 -0.002425097 -0.0038263788
-0.003398372 -0.0015205219 -0.0010496542 -0.0002097311 -0.0020513588 0.003005994 2.4973378e-05 -0.00601216
0.0017762057 0.0008483272 0.0052820146 -0.0013633483 -0.0010674348 -0.0045510815 0.0003578399 -0.00022966349
-0.0018363667 -0.0029580896 -0.0014009632 0.00023248057 0.0012196039 0.0010689376 -0.00034287592 0.00051119656
00000000: 20d7 14ba 8422 c1ba 2bf5 4bbb e46b f1ba
00000010: f862 20b9 2944 b7ba 9dff 11bb e3f4 28ba
00000020: 7796 033b 405e 20bb 42dc 0abb a1cb 9abb
00000030: a40a 083a 7a31 74bb ecc5 39bb a5d5 ebba
00000040: ff9a b4ba ea85 07ba 96a6 81ba 5670 5739
00000050: 53d5 99bb 9b64 99ba 4c56 33b9 a7d1 d53b
00000060: de3a 0a3b bd2c 35bb 3a95 33ba fbd6 8ab9
00000070: 8c2c c63a 2355 c839 3e3c 82bb d38d 513a
00000080: 776c 843b ceb4 3cba c527 b4bb 1906 36bb
00000090: 3f46 baba 0574 91ba ff2a 033b c6a2 51bb
000000a0: b156 e6ba e19c 94ba 1c8c 19ba 233e 91bb
000000b0: d441 79ba 678f 9e3a 94cc 28bb b0ed 9d3b
000000c0: 3e40 15bb 412e 123a bc22 31ba 8014 91ba
000000d0: ba8f bd39 54a8 d7b9 71f4 ef3a d6f4 faba
000000e0: 681e 3a3a 753b 963a c12c 773b 8e85 ee39
000000f0: 8f4b 5fba 797a 52ba 1f65 cd3a 02cf bd3a
00000100: c42e b6ba 1a1b 89ba 5e4c 28bb 3e86 4bba
00000110: a71c 8339 388a 6abb 153e 75ba 6b77 36ba
00000120: 8aae 08b9 dc2e b2b9 1e6a cb3a 1b61 4639
00000130: 88a7 0aba 7085 883a 2c7d 653a b227 5aba
00000140: a0be 98ba c7a0 5bba 40f0 71b9 b2eb e7ba
00000150: c99b 84ba b8f4 cb39 44ec 0ab9 67bc 2ab9
00000160: d0f8 94ba c847 45b9 aecc 67ba 36da 7fbb
00000170: 9fd0 bcba 14ba e439 593a 4ebb e057 90b8
00000180: b2f6 46bb 1498 94ba da25 15bb 600d 9fbb
00000190: 30a2 bd3a 433b 71ba 1e39 523b d9da e139
000001a0: 01fc 873a 040c c9ba 1f97 023a 28d1 ea39
000001b0: eb55 a73a 3ea1 4dbb 7d0d 083b 526e 9fb9
000001c0: f5ce 67ba a1c1 2cb9 241d 3a3a a1a7 81b9
000001d0: 9335 64bb acd1 ccba ab35 efb8 ea83 c83a
000001e0: 3484 67ba 3b02 8fba d486 35bb d10c 2dbb
000001f0: 3209 70ba e04e f6bb bf38 daba 0143 a73a
00000200: 7876 0abb d5fc 34bb cb4e 0a3a 72b3 54bb
00000210: 17db 09ba 9a33 bab9 f1fb 703a 6bd3 803b
00000220: bba9 353a 6a9d b8ba f776 b1bb 8a4f 42ba
00000230: f0dd 2cbb 0614 83ba 8e5a 1839 ef78 75ba
00000240: f161 dbba 9cd7 903b c783 583b 2285 daba
00000250: ad32 f1b9 dd41 5cba 8578 95bb c3db ac3a
00000260: 4a16 913a 7070 36b9 8362 cab8 f33f 30bb
00000270: 7410 8cbb e53c b438 885c d53a 8f82 38bb
00000280: 67b8 fc37 e48c 2bbb 7753 4d3a fbeb a2ba
00000290: 18c9 9838 bf3b 05bb 028d c3ba 46eb c7ba
000002a0: 8924 f638 a34d 92bb ea4a adba cbc8 6dbb
000002b0: 1183 8fb9 ee3a c7ba 21cd fb39 e0e4 c1ba
000002c0: a8fd 2abb ec0c 8ab9 ade0 32ba c024 b53b
000002d0: b179 1dbb 156d 8abb 7649 7cbb fb2d 9c38
000002e0: f0ce 20ba 3924 66ba f45d 16ba c5c1 2aba
000002f0: fc6e 4cbb f66d 6f3a 7018 2bbb 9a25 a6b9
00000300: a5d5 bdbb 3510 44ba 2bd7 1139 ec62 4eba
00000310: 96c3 87ba 24b6 19ba dba6 6ebb b791 8eb9
00000320: 1222 c8b9 66c2 8fbb 4c09 9e39 8681 6d3a
00000330: a45e 81ba 1a49 85bb 0535 c4ba 7409 1bbb
00000340: 660c 4c3b fddc 02bb 01b3 14ba b85e edbb
00000350: 4d8a feb8 771e 83bb 2f02 90ba 01d9 f338
00000360: 009a 743a cd41 a7bb fb58 89ba 0a79 fdba
00000370: 6998 d0ba e8e3 92ba 32e1 443a bf38 72bb
00000380: 3cca 5ebb d424 d7ba bd06 c6bb 27b1 41ba
00000390: 3a1b 36bb 595b 81ba 60ee 1ebb fcc3 7abb
000003a0: 39b7 5ebb 404c c7ba 8d94 89ba 43eb 5bb9
000003b0: 1770 06bb 3600 453b ec7d d137 a701 c5bb
000003c0: 93cf e83a 4662 5e3a c014 ad3b 61b2 b2ba
000003d0: 2be9 8bba 3d21 95bb 759c bb39 d3d1 70b9
000003e0: 3eb2 f0ba 82dc 41bb 86a0 b7ba 07c6 7339
000003f0: 1edb 9f3a 981b 8c3a 07c4 b3b9 d201 063a

network_body.linear_encoder.seq_layers.4.weight f4 [256, 256]
-0.074639745 0.013583425 -0.04531345 -0.037398636 0.07930886 -0.069947585 0.029070677 0.0184049
-0.06885942 0.14667478 -0.10495275 0.014508035 -0.012428567 0.02095235 -0.035103146 0.11638506
-0.056699947 0.046278097 -0.0138498265 -0.014979606 -0.116800986 -0.0696521 -0.021132883 0.034910943
0.010845696 -0.10516688 -0.07552548 -0.04640549 0.06984052 -0.06412219 -0.00072212727 0.09187297
0.10271892 0.1710287 -0.023483668 -0.0005950132 -0.16217107 0.010011344 0.018863028 -0.033953607
0.11986582 0.07199359 0.039839745 0.042430744 -0.11069179 0.036521684 0.010970893 0.061197236
0.026428763 0.018051166 0.14644633 0.014779366 0.008623185 0.026870202 -0.006554958 -0.018705273
-0.013798533 0.023991285 -0.027158268 0.007477218 0.046535578 0.016819917 -0.0076529174 0.1414255
0.0531378 -0.066456206 0.047096275 0.11148487 -0.010577922 -0.07175937 0.016045224 0.11002422
0.037910122 -0.05425288 -0.04747551 -0.08590386 0.05435427 0.052584857 0.03360688 -0.09571905
-0.03969829 0.02727758 -0.07594889 0.058367666 -0.17303039 0.03196333 0.014914614 -0.04028564
0.0008593523 -0.021922933 -0.03117804 -0.07653519 -0.13514915 -0.07064471 -0.026962787 -0.033709664
0.072867185 -0.014912329 0.10739409 -0.20720331 0.10396431 -0.04812993 -0.04059536 -0.0055473205
0.03504882 -0.07704951 0.06845054 0.07652185 -0.03282378 -0.10486359 -0.1277199 -0.022837477
-0.015918376 0.05343777 0.056671433 0.046711124 0.0113301305 -0.05036075 -0.053619325 0.0835544
0.084450155 0.036690224 -0.024363846 -0.08084934 0.02378258 0.074075244 -0.008690833 -0.045631632
0.11165461 -0.049084447 -0.048886538 0.084800325 0.024675364 0.07147252 -0.012605596 0.105379365
0.057978664 0.037834994 -0.0072201057 0.017954525 0.023273101 0.03021338 -0.19346775 -0.03923735
0.067859635 0.091259494 0.051603585 0.15052736 0.058041044 0.07147683 0.011920502 0.005184374
0.06942978 -0.07179935 -0.044092245 -0.008798978 0.09526613 0.04639564 0.039550487 0.015054367
0.019230133 -0.025134318 -0.02064091 -0.015387285 -0.045834146 -0.07871715 -0.07165712 0.029793406
-0.032903824 0.03441831 -0.0036319382 0.0032043816 0.07066814 -0.08742703 0.12708758 0.07993163
0.017224552 -0.0110585885 0.026780628 -0.04855156 0.038445607 0.001905919 -0.08477251 0.05806617
-0.05065633 0.0052291364 -0.10793473 0.06443178 0.100302674 0.090245984 0.07195435 -0.06759455
0.032776482 0.05003302 0.07560001 -0.01553324 -0.063267305 0.13832971 0.15083654 -0.06873698
0.061535522 0.07829513 0.0794475 0.0048041004 0.07400038 -0.09402336 0.0140757505 -0.05703618
0.05899223 -0.05072681 -0.0445435 0.05145482 0.005982883 0.15938546 -0.019431211 -0.10308442
-0.0018049113 0.09831846 -0.09838641 0.02569225 0.02927059 -0.14789277 -0.096003845 -0.061258513
0.026858425 0.023471003 0.03326343 0.040565204 0.06905385 -0.008126621 0.0068084793 0.04307408
0.05636105 -0.0455087 0.043710012 0.0063826977 0.050387796 0.012603596 0.06449909 0.04000046
0.009061172 0.08199674 0.005020583 -0.068404175 0.03983104 -0.0886575 0.024316937 0.048864055
-0.06649173 -0.03388681 -0.011497488 0.035212934 0.016836422 0.021144895 -0.14009787 0.0101775285
00000000: b9dc 98bd 048d 5e3c 999a 39bd 502f 19bd
00000010: af6c a23d ae40 8fbd a125 ee3c dfc5 963c
00000020: 2b06 8dbd ea31 163e 78f1 d6bd 1cb3 6d3c
00000030: 30a1 4bbc 43a4 ab3c 51c8 0fbd 4a5b ee3d
00000040: 343e 68bd 1a8e 3d3d 62ea 62bc 056d 75bc
00000050: 5b35 efbd c3a5 8ebd de1e adbc c7fe 0e3d
00000060: 25b2 313c bc61 d7bd 1aad 9abd af13 3ebd
00000070: 8c08 8f3d 7f52 83bd 244d 3dba e527 bc3d
00000080: 4c5e d23d 2622 2f3e d260 c0bc a9fa 1bba
00000090: 2c10 26be 9f06 243c a386 9a3c f012 0bbd
000000a0: 367c f53d 6071 933d 002f 233d dccb 2d3d
000000b0: 61b2 e2bd c397 153d 43bf 333c f4a9 7a3d
000000c0: 2281 d83c 0ae0 933c 07f6 153e 2725 723c
000000d0: 4248 0d3c e61e dc3c f9ca d6bb cd3b 99bc
000000e0: 3e13 62bc 5f89 c43c 047b debc 7303 f53b
000000f0: 179c 3e3d ecc9 893c 53c5 fabb d9d1 103e
00000100: 06a7 593d 311a 88bd 06e8 403d 2e52 e43d
00000110: 054f 2dbc 94f6 92bd 4671 833c 6154 e13d
00000120: a547 1b3d 4538 5ebd ae75 42bd 5dee afbd
00000130: 95a2 5e3d 3863 573d 5ea7 093d 5908 c4bd
00000140: ad9a 22bd 3b75 df3c 178b 9bbd ef12 6f3d
00000150: e12e 31be fbeb 023d 6d5c 743c 8e02 25bd
00000160: 2846 613a b997 b3bc 1769 ffbc 7bbe 9cbd
00000170: 8a64 0abe 2cae 90bd 10e1 dcbc 2513 0abd
00000180: 643b 953d d752 74bc 6ff1 db3d 1b2d 54be
00000190: 3deb d43d e423 45bd 5247 26bd 4cc6 b5bb
000001a0: 5a8f 0f3d 22cc 9dbd cc2f 8c3d 7db7 9c3d
000001b0: 3a72 06bd b9c2 d6bd 01c9 02be a915 bbbc
000001c0: 4167 82bc 90e1 5a3d 4e20 683d 2a54 3f3d
000001d0: 03a2 393c 1347 4ebd f09f 5bbd 921e ab3d
000001e0: 34f4 ac3d 7d48 163d b096 c7bc 5794 a5bd
000001f0: afd3 c23c c3b4 973d ff63 0ebc 3ce8 3abd
00000200: 2cab e43d c60c 49bd 403d 48bd cbab ad3d
00000210: fd23 ca3c 2f60 923d b487 4ebc 23d1 d73d
00000220: 097b 6d3d def8 1a3d a396 ecbb 5e15 933c
00000230: 3ba7 be3c 0d82 f73c 691c 46be 58b7 20bd
00000240: fef9 8a3d 42e6 ba3d 485e 533d d823 1a3e
00000250: 72bc 6d3d 7262 923d 364e 433c aee1 a93b
00000260: 3331 8e3d 8a0b 93bd 129a 34bd 9729 10bc
00000270: e41a c33d 5b09 3e3d b1ff 213d 97a6 763c
00000280: 8388 9d3c 7ce6 cdbc 2017 a9bc f31a 7cbc
00000290: 96bc 3bbd 7536 a1bd f8c0 92bd 4d11 f43c
000002a0: 29c6 06bd 37fa 0c3d d005 6ebb 9a00 523b
000002b0: 75ba 903d f10c b3bd 3f23 023e 32b3 a33d
000002c0: 811a 8d3c 152f 35bc 0c63 db3c 00de 46bd
000002d0: 2479 1d3d 08d0 f93a 369d adbd cbd6 6d3d
000002e0: 037d 4fbd 2d59 ab3b e20c ddbd cff4 833d
000002f0: 7d6b cd3d e3d2 b83d cd5c 933d 036f 8abd
00000300: a240 063d 6def 4c3d 2ed4 9a3d 217f 7ebc
00000310: 4a92 81bd 4ea6 0d3e e574 1a3e f9c5 8cbd
00000320: ac0c 7c3d 3259 a03d 5fb5 a23d b76b 9d3b
00000330: 838d 973d 528f c0bd fa9d 663c c59e 69bd
00000340: d6a1 713d eac6 4fbd 3f73 36bd 4ac2 523d
00000350: 0f0c c43b f135 233e 342e 9fbc ed1d d3bd
00000360: c692 ecba 305b c93d d07e c9bd 8e78 d23c
00000370: e0c8 ef3c 3471 17be aa9d c4bd 35ea 7abd
00000380: 3306 dc3c 4346 c03c 3c3f 083d b327 263d
00000390: 1b6c 8d3d 8525 05bc aa19 df3b 726e 303d
000003a0: d8da 663d 5567 3abd 4509 333d f325 d13b
000003b0: 6f63 4e3d 507f 4e3c 1918 843d 86d7 233d
000003c0: 4f75 143c e8ed a73d b483 a43b 7d17 8cbd
000003d0: df25 233d 1092 b5bd 5034 c73c ad25 483d
000003e0: d12c 88bd e5cc 0abd f65f 3cbc 703b 103d
000003f0: 89ec 893c 0f38 ad3c d175 0fbe a6bf 263c

network_body.linear_encoder.seq_layers.4.bias f4 [256]
1.6527321e-05 -0.001921609 4.7801932e-05 -0.0007592943 0.00014481769 -0.00044780833 -0.0030607493 0.0011652039
-0.0021556972 0.0036090582 0.0010871269 0.0007250939 -0.00092379714 -0.0048137004 -0.0012899964 -0.00058330485
-0.000358145 0.000118479846 -0.001105603 -0.0077256234 0.0045022736 -0.0017597348 0.00011529844 -0.002106438
-0.0012905601 -1.3661077e-06 0.00010073015 0.00019733445 -0.0006948559 -0.0011510011 -0.0014835031 0.00053920737
-0.0006533237 -0.001156776 -0.0022734064 0.0004320191 -0.00018143345 0.0027569518 -0.00021131733 -0.0011430862
-0.0006590378 0.00031886986 -0.0022269604 -0.0062570013 1.2253477e-05 0.0013462207 -0.0009367563 -0.000225531
-0.00056082767 0.0010871389 0.0004602508 -0.0015108672 0.0017629883 0.0022828113 -0.0029831405 0.0001711877
-0.001246121 -0.0032932379 -0.00018802505 -0.0040435586 -0.0006252804 -0.0014348396 -0.001288883 -0.000642306
-0.0024028192 -0.005023449 -6.0404094e-05 -0.005608245 -0.00046156143 -0.0003298761 -0.0008314808 -0.0008756985
0.0002321999 -0.0009576506 -0.0033767044 0.002662706 0.0013950074 0.0031584261 0.0017124433 -0.00073726766
-0.0006081441 0.0045485534 -0.0017987711 -0.0010882133 0.0012776916 -0.0041385577 0.00018485119 -1.9355828e-05
0.00017231965 -0.0010428271 -0.00013261833 -0.0014500594 0.0038310464 -0.0018371667 0.00032179558 0.0008069346
0.002403288 -0.0001410518 0.0005537842 -0.0007676351 -0.0011105185 -0.00029261076 0.0003837522 0.00046590634
-0.000857893 -0.0003363991 -0.0020764265 0.00015656729 -0.0013422031 -0.00019055631 -0.0005602713 -0.0011801899
-0.00039166462 -0.0044015585 -0.00039038592 -0.00085177564 -0.0007490935 -0.00042050274 -0.0038366043 -0.0013312942
-0.0017424964 -0.00018660043 0.0007702504 -0.002671065 -0.0076673124 -0.005680084 0.002260033 -0.00035183356
-0.0017108811 -0.0041809687 -0.0006598684 -7.689265e-05 0.0077477293 -0.005375865 -0.00020796027 -0.0013224598
-0.0014415128 -0.00062584976 -0.0010603635 -0.0013823995 -0.0012388017 -0.00075856544 0.00036215142 -0.00059583294
-0.00089303474 0.0006552292 -0.0061458545 -0.00021601963 -0.00091514125 -0.004100689 -0.0013063914 -0.0040837405
-0.0013223387 -0.0032182347 -0.0008910757 -0.004614398 -0.002986227 -0.0062375288 -0.00021092151 8.9265865e-05
0.0003287121 1.8010382e-05 0.00044390452 0.0003199293 -0.0010633558 0.00083268783 -0.0053719617 -0.004342923
0.00060852495 -0.004822455 -0.00061131787 -0.0021542346 0.0046713366 0.000807421 -0.0006658352 -0.006298923
-0.0003193177 -0.005281011 0.0003839167 -0.0012457606 0.0005919779 -0.0023984811 0.006018601 -0.001010125
-0.005763968 -0.00021750874 -0.0012144741 -0.005357795 -0.0007136493 0.004655133 0.00023929508 0.0009233233
0.0006786917 -0.0032455926 -0.0013316458 0.0007090407 -0.0002397946 -0.00090448104 0.0016708233 0.0046613715
0.0054411646 -0.00018332255 -0.0031995247 -0.0003497613 0.0010124848 -0.00041022638 -0.001096526 -0.00855071
-0.00083562 -0.0037007106 3.415614e-05 0.007135068 0.0024560688 -0.005025095 0.004966126 -0.00020884511
0.00022496498 0.00032086455 -0.002133134 0.0003076475 -0.00062921667 -0.000920811 -0.0019446281 0.0007482647
-9.1453556e-05 0.00081941584 -2.7198123e-05 -0.00091173267 0.0028939531 -0.00014551886 0.0005311699 -1.5236362e-05
-0.0017282633 -0.0012172089 -0.00055512035 -0.0024163492 -0.0008015564 0.0017933088 -0.0010120266 -0.00096272933
-0.0031077336 0.0022430038 0.0016674651 0.0006597793 -0.0008240465 -0.0013267817 0.0016653173 -0.00047333233
0.00059074076 -0.0020093715 -0.00033793785 0.00014853252 -0.0014552196 -0.0011714306 0.0011106052 0.000121776226
00000000: 27a4 8a37 80de fbba ef7e 4838 610b 47ba
00000010: 34da 1739 d1c7 eab9 da96 48bb c1b9 983a
00000020: 9946 0dbb f385 6c3b ed7d 8e3a 3a14 3e3a
00000030: fa2a 72ba 3fbc 9dbb 1915 a9ba ede8 18ba
00000040: 68c5 bbb9 6278 f838 e1e9 90ba 3a27 fdbb
00000050: cf87 933b e7a6 e6ba 61cc f138 2a0c 0abb
00000060: 0328 a9ba 1a5b b7b5 163f d338 90eb 4e39
00000070: fd26 36ba 30dd 96ba 1b72 c2ba 9859 0d3a
00000080: d043 2bba f69e 97ba 6efd 14bb 9f80 e239
00000090: 2c3f 3eb9 faad 343b 1095 5db9 9cd3 95ba
000000a0: 47c3 2cba fd2d a739 32f2 11bb 8807 cdbb
000000b0: 4894 4d37 ac73 b03a a790 75ba 847c 6cb9
000000c0: 8204 13ba 547e 8e3a d14d f139 4a08 c6ba
000000d0: 1214 e73a 389b 153b cb80 43bb d980 3339
000000e0: e254 a3ba 5dd3 57bb 9728 45b9 d47f 84bb
000000f0: dbe9 23ba 3a11 bcba bdef a8ba 6d60 28ba
00000100: 9e78 1dbb bf9b a4bb 675a 7db8 5ec5 b7bb
00000110: bafd f1b9 38f3 acb9 bbf7 59ba 228f 65ba
00000120: b07a 7339 d80a 7bba b34b 5dbb cb80 2e3b
00000130: aed8 b63a 99fd 4e3b 1074 e03a 3245 41ba
00000140: dc6b 1fba 080c 953b bec4 ebba 61a2 8eba
00000150: 3778 a73a bd9c 87bb 9dd4 4139 535e a2b7
00000160: b4b0 3439 79af 88ba 760f 0bb9 eb0f beba
00000170: 4b12 7b3b 16cd f0ba acb6 a839 7788 533a
00000180: 7b80 1d3b 4ee7 13b9 d42b 113a 1f3b 49ba
00000190: d18e 91ba 8d69 99b9 5932 c939 e444 f439
000001a0: 3ae4 60ba b95e b0b9 a814 08bb 362c 2439
000001b0: ddec afba 12d0 47b9 2cdf 12ba 9ab0 9aba
000001c0: 5658 cdb9 f33a 90bb b6ac ccb9 b249 5fba
000001d0: d05e 44ba ec76 dcb9 8a6f 7bbb d27e aeba
000001e0: 7a64 e4ba 2caa 43b9 a1ea 493a 090d 2fbb
000001f0: 143e fbbb 0020 babb 101d 143b 4d76 b8b9
00000200: a53f e0ba 8200 89bb 05fb 2cba 6d41 a1b8
00000210: aae0 fd3b 0628 b0bb e90f 5ab9 6356 adba
00000220: 25f1 bcba 1110 24ba e5fb 8aba a131 b5ba
00000230: 4a5f a2ba 77da 46ba 24df bd39 ac31 1cba
00000240: 8c1a 6aba b0c3 2b3a 2a63 c9bb 5483 62b9
00000250: 17e6 6fba 135f 86bb 393b abba e6d0 85bb
00000260: 5352 adba 05e9 52bb 1497 69ba 6034 97bb
00000270: 93b4 43bb 2f64 ccbb d02a 5db9 3f34 bb38
00000280: fe56 ac39 0015 9737 dbbb e839 2fbc a739
00000290: 4d60 8bba bc48 5a3a 4807 b0bb 144f 8ebb
000002a0: 6b85 1f3a af05 9ebb d940 20ba 0f2e 0dbb
000002b0: 0312 993b 1ba9 533a 728b 2eba 3267 cebb
000002c0: 196a a7b9 550c adbb 6d48 c939 ca48 a3ba
000002d0: f72e 1b3a d62f 1dbb af37 c53b 2c66 84ba
000002e0: abdf bcbb 0f13 64b9 fd2e 9fba 7190 afbb
000002f0: 3214 3bba 168a 983b 49eb 7a39 2e0b 723a
00000300: 3bea 313a 02b4 54bb 9e8a aeba eade 393a
00000310: 5f71 7bb9 b21a 6dba 87ff da3a 6bbe 983b
00000320: cc4b b23b 463a 40b9 1eaf 51bb 2b60 b7b9
00000330: 5ab5 843a a713 d7b9 4fb9 8fba 4718 0cbc
00000340: 820d 5bba 9f87 72bb e042 0f38 4acd e93b
00000350: fff5 203b 8da9 a4bb e2ba a23b 6ffd 5ab9
00000360: 94e4 6b39 b639 a839 0dcc 0bbb c04b a139
00000370: 04f2 24ba 9562 71ba e4e2 feba 3227 443a
00000380: c1ca bfb8 11ce 563a 8627 e4b7 5801 6fba
00000390: 7aa8 3d3b 6c96 18b9 353e 0b3a ad9f 7fb7
000003a0: e586 e2ba c18a 9fba 7f85 11ba 9d5b 1ebb
000003b0: 8a1f 52ba 750d eb3a faa5 84ba ac5f 7cba
000003c0: 1eab 4bbb 5cff 123b d88e da3a 0af5 2c3a
000003d0: d304 58ba 68e7 adba c746 da3a 9729 f8b9
000003e0: f1db 1a3a a9af 03bb 402d b1b9 65bf 1b39
000003f0: 11bd beba b08a 99ba ba91 913a 1d62 ff38

action_model._continuous_distribution.mu.weight f4 [1, 256]
0.0027779192 -0.01958225 0.010841768 -0.009703083 0.011273355 0.0047233393 -0.0005373967 0.024087068
0.00080930436 0.0011181805 0.0037761435 0.012512581 0.0009325027 -0.012482016 -0.006149226 -0.01253747
-0.0043481584 0.0067935498 0.0009345811 7.162911e-05 0.002441748 -0.023430986 0.0055104624 -0.015293702
-0.0053558527 0.024618847 0.004428372 0.011329363 -0.010515984 -0.017827155 -0.0016597088 0.009595251
0.006247046 -0.015625888 5.7213598e-05 0.004771717 -0.010388445 0.011055495 0.008581606 -0.00026178884
-0.008841249 0.021561585 -0.0039568716 -0.0027348788 0.013738582 0.00250601 -0.008776757 0.002374722
-0.008763917 0.021310538 0.0109855365 -0.0027137566 0.0256985 0.009376143 -0.014360092 0.0011044797
-0.023303775 -0.012772785 0.007894213 -0.021531127 0.003237116 -0.0027171855 -0.012217758 0.0019550987
-0.00016558183 -0.0057367263 0.003310299 -0.013300495 -0.007114939 0.014937163 0.010527466 -0.0140556395
0.012390672 0.0016009909 -0.01328294 0.015010915 0.0072061038 0.011611984 0.004265568 -0.023091523
0.0031886785 0.0015772206 -0.0041656927 -0.0014376749 0.02077205 -0.0075383764 0.0019329577 0.00327952
0.011293169 0.0024906097 0.009149821 -0.005911372 0.026950637 -0.0018998432 0.0232973 0.013958094
0.013147273 -0.007535876 0.009632844 -0.017306726 0.00011114083 -0.024942674 0.00860884 0.01194531
0.0018784832 0.013049345 -0.023915974 0.017477943 8.393448e-05 0.017402178 -0.013701801 -0.0023268317
0.0019357576 -0.007879142 -0.014237091 0.001692729 -0.017272843 0.006051275 -0.009434166 0.016246667
-0.025043033 0.022303862 0.0164542 -0.009452561 -0.0010747295 -0.025448032 0.0013998223 0.002927876
-0.0013384445 -0.00402396 -0.026807059 0.0113087585 0.02692088 -0.0045365808 0.010777462 -0.0023887143
-0.002893558 -0.0061780605 0.017125284 -0.013670585 0.00015447446 -0.023990674 0.012308017 -0.018055568
-0.0079367515 0.017955126 -0.006619226 0.006143548 0.008942102 -0.0245879 -0.0016528997 -0.026229618
0.0016138586 -0.0054834853 -0.005019568 -0.0125503875 -0.0110576125 -0.01178064 0.011840786 0.006591861
0.010878298 0.0056190025 0.014300231 0.018586202 -0.0023593768 0.0049035363 -0.013037121 -0.015468821
0.0025274302 -0.00235718 -0.008791131 -0.001539837 0.003007213 0.0013002846 -0.0105783595 -0.0054372028
0.0063485373 -0.00036515054 0.011707701 0.010383587 0.014309854 -0.030815296 0.015645312 -0.0034664462
-0.02232251 0.00075517397 -0.010064296 -0.021972975 -0.009834731 0.012750004 0.013400098 0.010845981
0.014800673 -0.0005707831 -0.02068633 0.010514415 0.0027164915 -0.0048413174 0.008498802 0.005292572
0.0030821303 0.012960241 -0.0057010935 0.008274971 0.018021584 0.0072475513 0.00083632057 -0.0006978738
-0.014203677 -0.03721942 0.0031151667 0.014354416 0.002155039 -0.010268235 0.026579732 0.008345982
0.005434672 0.018311419 0.00074624136 0.008631513 -0.005268894 -0.003075174 -0.0013469598 -0.018360905
0.01881169 -0.002409414 0.0037531268 -0.013126359 0.005457569 0.00864743 0.011799186 0.013350588
-0.0075361095 -0.014441598 -0.028811807 0.00070799637 -0.00463693 0.006348581 -0.0022329383 0.0032331503
-0.012574863 0.010614542 0.0077137467 0.0058898567 0.002397428 -0.0090076225 0.01634804 0.00302164
0.0076098978 -0.014054528 0.0067879925 0.018300604 -0.0013919513 -0.00044921148 0.019580463 0.003598789
00000000: c00d 363b f46a a0bc aca1 313c aef9 1ebc
00000010: e1b3 383c 3ec6 9a3b 15e0 0cba 3e52 c53c
00000020: 7f27 543a e98f 923a 2d79 773b 9201 4d3c
00000030: 3273 743a 5f81 4cbc 727f c9bb f669 4dbc
00000040: ff7a 8ebb 6d9c de3b adfe 743a 9637 9638
00000050: bc05 203b 57f2 bfbc 1c91 b43b 6f92 7abc
00000060: 2680 afbb 77ad c93c e01b 913b cb9e 393c
00000070: 3c4b 2cbc 410a 92bc 968a d9ba 6635 1d3c
00000080: 05b4 cc3b dd01 80bc a2f8 6f38 105c 9c3b
00000090: 4c34 2abc 1b22 353c dd99 0c3c b440 89b9
000000a0: e3da 10bc eca1 b03c a5a8 81bb a73b 33bb
000000b0: ca17 613c df3b 243b 63cc 0fbc 39a1 1b3b
000000c0: 8896 0fbc 7093 ae3c aefc 333c 48d9 31bb
000000d0: a985 d23c 659e 193c 9746 6bbc 30c4 903a
000000e0: 8fe7 bebc f144 51bc bb56 013c 0c62 b0bc
000000f0: cb25 543b cf12 32bb fe2c 48bc 1d21 003b
00000100: 09a0 2db9 26fb bbbb 9af1 583b 52ea 59bc
00000110: 6f24 e9bb 01bb 743c 657b 2c3c a049 66bc
00000120: 3f02 4b3c 57d8 d13a b0a0 59bc 57f0 753c
00000130: 2e21 ec3b 3140 3e3c 2ec6 8b3b 6f2a bdbc
00000140: 26f9 503b beba ce3a 5d80 88bb 5d70 bcba
00000150: 252a aa3c 7c04 f7bb 4c5b fd3a 37ed 563b
00000160: fc06 393c 7f39 233b 21e9 153c 2fb4 c1bb
00000170: 95c7 dc3c 2904 f9ba fbd9 be3c 7db0 643c
00000180: a967 573c 82ef f6bb 13d3 1d3c d6c6 8dbc
00000190: 4714 e938 9454 ccbc 180c 0d3c 43b6 433c
000001a0: 7037 f63a eccc 553c 6feb c3bc e72d 8f3c
000001b0: fb05 b038 038f 8e3c 857d 60bc c27d 18bb
000001c0: 3fb9 fd3a 8417 01bc b042 69bc 8fde dd3a
000001d0: c77f 8dbc c649 c63b c391 1abc bb17 853c
000001e0: 0c27 cdbc 97b6 b63c f5ca 863c eade 1abc
000001f0: f0dd 8cba 6478 d0bc 3e7a b73a 9ce1 3f3b
00000200: bf6e afba 6cdb 83bb 7a9a dbbc 5f48 393c
00000210: 2d89 dc3c 99a7 94bb f493 303c fa8b 1cbb
00000220: d9a1 3dbb 5471 cabb 534a 8c3c 97fa 5fbc
00000230: 6cfa 2139 1788 c4bc 91a7 493c 45e9 93bc
00000240: 2609 02bc a116 933c 18e6 d8bb d14f c93b
00000250: e581 123c 906c c9bc 1ca6 d8ba 7fdf d6bc
00000260: 1c88 d33a cfae b3bb 307b a4bb 24a0 4dbc
00000270: fd2a 35bc 9603 41bc dbff 413c 8a00 d83b
00000280: e43a 323c 9c1f b83b 844b 6a3c 1742 983c
00000290: c69f 1abb d8ad a03b a699 55bc f070 7dbc
000002a0: 3ea3 253b eb7a 1abb ad08 10bc 5bd4 c9ba
000002b0: a914 453b 506e aa3a db50 2dbc 902a b2bb
000002c0: 6407 d03b ad71 bfb9 a8d1 3f3c ec1f 2a3c
000002d0: e173 6a3c 5c70 fcbc 992a 803c 512d 63bb
000002e0: b2dd b6bc def6 453a b8e4 24bc ab00 b4bc
000002f0: da21 21bc 65e5 503c 168c 5b3c 57b3 313c
00000300: 867e 723c 9ba0 15ba 6176 a9bc a744 2c3c
00000310: 2a07 323b eaa3 9ebb 8f3e 0b3c 506d ad3b
00000320: 91fd 493b 3157 543c 3dd0 babb be93 073c
00000330: 00a2 933c de7c ed3b 863c 5b3a 85f1 36ba
00000340: 8ab6 68bc 6473 18bd d327 4c3b c92e 6b3c
00000350: 8e3b 0d3b 193c 28bc bdbd d93c 96bd 083c
00000360: 5515 b23b d401 963c 699f 433a 316b 0d3c
00000370: b0a6 acbb dc88 49bb 798c b0ba 9c69 96bc
00000380: f91a 9a3c 42e7 1dbb 05f7 753b f10f 57bc
00000390: 68d5 b23b f3ad 0d3c 5f51 413c 6dbc 5a3c
000003a0: 78f1 f6bb 749c 6cbc bd06 ecbc d598 393a
000003b0: 63f1 97bb c207 d03b 7d56 12bb 43e3 533b
000003c0: cc06 4ebc 9ee8 2d3c 99c3 fc3b b3ff c03b
000003d0: 2b1e 1d3b b594 13bc 53ec 853c b506 463b
000003e0: 735c f93b f744 66bc cf6d de3b 26eb 953c
000003f0: 2372 b6ba 2584 ebb9 3567 a03c a9d9 6b3b
